outputs/exp_v1/checkpoints/epoch_20.pth (torch, 651919 bytes, 13 tensors)

base.0.weight f4 [64, 3, 7, 7]
000000 aa ca ab bc ad dc 6f 3d 9a 4e 1f bd 2f 03 9c 3b
       -0.020970661 0.058560062 -0.03889332 0.0047611217
000010 8c b5 7c bb f1 f4 87 bd 88 1d 81 3b 76 10 86 3d
       -0.0038560359 -0.06638516 0.003940288 0.065461084
000020 8c d3 4f 3c da ff 55 3d ad b0 7c bd 1a b3 91 bd
       0.012684714 0.052245952 -0.06169193 -0.07114239
000030 a2 1b 8b 3d 21 6c 8e 3d db 70 c4 3c 25 4c 9f 3d
       0.0679238 0.06954218 0.023979595 0.07778195
000040 92 18 1b bd 3c 52 89 bd 0e f4 c2 3c 02 a6 19 3c
       -0.03786523 -0.06705138 0.023798015 0.009377958
000050 64 7d ea 3c 72 f5 46 3d 95 d9 45 bd ae b3 f7 bc
       0.028624244 0.04857392 -0.048303206 -0.030237045
000060 60 1b 4f bd ba 06 a7 bd 44 d7 cb bc 40 d2 99 3d
       -0.050563216 -0.0815558 -0.02488292 0.07510805
000070 c0 88 90 bd d6 98 37 3d d7 3d 43 bd f6 f4 85 bd
       -0.07057333 0.04482349 -0.047666397 -0.06540863
000080 d3 f8 8b 3a 11 cd 3f 3d 9a 4a 2d 3a bf fb 8f 3c
       0.0010679014 0.046826426 0.0006610543 0.017576097
000090 90 92 9a bd 2e 4f 69 3d 21 b6 80 bd 0e 40 f4 3c
       -0.07547486 0.056960277 -0.06284738 0.0298157
0000a0 0e c1 99 3d 93 85 a6 3b 5a 3d ac bd 52 ab a2 bd
       0.075075254 0.0050818413 -0.084101394 -0.07942833
0000b0 8e 12 d3 3c bc 6e 8d bd ce 31 6d bd e1 5f 0d bd
       0.025765684 -0.069058865 -0.057908826 -0.034515265
0000c0 5c 38 63 3c 3a 78 c8 3c 0f c0 41 bd b8 8c 87 bc
       0.013868418 0.024471391 -0.047302302 -0.016546592
0000d0 17 78 5d 3d ba e7 89 bd b2 61 be ba db 8d 52 bd
       0.054069605 -0.067336515 -0.0014524965 -0.051404815
0000e0 18 4f 69 bc 76 cc 4d 3c 36 70 67 3d 79 1e af bd
       -0.014240049 0.012560954 0.056503497 -0.08550734
0000f0 0a 42 a5 3c 07 16 0e 3d 46 58 8a 3d 04 17 01 3d
       0.020173091 0.034688976 0.06755118 0.03151609
000100 cc ff 37 3d d0 bd 99 bd b3 54 fb bc 24 ac 47 3c
       0.04492168 -0.07506907 -0.030680036 0.012187038
000110 2e 45 8e bd be 0a 33 bd 17 b6 07 3d b9 e2 1e bd
       -0.06946789 -0.043711416 0.03313264 -0.03879044
000120 b3 2c 0a 3c 54 ef f9 3c 8c f2 96 3d 7b 41 96 3d
       0.008433509 0.030509628 0.07370481 0.07336708
000130 2d 08 6b 3c 98 af 88 bd d2 a5 2d bd 28 4a 7d 3d
       0.014345211 -0.06674117 -0.042394467 0.0618383
000140 eb fe 81 3d ff 02 f2 3c 15 49 8f bd 5c fa 72 3b
       0.0634745 0.029542444 -0.06996361 0.0037075495
000150 3f 31 ab bb 57 f7 a1 bc 0c c2 16 bd e3 da bc 3c
       -0.0052243765 -0.019771261 -0.03680615 0.023053592
000160 1e eb 85 3d bb d4 36 bd e7 b5 20 3d 9b f7 80 bd
       0.06538986 -0.04463647 0.039235976 -0.06297227
000170 0d a1 e4 3c 09 af b1 bd fe 91 b6 3c f9 11 c4 3c
       0.027908826 -0.086759634 0.022286411 0.023934351
000180 64 ae 94 bd c1 f8 9c 3c d8 fb 7d 3c e4 cb 95 bd
       -0.07259825 0.019161584 0.015501939 -0.0731428
000190 a0 bb 49 bd bb df 13 3c 18 29 38 bc ba 5a 47 3b
       -0.0492512 0.0090255095 -0.011240266 0.0030419067
0001a0 11 27 47 3d 4a e4 5c 3d 8f 3c 6b bd 2e ef 26 3d
       0.04862124 0.05392865 -0.0574308 0.040755443
0001b0 ae 6c e0 3c c5 49 c3 bc 57 7d c5 3c 50 ae ee bc
       0.027395573 -0.023838887 0.024107618 -0.029135853
0001c0 9f 6d 0d bc 58 8c 8b 3d df 13 3a bc 5d f4 8c bc
       -0.008632093 0.06813878 -0.011357277 -0.017206365
0001d0 a7 00 a2 bd 80 70 b8 bb 1f 49 a5 bd a5 2c 04 3c
       -0.07910281 -0.0056286454 -0.08070587 0.008067285
0001e0 13 a9 94 bc 73 24 16 bd b5 25 18 bc 3f 91 15 3d
       -0.018147027 -0.036655854 -0.009286334 0.03651547
0001f0 55 9f 13 3d 93 a0 9e bb bb 94 a6 bd c6 89 e3 3c
       0.036040623 -0.0048409193 -0.08133837 0.027775656
000200 ef 3e 31 bb a2 ff a7 bb a0 cb a4 bc 20 a9 62 bd
       -0.0027045568 -0.0051269094 -0.020116627 -0.05533707
000210 42 41 4b bd 59 d4 73 bc b7 ca 26 3d 37 de 3f 3d
       -0.04962278 -0.014882171 0.040720668 0.04684278
000220 7c 47 94 3d e9 a8 14 b9 b1 d5 20 b9 9c ad 10 bd
       0.07240197 -0.00014177304 -0.00015338395 -0.035321817
000230 f2 9e f9 bc d9 b1 a1 3d 69 a6 2c 3c f8 46 a7 bd
       -0.030471299 0.0789525 0.010537722 -0.08167833
000240 c1 50 d0 3c e5 4f 6d 3d 2f cb 14 bd 19 b3 58 3d
       0.025429131 0.05793752 -0.036326583 0.052905176
000250 c3 f6 48 bd f1 4a 2c 3c bb 35 68 bd a4 c2 91 bd
       -0.049063455 0.010515914 -0.056691866 -0.07117203
000260 20 69 71 3c f0 d9 26 3c f4 9a 3a bd 62 4a 00 3d
       0.014734536 0.010183796 -0.04555793 0.031320937
000270 25 39 a3 3b 7d 3d 78 3d 03 fe 89 bc 88 17 27 bb
       0.0049811774 0.060605515 -0.016844755 -0.0025496203
000280 ff 1e 10 3d 3f fd 02 bd 74 43 62 bd 04 ef 88 3c
       0.03518581 -0.031979796 -0.05524011 0.016715534
000290 85 9b 70 bd a1 27 97 bc 9c 47 f9 3c 8f bd 88 3d
       -0.058742065 -0.018451514 0.030429654 0.066767804
0002a0 32 ea 7f bc a6 b9 31 3d 06 8a 82 3c 1e 7c 78 bd
       -0.015619801 0.04338994 0.015934955 -0.060665242
0002b0 37 bc 3e 3d 2d 27 9c bd ec 07 b4 bd 3d 60 a5 bd
       0.046566214 -0.0762466 -0.087905735 -0.080749966
0002c0 f4 27 86 bd ae ed 62 3d a2 7c 50 bc 55 63 a1 bd
       -0.06550589 0.05540245 -0.012725027 -0.07880274
0002d0 b1 6d e5 ba 5c 45 22 3d ec 4e 80 3d f4 fb 99 3d
       -0.0017504004 0.039616928 0.06265053 0.07518759
0002e0 ee 53 5e bd 7e 05 86 bd 9a 77 e3 3c d5 0f 41 bd
       -0.05427926 -0.06544016 0.027766991 -0.04713424
0002f0 73 d1 9f bc d3 10 48 3c 25 bb 95 3d b1 8c 4d 3d
       -0.019509053 0.012211042 0.073110856 0.050183002
000300 76 7d 00 3d a7 c6 4e bd 4a 59 f4 bc 78 93 a3 bd
       0.03136965 -0.05048242 -0.029827733 -0.07987112
000310 b7 1f 7c bb 9d c1 af 3d 4f e6 99 3c 06 72 e7 3b
       -0.0038471052 0.08581851 0.018786578 0.007063153
000320 43 5b 81 3d e2 94 f1 bb 0e 51 33 bc 4f 83 ad 3d
       0.06316235 -0.0073724845 -0.010944618 0.08472311
000330 9b 2a 7b bd b6 40 d5 3b c9 26 15 bd cd 88 55 3d
       -0.06131993 0.0065079583 -0.03641394 0.052132417
000340 c4 b0 a2 3d 13 95 0d 3d 11 63 2b bd b5 1f 08 3d
       0.079438716 0.034565996 -0.041842524 0.033233363
000350 6d 3b 92 3c 23 62 7d 3d 09 4d 7c 3d 5f 23 0d 3a
       0.017850602 0.06186117 0.061596904 0.0005383994
000360 5d b5 3d bd 58 2d b7 3d c0 56 1f 3d 5c 17 8b 3d
       -0.04631554 0.089441955 0.03890109 0.06791565
000370 f2 87 81 bd c0 d9 50 bd 37 1a 08 bd c4 29 9f 3d
       -0.06324758 -0.050988913 -0.033228125 0.07771638
000380 5e 07 93 bd 5d 23 65 bc 4f 63 2f 3c b2 29 5e 3d
       -0.071791396 -0.013985482 0.010704829 0.054238982
000390 06 be 1e 3c 11 ff e5 3c 2c 66 8c b9 ec e0 47 3d
       0.00968886 0.028075727 -0.00026779005 0.048798487
0003a0 02 1a bb 3c 79 52 68 bd a8 97 96 bb 98 74 4d 3d
       0.02283955 -0.056719277 -0.0045957156 0.05016002
0003b0 79 19 1e 3c 70 69 72 3c 52 e1 b8 3d e5 4b 7c 3d
       0.009649628 0.014795646 0.090273514 0.061595816
0003c0 17 95 b7 3d 84 8d bd 3b 28 9f 7f 3d 4d 22 97 3d
       0.089639835 0.0057846922 0.062407643 0.07379589
0003d0 56 e0 50 bd a3 03 84 bd 09 a4 71 bd 9d 30 24 bd
       -0.050995193 -0.06446006 -0.058994327 -0.040085424
0003e0 f8 15 8c 3d 04 32 96 bd df 2f 9f 3d 3c ec 88 3d
       0.06840128 -0.073337585 0.077728026 0.06685683
0003f0 0a 44 90 ba 9d 78 95 bd 11 0d 88 3d 91 37 67 3a
       -0.0011006605 -0.07298396 0.06643117 0.0008820231

base.0.bias f4 [64]
000000 95 27 56 bb 1d e7 e1 bc ba 71 6d 3c a4 e6 94 bd
       -0.0032677401 -0.027576024 0.014492447 -0.07270554
000010 ff d1 c4 bb 95 49 03 3d 1b e8 47 bc 4a d1 8f 3c
       -0.006006479 0.032052595 -0.012201334 0.017555851
000020 b2 2b a7 bd 92 2c 9d bc c5 70 c7 bc 03 58 a0 3b
       -0.08162631 -0.019186292 -0.024345765 0.0048933043
000030 28 fb 6e 3b 95 9e 29 bd 9a d0 10 3c 3b d2 50 3d
       0.0036465619 -0.041411 0.008838797 0.05098174
000040 06 d9 8f 3d b1 52 28 3b 6d 28 5b 3d e7 5e 5f 3d
       0.07023816 0.0025684054 0.05350535 0.054533865
000050 b9 7c 94 bc 18 ba 71 bd 8b b6 61 3a 3f 17 21 bd
       -0.018125879 -0.059015363 0.000861027 -0.03932881
000060 ab fb 93 bd 60 d9 70 3d b9 04 f0 bc 0f 85 51 3d
       -0.07225736 0.058801055 -0.029299127 0.051152285
000070 aa cf 25 3c e8 96 19 3d 23 5f eb 3c 6c 0f a0 3d
       0.010120312 0.03749743 0.028731888 0.078154415
000080 5f 6f 91 3c 39 07 22 3d e7 d9 86 bd cf 8d f6 3c
       0.017753301 0.03955767 -0.0658453 0.030096916
000090 85 c8 74 bd d6 1b 01 3c c6 c9 d8 3c 9f c5 08 bd
       -0.059761543 0.007880172 0.0264634 -0.03339159
0000a0 2a d0 66 3d 5d 9c 40 bd 23 e8 b3 3d 61 98 ac 3d
       0.056350864 -0.04702412 0.08784511 0.084275015
0000b0 f2 86 64 3a fe bb 32 bd d5 59 a1 bd b6 ba 98 bd
       0.0008717618 -0.043636315 -0.07878462 -0.07457487
0000c0 3f 2d bb bc 40 c3 27 bd 78 b2 a8 bd 8a c4 87 bc
       -0.022848723 -0.04095769 -0.08237165 -0.01657321
0000d0 ec 6b b0 bb 25 fd 4d bd 1a 9f 19 3b a1 fa 5a bd
       -0.005383959 -0.050290246 0.002344078 -0.053461675
0000e0 73 10 ce 3c ab b2 60 bc 37 e8 80 3d ee 28 95 bd
       0.025154328 -0.013714473 0.062942915 -0.07283197
0000f0 ab 12 ac 3c 2b f7 60 3d 8d ec 27 3d bd 10 81 3d
       0.021004995 0.054923218 0.040997077 0.06302021

res_blocks.0.conv.weight f4 [64, 64, 3, 3]
000000 3d 94 c6 bc fb 7e 61 38 f3 c1 b4 bc 36 38 7d bc
       -0.024240607 5.376244e-05 -0.022065138 -0.015455296
000010 0b 1f f7 bc db 26 86 b9 aa b4 b2 3c 6a 87 8d bc
       -0.03016617 -0.0002558742 0.021814663 -0.017276485
000020 f9 88 26 3d e6 42 3b bd 6e f4 33 3c 66 73 fc 3a
       0.04065797 -0.045718096 0.01098357 0.0019260466
000030 e2 bc b5 bc b5 fa fc bc 0c 12 f3 3c 70 da b5 bc
       -0.022184793 -0.030881265 0.029671691 -0.022198886
000040 60 c6 e3 3b 05 4d 0b 3d bb c4 bf bc f6 87 d6 3c
       0.0069511384 0.034009 -0.023409238 0.026187878
000050 8a b7 3a 3d b2 9a 11 3d b1 e1 e0 3c ec 47 10 3d
       0.045585193 0.03554792 0.027451368 0.03522484
000060 7e 7c 26 3c 5f 9d 3d 3c b1 22 15 3c 16 3b 2b 3d
       0.010161517 0.011573165 0.009102509 0.041804396
000070 e5 1a b5 ba fd 99 f6 3c a2 a4 08 3d b0 13 13 bb
       -0.0013817219 0.030102724 0.03336013 -0.0022442155
000080 91 ae 40 b8 02 f2 9a 3c cd 1c 7d bc ea 4d 1d 3d
       -4.5938945e-05 0.018914226 -0.015448761 0.038404383
000090 32 10 33 3c 3a 16 65 bc ca d5 1c bd d4 fc 02 bd
       0.010929154 -0.01398235 -0.038289823 -0.031979397
0000a0 7a 98 6f bc 86 8c cf 3c a6 00 2d 3d 87 0d 07 3d
       -0.014623756 0.025335561 0.042236947 0.032971885
0000b0 9f b2 88 bb 4d d0 06 bc 26 0d d7 bb a4 0b de bc
       -0.004171684 -0.008228374 -0.0065628467 -0.02710516
0000c0 d1 51 0a bd a2 77 3b 3d 1c 2e 01 3d ad f7 9c bc
       -0.033769432 0.045768388 0.031538114 -0.01916107
0000d0 91 61 f0 b9 ec 52 f2 3a 31 80 09 bd 01 f0 7d 3b
       -0.0004584906 0.0018487847 -0.03356952 0.003874779
0000e0 04 18 e2 bc 80 17 e1 3b 7a 69 02 3d 7e c8 56 ba
       -0.027599342 0.0068692565 0.03183887 -0.0008193328
0000f0 07 6b 07 3c a7 70 a6 3b 07 45 6e bc 71 5f bd 3c
       0.008265263 0.005079347 -0.014542825 0.0231168
000100 6f 6b fc 3b 19 e8 7a bc 46 f4 88 3c 1e 78 a4 bc
       0.007703237 -0.015314125 0.016718041 -0.020076808
000110 ca 89 d0 bb 8e 85 e1 3c 73 a4 8c 3c 0a 1f 7b 3c
       -0.006364082 0.027529504 0.01716826 0.0153272245
000120 f2 ac 26 bb c3 cd 0f 3d d7 07 8c ba 50 ee d0 3c
       -0.0025432673 0.03510834 -0.0010683489 0.025504261
000130 54 e4 1e 3c e9 77 96 bc a8 05 f4 3c 53 33 3e bc
       0.009697992 -0.018367724 0.029787853 -0.011608916
000140 7a 3b a0 3b f1 a1 49 3c ac a7 a0 bb ed 21 19 bc
       0.0048899027 0.012306676 -0.0049028005 -0.009346467
000150 f0 ea 01 bd f5 f0 85 3b a9 66 41 bc 1a 89 79 bc
       -0.031718194 0.004087562 -0.011804261 -0.0152304415
000160 be 66 22 3d 7c 79 e8 3c 5d 87 40 bc 4f 2b 03 bd
       0.039648764 0.02837824 -0.011751023 -0.032023724
000170 a4 26 ab bb a7 7c 43 3b c4 31 05 3c cc ef 82 bc
       -0.005223112 0.0029828937 0.008129541 -0.015983485
000180 a2 04 ae 3c 88 44 4a bc 23 9b 99 bc 61 61 eb bc
       0.021242443 -0.012345441 -0.018750733 -0.028732957
000190 91 aa 31 bb d9 4f 8e 3c 76 7d b7 bc 4b cc 8a 3c
       -0.0027109722 0.017372059 -0.022398692 0.016943118
0001a0 83 95 16 bd 85 9c 82 3c f1 84 00 bd bc e5 84 bc
       -0.03676368 0.015943775 -0.031376783 -0.016222827
0001b0 d2 7b 13 bd 6a 4d 24 3d 61 b0 ed 3c 1a 6d 1d 3d
       -0.036006756 0.04011289 0.029014768 0.038434125
0001c0 fb 87 35 ba aa db a0 bc 68 44 0b bd 72 c2 aa 39
       -0.0006924865 -0.019635994 -0.034000784 0.000325698
0001d0 39 71 e8 bc 3d 2f 8d 3b fd 99 65 bc 5f 58 21 3d
       -0.028374301 0.0043086098 -0.014013764 0.039390918
0001e0 18 bb e1 bc a7 1f 00 bd 53 14 dd bc 42 c1 f7 bc
       -0.027555034 -0.031280186 -0.02698723 -0.03024352
0001f0 1c 9c 57 3c 7d 02 16 bd 76 af d1 3c ce 4f a9 bc
       0.013159778 -0.036623467 0.025596362 -0.020667937
000200 10 d9 d8 bc 0f 63 cb 3c 56 65 db bc 8f 49 39 3c
       -0.026470691 0.024827508 -0.02678172 0.011309042
000210 37 73 0d 3d 99 92 21 3c 47 5b 09 3d 60 5a 0f bc
       0.034533706 0.009861612 0.033534314 -0.008749574
000220 d1 2a f1 bc 6e 31 ca 3c 80 d1 d6 bb 4d a3 4e ba
       -0.029439362 0.024681773 -0.006555736 -0.000788261
000230 53 b2 e3 3c a1 03 31 3d 9c e4 bf 3c 07 3b 34 3d
       0.027794993 0.04321635 0.02342444 0.044001605
000240 89 16 ff bb 49 de 2d 3d 93 5a 2c 3d 63 90 13 bc
       -0.007784669 0.042448316 0.042078566 -0.009006592
000250 92 19 a7 3b 87 ba d3 bc 1c ee 04 bc 92 84 53 3c
       0.0050994838 -0.02584578 -0.00811341 0.012910025
000260 5f 98 16 bd 4b 72 53 3c ba 08 05 3d 79 03 92 bc
       -0.036766406 0.012905668 0.032479025 -0.017823922
000270 46 56 c4 bc c1 f1 93 bb e7 af d9 3c 43 76 1c 3c
       -0.02396692 -0.0045149033 0.026573135 0.00954968
000280 57 3c 32 3d 1a 63 13 3d cb e0 67 3b ad a7 24 bc
       0.043514576 0.035983182 0.003538179 -0.010049743
000290 7d 13 21 bd f4 9d 0d 3c 70 d8 c2 3c fb 88 f4 bc
       -0.039325226 0.008643616 0.023784846 -0.029850474
0002a0 ec d9 a4 3c a3 bb ad bb 62 3a aa 3c 20 55 bc 39
       0.020123444 -0.005301909 0.020779792 0.00035921577
0002b0 10 9a 92 3c 4c a9 2d bd 0c 88 03 3c e5 c8 e3 3c
       0.017895728 -0.042397782 0.008028042 0.027805755
0002c0 a4 2f aa 3c 3d 1a 96 3c 3f 80 1a 3c 90 0c 56 3c
       0.02077467 0.018323058 0.00942999 0.013064519
0002d0 60 97 40 bc b6 0a 6e 3b 8d 18 3a 3d ce 1a 55 3c
       -0.011754841 0.0036322302 0.04543357 0.013006879
0002e0 7b 82 25 3d b6 6a a8 3c e8 d8 25 3d 82 e6 a8 3c
       0.04040764 0.020558696 0.04049006 0.020617727
0002f0 67 71 04 3c f2 f8 67 3c bc af 26 3d d0 b8 2c bd
       0.008083678 0.014158474 0.040694937 -0.04216844
000300 f0 c4 cb 3c 7f ab 8c bb c6 0f 05 bc 7c b4 90 bc
       0.02487418 -0.004292905 -0.008121436 -0.017664187
000310 90 ac 3d 3b 68 ff bf 3c 84 60 f3 3c 01 b6 c8 3c
       0.0028941967 0.023437217 0.029709108 0.024500849
000320 83 33 05 3d c4 2b 34 3d a1 54 9b bc 9d ea ac bb
       0.03251983 0.04398705 -0.018961253 -0.0052769915
000330 b3 bb 72 3c 11 44 85 3b 03 9b c7 3c a0 df c8 bb
       0.014815259 0.004066952 0.024365908 -0.006130174
000340 2f d4 4e 3d 15 4d a9 bc 3f df 40 bb 8b 36 80 ba
       0.050495323 -0.020666638 -0.002942994 -0.000978188
000350 fc d3 eb 3c f3 79 7b bc d8 1d 4b 3d a5 e3 d6 3b
       0.028787605 -0.015348899 0.049589008 0.006557899
000360 7e ac cd 3a 17 38 24 3c 6f 14 f2 3b 2c 5f 63 3c
       0.0015691665 0.0100231385 0.00738769 0.013877671
000370 44 22 1b bd 4a 6d aa bc 47 aa fa bc 60 6a 22 3d
       -0.037874475 -0.020804066 -0.030598773 0.03965223
000380 4e fd c6 bc 4d 9d 36 3c 45 08 e4 3c 04 6d d5 bc
       -0.024290707 0.011145902 0.027835974 -0.02605296
000390 9e eb f1 3c 4b 7c 1f bd 40 84 6d bb 6d e4 40 3c
       0.029531296 -0.038936894 -0.0036242157 0.011773211
0003a0 ee 2a 0c bd 17 73 0a bd 8c 67 0f 3d 04 8f 16 3c
       -0.03422063 -0.033801164 0.03501086 0.009189371
0003b0 c8 a8 2f 3d 36 35 a7 3b 5e e7 5b 3c 89 fc a7 3c
       0.04288557 0.005102779 0.013421861 0.02050616
0003c0 83 05 c3 3c c8 07 89 3c b1 c7 c7 3c 78 63 87 bb
       0.02380634 0.016727343 0.024387212 -0.0041317306
0003d0 93 ad a0 bc ee 6e 63 3c c2 f1 7f 3c e4 c4 c7 bb
       -0.019614017 0.013881428 0.015621604 -0.0060964692
0003e0 67 f8 0a 3c 36 bc 20 3d 01 4d 2b 3d 21 99 1c 3c
       0.008482075 0.039241992 0.041821484 0.009557993
0003f0 19 a3 0d bd 18 bd 96 3c a8 a7 17 3c 3f ff fd 3a
       -0.03457937 0.018400714 0.009256281 0.0019378437

res_blocks.1.conv.weight f4 [64, 64, 3, 3]
000000 52 81 07 bd 46 78 1c bd 65 07 08 bd ea d0 37 bd
       -0.033082314 -0.03820064 -0.033210177 -0.04487697
000010 af a5 ff 3c 12 64 4f bc f6 cb ae bc e3 37 03 bd
       0.031206934 -0.012658136 -0.02133749 -0.03203572
000020 9e 96 92 bc 16 a2 74 3c 26 3e 15 3c 24 65 09 3d
       -0.017894085 0.014931222 0.009109056 0.03354372
000030 72 69 0d bd 67 a0 be 3c 2c b0 6c 3c de b8 c7 bc
       -0.03452439 0.023269845 0.0144462995 -0.024380144
000040 28 e4 2a bd 10 ee 80 ba 58 50 ee bc ef 8e 69 3c
       -0.041721493 -0.0009836573 -0.029091045 0.014255269
000050 ce f8 b8 bb a4 ff 13 ba 27 d9 d7 3b 4f 45 29 3d
       -0.005644894 -0.00056456984 0.006587166 0.041325863
000060 e6 b3 11 3c 83 5e ec bc f4 a5 9e 3c 83 b7 b4 bb
       0.008892989 -0.02885366 0.019366242 -0.0055150404
000070 9e e5 f0 3c 16 96 24 3d 34 1e 12 3c 3d 75 d4 bc
       0.029406365 0.040182196 0.008918334 -0.02593481
000080 9c 8f a7 bc 86 64 1f 3d 48 bc 95 3c 66 f7 b6 3c
       -0.02045422 0.038914226 0.018278256 0.022334766
000090 bb 87 81 bc c8 3e 35 3d 82 e6 0e 3d d0 08 55 3d
       -0.015811792 0.044249326 0.034887798 0.052010357
0000a0 7c 57 f5 bc 30 f4 ac bc 0c 51 b6 3c 53 88 19 3c
       -0.029948942 -0.021112531 0.022255443 0.009370881
0000b0 ca 0a 11 bc 7f 8a b8 3b 48 90 fd bc bc f5 11 3d
       -0.00885267 0.0056317444 -0.030952588 0.03563474
0000c0 f6 e0 3e bc 44 22 14 3d 16 0d 87 bc 89 37 91 ba
       -0.011650315 0.03616549 -0.016485732 -0.0011079173
0000d0 20 00 cd bc d5 32 d7 3c 90 da a0 bc 8a 74 39 3d
       -0.025024474 0.026269356 -0.019635469 0.045277156
0000e0 38 c3 63 3c b2 b2 a1 bc ff 60 ea bc bd 35 e7 3c
       0.013901524 -0.019738529 -0.028610704 0.028223867
0000f0 f7 78 12 3d 2c 11 6f 3c 39 fc bc 3c b8 23 cf bc
       0.035759892 0.014591496 0.023069488 -0.025285587
000100 8d b5 42 3c 7d 4a 18 3d 79 94 1f 3c 28 c1 79 3b
       0.011884105 0.037180413 0.0097399885 0.0038109515
000110 c2 b7 d9 3c 94 c3 82 bb 3c 0a b6 3b 4f 2c 5c bc
       0.02657688 -0.0039906 0.0055554193 -0.013438298
000120 df 5c 2b 3b fd 6b 19 bd 0b 05 24 bd e1 f4 e6 bc
       0.0026147885 -0.0374565 -0.04004387 -0.02819294
000130 c4 ec 1f bd 51 56 e7 bc 37 9b 6c 3c 95 11 af 3b
       -0.039044157 -0.028239401 0.014441303 0.005342672
000140 2b ac 32 3c 4a 5d 32 3d 84 69 aa bc 21 8f a7 bc
       0.010905306 0.043546 -0.020802267 -0.020453991
000150 d4 83 07 3d 51 b3 aa 3c 0e a3 0b 3d b4 cd 2f 3d
       0.033084705 0.020837458 0.034091048 0.042920783
000160 63 b6 08 3c 01 1a 0b bd 6a f1 ce bc 72 ca 2b 3b
       0.008344266 -0.033960346 -0.0252616 0.0026213196
000170 43 22 59 3c 2a da 08 bd 9f 4c 03 bd d2 6a 23 3c
       0.013252798 -0.033411182 -0.032055493 0.009974198
000180 0f 69 a0 bb 53 61 70 bc 2f e1 d8 bc 20 c8 c8 bc
       -0.0048953365 -0.014671641 -0.026474563 -0.02450949
000190 6e d9 bb bc 19 9f 0a 3d a5 e1 e5 bb 5e 15 bc bc
       -0.022930827 0.033843134 -0.0070154243 -0.022959407
0001a0 b9 eb 02 bc f1 da 25 3d d6 fc d0 bb c5 6b 89 bc
       -0.007990771 0.040492002 -0.0063777966 -0.016775021
0001b0 ba cb 29 3c 23 15 24 bc f1 67 48 bc 6b 38 e6 bc
       0.010363514 -0.010014805 -0.012231813 -0.028103074
0001c0 fb c1 94 bb 75 d3 dc 3c 92 2b 10 3d a3 4e 91 bc
       -0.004539726 0.0269563 0.035197802 -0.017737692
0001d0 8f ba 35 3d a5 7b 0a 3d 66 18 c3 bc de 8c 36 3d
       0.04436737 0.033809323 -0.023815345 0.044567935
0001e0 04 2f 1d 3d 93 ba c4 ba fa 4b ba 3c 05 c4 16 3b
       0.038374916 -0.0015009217 0.022741307 0.002300502
0001f0 43 da 17 3d 53 39 33 3d b8 2c 9d bb af e4 98 bc
       0.037073385 0.04375584 -0.0047965907 -0.018663732
000200 e7 90 02 3d 92 7c 37 3b 6d 3a 30 3d 2c d2 94 bb
       0.03187647 0.0027997834 0.04302447 -0.004541656
000210 f8 87 dd 3b 0c c1 69 3c 43 ba ab 3c 19 de 09 bc
       0.0067605935 0.014267217 0.02096284 -0.008414769
000220 0d 4b 35 bc 81 b7 04 3b 50 f1 46 3d 0e 1e 1f 3d
       -0.011065257 0.0020250978 0.048569977 0.03884702
000230 73 c8 b1 bc fc b0 6a bb 78 5f 2a 3d 24 5b 39 3c
       -0.021702027 -0.0035811057 0.041594952 0.0113132335
000240 bd 32 11 3d ee b3 c1 3c 82 82 39 3d d1 9d aa bc
       0.03544878 0.023645367 0.045290478 -0.020827206
000250 82 63 a3 3c af 0f 00 3d b5 da 3f 3d ff 6c 95 3b
       0.01994491 0.031264957 0.046839435 0.0045601125
000260 94 71 a0 3c aa 74 88 bc 6b 3f 3d 3d 12 27 13 3d
       0.019585408 -0.016657192 0.04620306 0.035925932
000270 5e 52 32 3d f5 aa 41 3d a4 4f 58 bc 76 37 c1 3c
       0.043535583 0.047282178 -0.013202582 0.023586016
000280 9f 84 85 bb cd 7c 2b 3d 56 85 1c 3d 8e 1d 0e 3d
       -0.0040746476 0.041867066 0.038213097 0.034696154
000290 a6 53 5c 3c 7d 87 2a 3d 6d 9c 80 bc 4f e6 13 bc
       0.013447678 0.041633118 -0.01569959 -0.009027078
0002a0 d5 ad 86 3c e6 e7 b8 3b c2 6b 75 3c f8 ef a4 3c
       0.016440311 0.005642879 0.014979305 0.020133957
0002b0 f9 c2 c2 3c 1a f4 45 3d 28 cb 4b 3c 39 c0 32 bb
       0.02377461 0.048328497 0.012438573 -0.0027275218
0002c0 3c 82 84 3c 58 89 c5 bc e4 69 fa 3c cc 0c 20 3c
       0.016175382 -0.024113342 0.03056807 0.009768676
0002d0 7e 9f 1d 3d ee 64 e5 3c 70 59 d8 3c 9f d3 7b 3c
       0.03848218 0.028002229 0.026409835 0.015370279
0002e0 41 7c d2 bc 8c 71 81 bc 09 bf df bc 8b 04 ca bc
       -0.025694015 -0.015801214 -0.027312772 -0.02466037
0002f0 5c f8 a3 3c be 6c 73 3c 1e 81 dc 3c 2e 34 4f 3d
       0.020015888 0.014857469 0.026917037 0.05058687
000300 5d 20 c1 3c 64 e6 b8 bc 20 96 d8 bc a9 35 ca bc
       0.023575002 -0.022570796 -0.026438773 -0.02468379
000310 62 a2 e7 3c 8f b2 00 3d 22 c0 82 bc c5 41 a0 bc
       0.028275672 0.031420287 -0.015960757 -0.019562611
000320 d3 6e 37 3d 9a a7 96 bc 92 22 1d 3d b0 c7 df 3c
       0.044783425 -0.018390466 0.038363047 0.027316898
000330 9d ba 4a bc b6 46 40 bc fb 99 1c 3d 69 78 16 bd
       -0.012373594 -0.011735609 0.038232785 -0.036735926
000340 8c 23 03 bd cb 38 c4 bc d6 06 28 3d 13 e0 01 3d
       -0.032016322 -0.023952862 0.041022144 0.031707834
000350 1e 3c 51 3c 55 f2 6a 3c 09 7f 97 bc 0b 91 78 3c
       0.012770681 0.014340003 -0.018493192 0.0151713
000360 7b 1f fb bc 04 64 82 3c 3a 90 d8 3c ed 06 36 3b
       -0.03065466 0.015916832 0.02643596 0.0027775124
000370 4b ff 8b 3c 47 e0 3e bc 0a 1b 2e 3d 16 59 16 3c
       0.017089507 -0.011650152 0.042506255 0.009176513
000380 bd 2d 4a 3d 14 b9 95 3c 48 b3 87 3c 1c 12 c6 bc
       0.049360026 0.018276729 0.01656498 -0.024178557
000390 e0 53 ee 3c 87 ca 2c bc 81 ea 98 bb 2f bb 1b 3d
       0.02909273 -0.010546333 -0.004666627 0.03802031
0003a0 22 6d 36 3c c3 e3 42 3d 5e 0a 6d bc 9d ee 3d 3d
       0.011134418 0.04758049 -0.014467804 0.046370137
0003b0 97 2a 30 bc 1b 55 2f bc 54 67 52 3d 03 5b ff bb
       -0.010752342 -0.010701443 0.051368073 -0.007792832
0003c0 70 32 32 3d 5b 3f bd 3c ac d0 76 3c c7 58 4d 3d
       0.043505132 0.0231015 0.0150644 0.050133493
0003d0 67 59 c4 3c 72 34 9b 3b 55 28 f8 bb c4 f0 c9 b8
       0.023968412 0.0047364766 -0.0075731673 -9.629273e-05
0003e0 fd ef 2b 3c 44 e0 9e 3c 16 14 0c 3d 7c c8 81 bc
       0.010494229 0.019394048 0.034198843 -0.015842669
0003f0 8d 9c 2a 3c c7 5c 0c bc 22 a1 06 bd ed e5 31 3d
       0.010413301 -0.008567042 -0.032868512 0.043432165

res_blocks.2.conv.weight f4 [64, 64, 3, 3]
000000 5f d0 29 bc 1c 72 08 3d 89 d7 08 bd 91 32 8d bb
       -0.010364621 0.03331195 -0.033408675 -0.0043090065
000010 43 1d 02 3d d9 bf bf bc 37 8b 26 3a 4b 13 39 3d
       0.031766187 -0.02340691 0.0006353142 0.045184415
000020 19 61 41 3d 37 12 79 bc cf 99 fc 3b b7 a7 d0 bc
       0.04721174 -0.015202097 0.007708765 -0.025470598
000030 64 4f 05 bd 2e 25 22 bc 43 c6 c3 bc 4a 15 c5 3b
       -0.032546416 -0.00989656 -0.02389825 0.0060145007
000040 2c 04 c6 bb f4 87 1b 3d c5 53 a3 3b 3e 1f 09 3c
       -0.006042978 0.037971452 0.0049843513 0.008369265
000050 c6 65 d8 bc fa 26 93 bb 5c 65 04 bd 7a 19 c6 3c
       -0.026415717 -0.0044907304 -0.032323226 0.02418207
000060 f5 d5 1d 3d 12 2d 91 bc 50 54 d1 bc 38 38 a4 bc
       0.038534123 -0.017721687 -0.025552899 -0.020046338
000070 c1 77 00 3d d5 da 19 3d 41 5d 94 bb 96 1e b7 bb
       0.031364206 0.03756221 -0.0045277183 -0.005588363
000080 26 4c 49 3d f2 24 f8 bc 07 34 b9 3c 10 f2 47 3c
       0.049144886 -0.030291054 0.022607816 0.012203708
000090 e7 bc 0f bd 6f b2 7f 3c 56 61 18 bd 78 9f 17 ba
       -0.03509226 0.015606507 -0.0372022 -0.00057839556
0000a0 4d 21 84 3c ce a9 00 bc 8b c5 d1 3b cd 4d b1 3c
       0.01612916 -0.007852985 0.006401723 0.021643544
0000b0 4c 20 c0 3c 36 13 08 3c fd 85 34 3b 9c d3 a5 bc
       0.0234529 0.0083053615 0.0027545684 -0.020242505
0000c0 5a d3 2c 3d a5 c2 34 3d 14 60 93 3b 1e 76 39 3d
       0.042193748 0.04413094 0.0044975374 0.04527866
0000d0 71 55 20 3d cd 4d ef 3b d6 1c b0 bc 60 db 8f bc
       0.039143983 0.0073029757 -0.021498125 -0.01756066
0000e0 09 d9 53 3b 2a 6c 35 3d 2f 29 2d 3d 9d 4b c6 bb
       0.0032325408 0.044292606 0.042275604 -0.0060514943
0000f0 ea f5 1f 3d c2 9f 9e 3c 16 f9 68 bc 66 ff 92 bc
       0.03905288 0.019363288 -0.014219543 -0.01794405
000100 2b 26 9e 3c 65 8e 00 3d 06 01 b8 39 99 7f 13 3d
       0.01930531 0.031385798 0.00035095977 0.03601036
000110 2a 08 b8 3b 77 e1 04 3d 9e 8e c9 bc c6 41 6e 3c
       0.0056162076 0.032441583 -0.024604138 0.014542049
000120 f3 e6 a7 3c d1 d6 5e 3c d0 56 27 bd d2 01 0c bd
       0.020495867 0.013601021 -0.040854275 -0.034181423
000130 51 b7 f3 bc 18 70 b2 bc 0f 70 f9 b9 30 39 10 bd
       -0.029750498 -0.021781966 -0.0004757647 -0.03521079
000140 cd 92 06 bd 8e a2 02 bc 31 56 92 bc 63 fe 3b 3d
       -0.032854844 -0.007973326 -0.017863365 0.0458969
000150 e4 f3 20 3c a7 cc 0d 3d 28 85 b3 bb 14 51 f6 bc
       0.009823773 0.034619 -0.00547852 -0.030067958
000160 96 53 92 bc b6 a0 a4 bc ab 90 47 bc c5 ca 2c bd
       -0.017862123 -0.020096164 -0.012180488 -0.042185564
000170 27 21 37 bc 8e a7 99 3b a4 a4 27 bd a8 9d 37 3c
       -0.011177338 0.0046891635 -0.040928498 0.011207022
000180 78 df 3f bb 94 08 03 3d 41 09 5a 3c 7e 18 d4 bc
       -0.0029277485 0.031990603 0.01330787 -0.025890585
000190 28 bc 60 3c 72 e0 77 3c fc 69 af 3c 07 08 a4 3c
       0.013716735 0.0151291955 0.021412842 0.020023359
0001a0 16 5d 12 3d ae 1d 48 3d 90 c4 65 3c 7d 47 45 3d
       0.035733305 0.04885643 0.014023915 0.04816388
0001b0 e7 b4 f9 3c 00 97 36 3d 6e b8 cd bc 6b 43 c9 3c
       0.030481769 0.0445776 -0.025112357 0.02456828
0001c0 f9 d6 83 3b da d4 6c bb 25 96 68 3b 91 7a f3 bc
       0.0040234295 -0.0036137612 0.0035489884 -0.02972153
0001d0 a2 4b 07 3c a9 82 53 bb 82 03 f4 3c 1d 5a 21 3d
       0.008257778 -0.0032273924 0.029786829 0.03939258
0001e0 a2 9a f9 3c a0 56 6a 3c 4f 79 c7 bc 51 73 91 bc
       0.030469242 0.01430288 -0.024349837 -0.017755182
0001f0 f9 a8 16 bd 8c d7 28 3d dd 41 33 3d 57 45 d0 3c
       -0.03678224 0.041221187 0.043763984 0.025423689
000200 be 94 4c bc 74 df 10 3c 31 74 c9 3b 5f 80 8c 3a
       -0.012486635 0.008842338 0.0061478843 0.001071941
000210 09 a1 0d 3d 91 b3 e0 bc 6e 29 fa bc 67 3a f0 bc
       0.034577403 -0.027429374 -0.030537333 -0.029324723
000220 5a d0 51 3d d9 3b 05 3d 58 f8 78 3c 34 7c 12 bc
       0.05122409 0.03252778 0.0151959285 -0.008940745
000230 84 e5 99 bc 5b 2f b4 bc bb aa 60 bc d4 15 3f 3d
       -0.0187862 -0.021995237 -0.01371258 0.046651676
000240 44 f9 fe 3c de 06 64 3c cc 7d 2e 3c 4e 9c 32 3d
       0.031124718 0.013917653 0.0106501095 0.043606095
000250 69 eb 1d 3d 1d 7a d5 3c f2 6f 00 3d 42 09 4f 3c
       0.038554583 0.026059205 0.03135676 0.012636485
000260 74 da 76 bc 35 a2 d1 3c 1f 50 e0 bc 4e a8 18 3c
       -0.015066732 0.025590042 -0.027381955 0.009317471
000270 65 34 26 bc de 78 02 bc 0c a5 de bc 1a cf 8f 3b
       -0.010144328 -0.007963387 -0.02717831 0.004388702
000280 76 5e c5 bb da 2f d8 3c d5 08 8e bb 9c bf 19 3d
       -0.0060232235 0.026390005 -0.004334549 0.03753625
000290 16 82 55 3b 8e 64 23 3d c6 9e 0a 3c 90 1a 41 3d
       0.0032578758 0.03989082 0.008460706 0.047144473
0002a0 bf 57 83 bc cd c2 38 bc 40 8b 30 3d e7 d1 fe bc
       -0.016033052 -0.011276913 0.04310155 -0.031105949
0002b0 50 20 8f 3b b8 0c 14 bb c9 ba af 3c 47 54 96 bc
       0.0043678656 -0.0022590589 0.02145137 -0.018350733
0002c0 dc d1 2e 3d e7 ac 95 3b c3 47 a7 bc 0f d8 ac 3b
       0.042680606 0.0045677307 -0.02041996 0.0052747796
0002d0 01 80 50 3d 1e 54 bf 3c 84 39 a6 3c 95 b9 d4 3c
       0.050903324 0.02335554 0.020291097 0.025967399
0002e0 66 57 5f 3a d8 87 4a 3b 5a 19 c2 3c 62 e0 08 3c
       0.0008519798 0.0030903723 0.02369373 0.008354278
0002f0 63 27 bb 3c a7 7f 0e 3d 7a 72 eb bc f4 38 12 3d
       0.02284593 0.034789708 -0.02874111 0.035698846
000300 db 56 0f 3d 99 8e 94 bc 07 99 2a 3d ea f3 29 3b
       0.03499494 -0.018134402 0.041649844 0.0025932738
000310 11 b2 be 3b 6f 49 58 bb 92 4b 19 3d 94 55 4d 3d
       0.005819567 -0.0033002754 0.037425585 0.05013044
000320 86 33 83 3c b0 4e 34 3d d8 0c 2a 3d fb 28 39 3d
       0.01601578 0.044020355 0.041516155 0.045205098
000330 de e4 00 3d 4f 9d 45 3d 9f cc d7 3c e9 79 1a bc
       0.031468265 0.048245724 0.026342688 -0.00942848
000340 98 13 c5 3b 7b 78 02 bc b8 c0 81 bb 1c f3 f0 3c
       0.0060142986 -0.007963295 -0.0039597414 0.029412799
000350 a6 52 02 bb dc 56 98 bc 6e f9 38 3d 98 3c 0c bd
       -0.0019885688 -0.018596105 0.04515975 -0.034237474
000360 ec 13 96 3c 0d ca 18 3d 60 5a 5c bc 05 57 98 3b
       0.018320046 0.037302066 -0.013449281 0.0046490454
000370 6f 8d 33 3c 8d 23 29 bb 52 9b 0c bd bd 9c c3 bc
       0.010959013 -0.0025808543 -0.034327812 -0.02387845
000380 74 0b e3 3c 8b de 3c 3b eb 01 9d 3b d7 e5 83 3c
       0.027715422 0.002881917 0.0047914884 0.016100807
000390 cc 0f 4a 3d a4 a7 d2 bc 22 c3 ad ba 1a 6c f4 3c
       0.04933147 -0.025714703 -0.0013257007 0.029836703
0003a0 43 74 bb bc 3b c5 04 bd 53 68 17 3d 8c 67 27 3c
       -0.022882586 -0.032414656 0.036964726 0.010217559
0003b0 0d 10 cb bc 9e b7 b4 bc 8a 9d 28 3d 76 cb 03 3b
       -0.024787927 -0.022060212 0.041165866 0.0020110286
0003c0 99 1c d3 3c 65 dd b4 bc 63 34 d9 bc 5b 2f b7 3c
       0.025770472 -0.022078225 -0.026514238 0.022361448
0003d0 4b 68 ef bc c0 47 14 3c 32 f8 85 bc b8 e5 d7 bb
       -0.029224535 0.00905031 -0.0163537 -0.006588664
0003e0 8f e6 cb 3b 2f c3 6f 3c 68 76 8e 3b 7e b5 d5 3b
       0.006222553 0.014633938 0.004347611 0.0065218797
0003f0 01 67 91 bc e0 98 10 3d 96 6f 40 3c 9a 6e 05 3d
       -0.017749311 0.035302043 0.011745354 0.03257618

global_pool.0.weight f4 [64, 64, 3, 3]
000000 2c b1 a3 3b cd 5a 05 bd e3 c0 fe 3c f6 02 9b 3c
       0.004995486 -0.032557297 0.031097835 0.01892231
000010 32 68 b0 bc 69 28 4d 3c ee 97 ae bb 63 1c 06 3d
       -0.02153406 0.012521842 -0.00532817 0.032741915
000020 ee 7b dc 3b 18 33 1d 3c 22 9b 11 bc 06 47 fa 3c
       0.0067286408 0.009594701 -0.008887084 0.030551445
000030 2f c3 3c 3b ce 7a 08 bd 28 58 44 bc 79 74 35 3d
       0.0028802862 -0.03332024 -0.011983909 0.04430053
000040 51 53 a8 ba 67 6a e3 3c 4c 32 0f 3d e5 03 5f bc
       -0.0012842213 0.027760698 0.034960076 -0.013611768
000050 8b 23 23 3d 04 fc 33 bd af 6a 1d bd 44 6b 25 bd
       0.03982882 -0.043941513 -0.03843182 -0.0403855
000060 9c 20 b0 bb e3 61 4f bc 69 e3 49 bc b3 0d 05 3d
       -0.005374981 -0.012657615 -0.012322285 0.032483768
000070 9d ac e6 bc 1c c6 bd bc 3a 49 f5 bc 1d e3 3c bd
       -0.02815848 -0.023165755 -0.029942144 -0.04611503
000080 8a 24 73 3c d6 9d 8d bc c1 55 6e bc 9c 33 49 bb
       0.014840255 -0.017287176 -0.0145468125 -0.0030700928
000090 80 ee 5b 3b 7e 21 b1 bc 0d 1b 5a bc bb 6d 02 3a
       0.0033558905 -0.021622416 -0.0133121135 0.00049754576
0000a0 27 58 3a bd ca 47 c9 bc a3 6a fe bc 55 92 48 3c
       -0.045494225 -0.024570365 -0.031056708 0.0122419195
0000b0 5f 0f d7 3c 63 27 55 3c 71 31 0c 3d 6f 39 06 bd
       0.026252447 0.013009879 0.03422684 -0.032769617
0000c0 8e 6a bf bc f0 e1 06 bd 7b 09 26 bd 35 f3 3a bd
       -0.023366239 -0.032930315 -0.040536385 -0.045642097
0000d0 43 2d 85 bc db f8 83 39 fb 7a 93 bb d5 49 90 3c
       -0.016256934 0.0002517168 -0.0045007444 0.01761333
0000e0 7e 7b 1b bd ac 5a 13 bc 96 ba de 3c af bd e7 3c
       -0.03795957 -0.008993786 0.02718858 0.02828869
0000f0 e0 ef 01 bd 9d ec 2c bd 17 ad 01 3d 09 bf d5 bc
       -0.031722903 -0.04221784 0.031659212 -0.02609207
000100 15 9c 06 3d 2c 9f bb 3c 92 9b ba 3c 55 85 02 3d
       0.032863695 0.022903048 0.02277926 0.031865437
000110 b4 4a 22 3c 43 97 cd 3c 40 13 78 39 f7 97 13 bd
       0.009905506 0.025096541 0.00023658294 -0.036033597
000120 76 53 0b b9 57 a4 0f bd e3 03 ba 3c e8 83 00 3c
       -0.00013287165 -0.035068836 0.022706931 0.007843949
000130 d7 04 51 bb e0 3b b7 3c 90 c5 ab 3b f5 94 18 3d
       -0.0031893754 0.022367418 0.005242057 0.03725143
000140 77 2c ca bc df 79 2e bd a6 11 f9 3a be 72 05 3d
       -0.024679406 -0.042596694 0.0019002452 0.03258013
000150 a8 37 ba bb 61 27 c2 3a b7 3a aa b9 0f 8b be bc
       -0.0056829043 0.0014812761 -0.00032468673 -0.023259668
000160 70 9c 7b 3c 5b e2 54 3c b7 a3 fa bc 67 86 03 bd
       0.015357122 0.0129934205 -0.030595643 -0.032110598
000170 60 bb 32 bc 6a ad 0a 3d 67 48 1a bd a3 c4 fa 3c
       -0.0109089315 0.033856787 -0.037666705 0.030611342
000180 35 a5 01 bd a1 c4 f2 3c fc c0 18 3d b2 87 15 3c
       -0.031651694 0.029634776 0.03729342 0.009126591
000190 0b 1c 03 bd e4 5f 1a bc 3f b3 3b 3b 7e 77 a2 3c
       -0.032009166 -0.009422276 0.0028640775 0.019832369
0001a0 17 03 84 bb b1 15 29 3d 85 32 04 bd 17 83 9c bc
       -0.0040286887 0.041280452 -0.03227474 -0.019105477
0001b0 6d c4 09 bd 9d 69 92 3b 9a 66 ea bb 46 10 c4 bc
       -0.03363459 0.0044681565 -0.0071533443 -0.023933541
0001c0 2b 20 58 3c b1 7c 81 bc dc 33 29 bd 6f 82 63 3b
       0.013191263 -0.015806528 -0.041309223 0.0034715196
0001d0 65 85 3f 3c 87 26 0b 3d c2 55 28 bd 3a e9 05 3c
       0.011689519 0.03397229 -0.04109741 0.008173281
0001e0 f4 54 05 bd 9f e4 61 3c 12 19 66 bc 89 94 03 3c
       -0.03255172 0.013787418 -0.014044063 0.008031019
0001f0 c7 56 36 bd 5c 83 10 bc c8 cd 38 bd 46 dc 64 3b
       -0.04451635 -0.008820381 -0.045118123 0.0034921332
000200 75 5c f4 3c 55 52 92 bc d6 ce 8b 3b cc 5c 94 bc
       0.029829243 -0.017861525 0.0042666 -0.018110655
000210 5d de 01 3d 41 f6 c4 3c b9 6f 6f bc 35 62 99 bb
       0.031706203 0.024043204 -0.014614039 -0.0046808966
000220 54 9e c5 3b 9c f5 01 bd 8d 6a dd bc 5b c8 98 3c
       0.006030837 -0.031728372 -0.027028346 0.018650224
000230 32 3b 89 bc 98 4c 1c 3c af 63 56 3c de 6a 3e bd
       -0.01675186 0.009539746 0.01308529 -0.046488635
000240 e3 2f 11 3d 9d 0a 8f 3c 33 1d ae 3c 68 c2 f1 3c
       0.03544606 0.017461115 0.021254158 0.029511645
000250 94 0b 28 bd 42 f6 8a bb be 49 aa 3b be 02 07 bd
       -0.041026667 -0.004240782 0.005196779 -0.0329616
000260 49 68 d9 bc 51 d3 68 3c 29 b4 0e 3d 1d bb 5c 3c
       -0.026538985 0.014210538 0.034839783 0.013472346
000270 2e e1 39 3c 07 e1 fb 3c a1 64 3e bd ea 55 f1 bc
       0.011345191 0.03074695 -0.046482686 -0.029459912
000280 d4 a4 a7 3c 2a b5 17 bd 79 12 44 3b eb 59 ef bb
       0.020464338 -0.037038006 0.0029918237 -0.00730442
000290 c6 05 8f bb e1 3a 4c 3c 16 cb ee bc b9 f9 d6 bc
       -0.004364702 0.01246521 -0.029149573 -0.026242124
0002a0 12 67 18 bd ba 6e 26 bd 8f bc 0e bd 9f 44 38 bc
       -0.03720767 -0.04063294 -0.034847792 -0.011246829
0002b0 06 0f 52 bc c1 43 80 bc 83 de 13 bd 60 4c 1a bd
       -0.012820965 -0.015657308 -0.036100876 -0.037670493
0002c0 86 c6 8d bc 06 7c 23 bd 60 99 a3 bb 87 4d ca bc
       -0.017306577 -0.0399132 -0.004992649 -0.024695171
0002d0 c9 e1 16 bc 97 be 36 bc ba 3a 7f 3b 71 e1 bb bc
       -0.009209105 -0.011153839 0.0038944916 -0.022934647
0002e0 72 73 ec 3c c3 25 14 bd 51 c2 0c 3d e3 52 fb 3b
       0.028863642 -0.036168825 0.034365002 0.007669793
0002f0 30 b5 f6 3c 07 ee 03 3d 4f 3e 13 3d 77 6b 03 bd
       0.030115694 0.032209422 0.035948094 -0.03208491
000300 74 a2 ed ba f6 ed 49 bb 51 9a 94 3c 3d e4 a2 bc
       -0.001813008 -0.0030812002 0.01813999 -0.019884223
000310 08 43 23 3c 8d 61 89 3c 40 c2 44 3c ae eb dd 3c
       0.009964712 0.016770149 0.012009203 0.02708992
000320 04 17 e4 3b b1 88 2f bd 03 5d 21 3d 03 bd d9 3c
       0.0069607515 -0.04285497 0.039395344 0.026579386
000330 d4 60 d5 3b 5a 8c fa 3c ef 0d 9d 3c 2f 52 3a bc
       0.006511787 0.030584503 0.019171683 -0.011372133
000340 cf cd e4 3c 9c 29 bd 3c 77 09 b4 bc 72 6c 54 3c
       0.027930168 0.02309113 -0.02197717 0.0129653085
000350 3f e7 c7 ba 98 77 10 bd 8d 3a a3 bc 80 97 d0 3c
       -0.0015251412 -0.035270303 -0.01992538 0.025462866
000360 c8 cd d3 3c 1d e0 c0 3c 79 6f a5 3b d1 ae c1 3c
       0.02585496 0.023544366 0.005048689 0.02364293
000370 a8 cc 96 3c 9c 5d b8 3c 0e a7 94 bc 81 bb c2 3c
       0.018408135 0.022505574 -0.018146064 0.02377105
000380 13 96 6f bc d0 50 a8 bc f8 87 db bc 9f aa 76 bc
       -0.014623183 -0.020546347 -0.026798233 -0.015055328
000390 56 65 fc 3c 62 8d bb 3b 9f cd 95 3c b3 9a 46 3c
       0.03081004 0.0057236413 0.018286524 0.012121844
0003a0 2d 75 a8 bc 29 ce de 3c 01 50 41 3c 41 d2 e1 bc
       -0.020563686 0.027197914 0.01179886 -0.027566077
0003b0 e2 59 0b bd 4d b0 9b bb d2 76 f7 3b ff 8d fd bb
       -0.034021266 -0.0047512413 0.0075520063 -0.0077378745
0003c0 4a a1 cb bc 7e 4e 68 bc e4 8b 41 bd 7a 63 c8 bc
       -0.024857182 -0.01417887 -0.04725255 -0.024461497
0003d0 53 8a 03 3c 2e 80 6a bc 76 e8 d1 3b 84 81 92 3a
       0.0080285845 -0.014312787 0.0064058853 0.0011177515
0003e0 3b 29 7c 3c 29 e6 40 bd 3b 05 18 bd 69 91 34 bd
       0.0153906895 -0.047094498 -0.037114363 -0.044083986
0003f0 4d 8c 04 3d 7b f1 2c 3c 37 40 c8 bc d5 91 a8 bb
       0.032360364 0.01055562 -0.024444683 -0.0051443377

global_pool.0.bias f4 [64]
000000 78 ec bd bb 31 31 b6 bc f6 f2 26 3c e4 47 32 bd
       -0.0057960115 -0.022240253 0.010189762 -0.04352559
000010 6f 6a 1b 3c 84 94 a6 bc e0 5d b6 bc 6b c2 08 bd
       0.009485825 -0.02033449 -0.02226156 -0.033388536
000020 fc 0b 97 ba fa 90 32 bd 48 67 d3 3c ac b6 e7 bc
       -0.0011523957 -0.04359529 0.025806084 -0.028285347
000030 1b 57 97 3c da 73 27 3b 8e 77 0d 3d 3e 0c dd bc
       0.018474152 0.002555123 0.034537844 -0.026983377
000040 f4 6f b1 ba 39 5f 7b bc e0 b2 d6 3c 23 a0 62 3c
       -0.0013537393 -0.015342527 0.026208341 0.013832125
000050 81 b8 1a bd 37 4a 1d bd 05 11 22 bd a0 df c7 3c
       -0.037773613 -0.038400855 -0.039567012 0.024398625
000060 e7 e5 ae bb 0f c5 0a 3d fb 05 26 bd 42 d3 b0 3c
       -0.005337465 0.033879336 -0.040533047 0.02158511
000070 b5 2e 19 3d 57 a3 e0 3c 0f d5 aa 3c db d3 66 bc
       0.03739806 0.027421637 0.020853547 -0.014088596
000080 cb b5 4e bc 83 ec d0 3c a1 78 4b 3c 10 05 39 bc
       -0.012616585 0.025503403 0.012418897 -0.011292711
000090 f6 d9 cb ba b5 94 9a 3b 25 95 23 3d 7a 59 a2 3b
       -0.0015552628 0.0047174343 0.039937157 0.004954514
0000a0 b7 68 c9 3b fd de 41 3d ef b6 f1 3c c1 9d af bc
       0.006146516 0.0473318 0.029506175 -0.021437528
0000b0 03 0a 8c 3c cf 7b 41 bc 84 ba 91 3c 4e 82 19 bc
       0.017094618 -0.011809303 0.017789133 -0.009369446
0000c0 06 7e 36 3d f6 e5 8c bc 79 42 da bb 68 42 e9 bc
       0.04455378 -0.017199498 -0.006660756 -0.028474048
0000d0 94 a4 29 3c 97 69 18 3d c1 22 22 3d c4 4f 2f 3c
       0.01035418 0.037210073 0.039583925 0.01070017
0000e0 c3 71 2c bd 21 d8 40 bb 37 75 16 3b bd 25 8c bc
       -0.04210068 -0.0029425698 0.002295805 -0.017107839
0000f0 2a 7a 8a bb 97 6d 36 bd 5f 26 6e 3b 23 fb 8e 3b
       -0.004225989 -0.044538107 0.003633879 0.004363434

head.1.weight f4 [64]
000000 6e 76 7e 3f b5 93 7e 3f 6c 76 7e 3f 00 00 80 3f
       0.9939946 0.99444133 0.9939945 1.0
000010 9b 1c 7f 3f 2c cb 7a 3f 6e 90 79 3f 00 00 80 3f
       0.99653023 0.97966266 0.9748601 1.0
000020 c3 17 78 3f 00 00 80 3f c6 4b 7e 3f 03 cb 72 3f
       0.9691126 1.0 0.9933437 0.9484102
000030 00 00 80 3f 00 00 80 3f 7a 3f 7a 3f 6d 76 7e 3f
       1.0 1.0 0.9775311 0.99399453
000040 4e b5 7f 3f 6c 76 7e 3f 00 00 80 3f b0 6b 80 3f
       0.99886024 0.9939945 1.0 1.0032864
000050 00 00 80 3f 00 00 80 3f 04 46 80 3f 7c aa 81 3f
       1.0 1.0 1.0021367 1.0130153
000060 b5 93 7e 3f 9f 8b 76 3f b9 93 7e 3f 6c 76 7e 3f
       0.99444133 0.96306795 0.99444157 0.9939945
000070 50 5c 7f 3f cf e9 74 3f 9d e3 7f 3f 00 00 80 3f
       0.9975023 0.95669264 0.99956685 1.0
000080 e8 93 7d 3f 87 76 7e 3f 6d 76 7e 3f 5e a5 81 3f
       0.9905381 0.9939961 0.99399453 1.0128591
000090 2d 77 7e 3f b8 93 7e 3f a7 ac 7f 3f 00 00 80 3f
       0.994006 0.9944415 0.9987282 1.0
0000a0 14 75 7e 3f 65 e2 80 3f 58 94 7e 3f 97 bf 7f 3f
       0.993974 1.006909 0.99445105 0.9990172
0000b0 a1 dd 7d 3f 9d 3a 81 3f ea ad 7e 3f 27 fd 80 3f
       0.99166304 1.0096012 0.9948412 1.0077256
0000c0 a5 9f 7f 3f 6c 76 7e 3f 4b 70 7e 3f 6c 76 7e 3f
       0.99852973 0.9939945 0.99390095 0.9939945
0000d0 0e c2 80 3f 2b 75 79 3f 96 9b 80 3f 00 00 80 3f
       1.0059221 0.9744441 1.0047481 1.0
0000e0 0f 1d 73 3f 37 e8 78 3f c8 93 7e 3f 90 4e 7a 3f
       0.94966215 0.9722933 0.99444246 0.97776127
0000f0 af 76 7e 3f 0f 46 77 3f 5c 31 7f 3f 6c 76 7e 3f
       0.99399847 0.96591276 0.9968469 0.9939945

head.1.bias f4 [64]
000000 94 c9 c4 bb 40 27 b6 bb c7 c9 c4 bb 00 00 00 00
       -0.0060054753 -0.005558878 -0.006005499 0.0
000010 53 ba 71 3b 51 10 ab 3b 54 77 1b bd 00 00 00 00
       0.003688474 0.005220451 -0.037955597 0.0
000020 6c 82 dc bc 00 00 00 00 13 8b fb bb 73 6d 42 bd
       -0.026917659 0.0 -0.007676491 -0.04746766
000030 00 00 00 00 00 00 00 00 aa 2e e2 bc c9 c9 c4 bb
       0.0 0.0 -0.027610142 -0.0060055
000040 df e1 2f 3c c9 c9 c4 bb 00 00 00 00 3a 4d 41 3b
       0.010735004 -0.0060055 0.0 0.0029495494
000050 00 00 00 00 00 00 00 00 0d 21 75 3b 8b 13 1b 3c
       0.0 0.0 0.0037403733 0.009465109
000060 3b 27 b6 bb b4 cd cc bc 7c 26 b6 bb c9 c9 c4 bb
       -0.005558876 -0.02500043 -0.005558787 -0.0060055
000070 a2 74 93 ba 30 98 81 bc e4 de 92 3b 00 00 00 00
       -0.0011249969 -0.015819639 0.004482137 0.0
000080 dc c6 2e bc 6d c9 c4 bb c3 c9 c4 bb 9c fd 3e 3c
       -0.010667529 -0.006005457 -0.006005497 0.011657145
000090 4c c9 c4 bb 1b 27 b6 bb 2c f8 bf 3b 00 00 00 00
       -0.006005442 -0.005558861 0.005858442 0.0
0000a0 a1 97 f2 bb cb 1a 06 3c d9 24 b6 bb 3b db 00 bc
       -0.0074033295 0.008185099 -0.005558592 -0.007864769
0000b0 d0 03 0a bc fb 89 29 3c f2 97 80 3b d9 b6 fb 3b
       -0.0084237605 0.0103478385 0.0039243633 0.0076817092
0000c0 6e 92 dc bc c9 c9 c4 bb 3f e4 c7 bb c7 c9 c4 bb
       -0.026925292 -0.0060055 -0.006100207 -0.006005499
0000d0 32 13 e8 bb 81 da 88 bc 72 4c d4 3b 00 00 00 00
       -0.0070823664 -0.016705753 0.0064788396 0.0
0000e0 95 e2 0a bd bb cd de bc 14 27 b6 bb b8 a5 ac bc
       -0.03390749 -0.02719771 -0.0055588577 -0.021075115
0000f0 57 c6 c4 bb d5 bb 9f bc eb 8b c0 3b ca c9 c4 bb
       -0.0060050893 -0.019498745 0.0058760545 -0.0060055004

head.3.weight f4 [64, 64]
000000 1a 6b 1d 3d 8d 2a 96 bd d7 08 b3 bb d0 f6 f2 bc
       0.038432218 -0.07332335 -0.0054637003 -0.029658705
000010 b5 f6 87 bd 2f 69 4f bd ae 45 c2 bd 64 27 bc 3d
       -0.066388525 -0.05063742 -0.094859466 0.09187201
000020 af 23 d0 bd 1c 12 6e 3d 35 f1 54 bd a1 06 07 3e
       -0.10163056 0.05812274 -0.051987845 0.13186122
000030 ac c0 3f bd a2 b1 b0 3d a8 9a a8 bc e1 dd 1f bd
       -0.046814606 0.08627631 -0.020581558 -0.03902996
000040 a9 96 aa bd e2 0d b3 bc 88 56 63 bd cd a1 f8 bd
       -0.083295174 -0.021857206 -0.055502445 -0.12140236
000050 10 54 8f bd 0c 5e 63 bd 2e e8 a3 3d 79 e3 60 bd
       -0.069984555 -0.055509612 0.08003269 -0.054904435
000060 31 27 bf 3d d2 11 62 3c 8a 6f 4e bd 9d 41 dd 3c
       0.09333647 0.013798194 -0.05039934 0.027008826
000070 db 5e ff bc 07 34 a7 bd 2b 55 ab 3d 9c ae 18 3d
       -0.03117316 -0.0816422 0.08365854 0.037275895
000080 9b 77 c8 bc 4a 4e c6 bc 42 0d cc 3d 5f b8 dc 3d
       -0.024471095 -0.024207253 0.09963466 0.107773535
000090 e2 dd a4 3d b0 56 b2 bc 91 a0 86 3d 64 a6 20 3d
       0.08050133 -0.021769851 0.06573594 0.039221182
0000a0 c9 8e b9 bc ea e8 f3 bd de 95 4b bd bc ae 9b 3d
       -0.022651093 -0.11909659 -0.04970347 0.07601687
0000b0 be 50 b5 3d 8a e5 85 3d 98 7a b8 bd 9a f8 0e bd
       0.08853291 0.06537922 -0.09007758 -0.034905054
0000c0 55 ca 1a 3d 02 5e 7a 3d 05 6d 88 bd 6a 54 20 3d
       0.037790615 0.06112481 -0.06661419 0.039143004
0000d0 38 7f e2 3d 1c 1d 88 bc a5 e6 e8 bd a8 62 d8 bc
       0.11059421 -0.016615443 -0.11372117 -0.02641423
0000e0 06 23 c5 3d bc 5e 42 bd 54 94 53 bb 3f 31 8b 3d
       0.09625821 -0.047453627 -0.0032284455 0.06796502
0000f0 e5 8e 01 be 1f 6e 87 bd 41 62 27 3d e9 0b b5 3d
       -0.12652166 -0.06612801 0.040865187 0.08840162
000100 15 ac ab bb 8e d1 60 bc 8b 0f d2 bc ce 82 d2 bd
       -0.0052390196 -0.013721837 -0.025642177 -0.10278855
000110 4b 18 b8 3d ab 2c 18 bd a0 10 0b bd e4 26 b8 bd
       0.089890085 -0.037151974 -0.0339514 -0.08991793
000120 12 26 b8 3d ec ef 55 bd be 39 ae bd 28 e9 e4 bd
       0.08991636 -0.05223076 -0.08507107 -0.111772835
000130 18 aa 29 bd 80 82 6b bb af d4 d0 3d 98 17 ca 3d
       -0.04142198 -0.0035935938 0.10196816 0.098677814
000140 f0 ae e3 bd b5 fb bb 3d 38 3c a9 3d 17 e4 5e 3d
       -0.11117351 0.09178869 0.08263439 0.054416742
000150 38 01 5c bd e8 12 24 bd f0 d3 a0 3d 0f de e3 bd
       -0.0537121 -0.040057093 0.07852924 -0.11126339
000160 12 2c c7 3d e2 0f 99 bd 8f 9f ba 3d df d3 d1 3d
       0.097252026 -0.074737325 0.09112465 0.10245489
000170 09 77 2b 3d 64 36 72 3d 2d 88 e9 bd 84 b6 94 3d
       0.041861568 0.059133902 -0.114029266 0.072613746
000180 a2 d0 82 bd 9b 12 9b 3d cb 06 9c 3d 01 fb e8 3c
       -0.0638745 0.07571908 0.07618483 0.02844
000190 a5 9e 70 bd 80 dd 34 bd 9d 02 04 3c ec 92 bf 3d
       -0.058745045 -0.04415655 0.008057264 0.09354195
0001a0 53 6d 3d 3c 53 53 c4 3d b7 36 99 3c aa c9 f6 3d
       0.011561709 0.09586205 0.018702848 0.12050183
0001b0 6d 73 2d 3d a1 2a 07 3d 41 1d d5 bd 23 d2 50 bd
       0.042346407 0.03299964 -0.1040597 -0.050981652
0001c0 86 e8 8d 3d e1 0b ad bd 06 ba 43 3d 45 48 68 bc
       0.06929116 -0.08449531 0.047784828 -0.014177387
0001d0 2e a2 9a 3d ad 98 be bd bc 31 11 bc f0 3d ec 3c
       0.075504646 -0.09306464 -0.008861955 0.028838128
0001e0 73 75 6d bd c3 01 b1 bd 17 ce 01 3e a0 48 cb 3b
       -0.057973336 -0.08642914 0.12676273 0.006203726
0001f0 03 a6 50 bd 00 1d 08 bc a7 21 dd bd 2f fe 9f 3b
       -0.05093957 -0.008307695 -0.10797434 0.004882596
000200 14 ab ae 3d 66 9c 39 3d 0d 75 bd bd a0 cd 9f bb
       0.08528724 0.04531517 -0.09250841 -0.0048768073
000210 d3 41 de 3d bd e5 ca bd 28 87 93 bd b4 8d e6 3d
       0.10852399 -0.099071 -0.072035134 0.112574965
000220 3f d7 cb bd 0e 85 ce 3d 94 97 25 3c 48 a6 87 3d
       -0.09953164 0.10083972 0.01010694 0.066235125
000230 00 18 f2 bb 5e 2d 92 bd f6 17 da 3d 97 c5 a8 3d
       -0.007388115 -0.07137559 0.106491014 0.08240812
000240 b3 11 58 3d 84 96 8f bd 92 b3 fe bd 5b 52 83 bd
       0.052751254 -0.070111305 -0.12436594 -0.064121924
000250 b0 b7 bc bd 42 64 a9 bd d1 20 f0 3d 7f e1 d3 bd
       -0.09214723 -0.08271076 0.11725009 -0.10345744
000260 75 29 37 3d 73 3b 97 bd 72 b9 9c bc fa ef 41 3d
       0.04471727 -0.07384386 -0.019131396 0.047348
000270 4a 12 1c bd ae 1a cf 3d a1 5d 2e 3c fc f2 fa 3d
       -0.03810338 0.101125106 0.01064244 0.12253377
000280 40 fc 3c 3c e3 81 84 bd 02 dd bf 3b 67 0d ba 3d
       0.01153475 -0.064700864 0.0058552036 0.090845875
000290 09 d5 d0 3c 73 25 da 3c b8 c0 7f bd a0 62 d4 3c
       0.025492208 0.026629185 -0.06243965 0.025925934
0002a0 ca 23 86 3d 19 58 16 bd ec a2 f5 bc 68 52 81 bb
       0.06549795 -0.03670511 -0.029984914 -0.003946591
0002b0 15 ce 64 3c c2 88 bb 3d 85 23 7c bd 69 1a bf 3d
       0.013965149 0.09156944 -0.06155731 0.09331209
0002c0 69 b2 7e 3d ef fc 99 3d 29 93 45 3c 6f 9a e4 3d
       0.062181864 0.075189464 0.0120590115 0.11162268
0002d0 ed e5 61 3c 6f 85 be 3d fa 9a c3 3d 60 c5 d9 bd
       0.013787729 0.09302794 0.09551044 -0.106333494
0002e0 74 60 2f bd 24 61 69 3c 32 d1 81 bb b3 a5 57 3b
       -0.042816594 0.014244352 -0.0039617056 0.003290516
0002f0 bd 9f 80 bd ae d5 1f 3d 6d 87 1d 3c ad 1b dd bc
       -0.06280468 0.03902214 0.009614808 -0.026990736
000300 f6 76 8d 3d 8c 67 1f 3d 09 e4 b0 bd 52 25 a2 bd
       0.069074556 0.03891711 -0.08637244 -0.079172745
000310 8f bf e5 3d d5 7f 49 3d 72 8a 2b bd 40 87 13 bd
       0.112181775 0.049194176 -0.04188008 -0.036017656
000320 35 29 77 3c c4 7c 0a bd f9 32 dc 3d 81 00 0c 3d
       0.015085508 -0.033810392 0.1075191 0.034180168
000330 16 0d b5 3d 26 7c ba 3d 60 97 17 3c 4a bd 69 bc
       0.088403866 0.09105711 0.009252399 -0.014266321
000340 f4 ae ae 3c 89 70 e8 3d 24 2e 21 3d c6 a7 73 3d
       0.021323659 0.113495894 0.039350644 0.059486173
000350 54 5c 2c bd 02 ec ba bd da 45 95 3c 46 e2 c6 bb
       -0.04208024 -0.09127046 0.018221784 -0.0060694544
000360 e5 22 9a bd 5f a0 88 bb 24 56 a7 3d fa 7e d1 3d
       -0.07526187 -0.0041695083 0.08170727 0.10229297
000370 6a 36 58 3d 77 ed 8a bd 5c 6e 5b bd 8c e3 71 bd
       0.05278627 -0.06783574 -0.053572044 -0.059054896
000380 dc 41 66 3c 1c e7 f0 bd fd e3 f2 3d 74 27 7c bd
       0.014053788 -0.117628306 0.118598916 -0.061561063
000390 f2 8b 5a bc 48 d7 c3 bc 3c 12 e3 3d 76 94 e0 bd
       -0.01333903 -0.023906365 0.11087462 -0.10965817
0003a0 6b 86 71 3c 4d 45 f2 3d fe b2 04 3e 59 71 29 bd
       0.01474152 0.11829624 0.12958905 -0.041367862
0003b0 95 92 10 3c a7 1f 60 3d 97 1a df bd 62 ec 7a 3d
       0.00882401 0.054717686 -0.108937435 0.06126059
0003c0 42 ec 08 bd e5 f9 54 bd ec 85 b2 3d bb 3f d2 bd
       -0.033428438 -0.05199613 0.0871695 -0.10266062
0003d0 43 7c d0 bd cb 21 a2 3d 03 5d 81 bd 5c 8a a1 bd
       -0.10179951 0.07916602 -0.06316569 -0.07887718
0003e0 6e 14 0a bd 69 83 2a 3b 42 d6 f2 3d 3b 14 fb bd
       -0.03371089 0.0026018268 0.11857273 -0.12259718
0003f0 61 39 d8 3d 99 8d 80 3d 5b 9f 81 3d 7f 89 97 3d
       0.10557819 0.062770076 0.06329223 0.07399272
