outputs/exp_v1/checkpoints/epoch_90.pth (torch, 651919 bytes, 13 tensors)

base.0.weight f4 [64, 3, 7, 7]
000000 f9 71 94 bc 29 94 7b 3d 8c 10 14 bd 9b 82 ef 3b
       -0.018120753 0.061420593 -0.036148593 0.0073092706
000010 fa 27 9f ba 6e 9b 81 bd 07 87 f3 3b 78 05 8b 3d
       -0.0012142651 -0.06328474 0.007431868 0.067881525
000020 e7 57 77 3c 08 5b 5f 3d 8f ec 72 bd e7 2a 8c bd
       0.015096641 0.054530174 -0.05930763 -0.068441205
000030 73 77 91 3d 5e 8e 95 3d 41 ed d8 3c 4e b6 a4 3d
       0.07102861 0.07302545 0.026480319 0.08042584
000040 8d dc 10 bd 04 31 84 bd 5f 6c d9 3c 7d a5 4a 3c
       -0.035366584 -0.064546615 0.026540933 0.012368557
000050 a8 b2 02 3d 1a 44 54 3d b3 e5 37 bd a0 03 dd bc
       0.03190866 0.05182276 -0.044896793 -0.026979268
000060 7c 68 42 bd 59 ab a0 bd 3c 41 b1 bc 5b be a0 3d
       -0.047462925 -0.07845182 -0.021637551 0.078488074
000070 3b 2d 89 bd 24 0f 46 3d a2 0a 35 bd 4b 02 7e bd
       -0.0669808 0.048354283 -0.044199593 -0.062013905
000080 13 6d 94 3b 88 f8 4e 3d 69 bc 8c 3b 50 46 ac 3c
       0.004529604 0.050529987 0.004294921 0.021029621
000090 13 96 93 bd 82 92 77 3d e5 2d 72 bd 64 1d 0a 3d
       -0.07206359 0.060442455 -0.0591258 0.033719435
0000a0 9f f7 a1 3d 76 9e 12 3c 0a 9e a5 bd bc be 9b bd
       0.07908558 0.008948913 -0.08086784 -0.07604739
0000b0 20 4b ef 3c 77 f8 85 bd 81 33 5d bd 20 77 f9 bc
       0.029210627 -0.065415315 -0.054004196 -0.030452311
0000c0 17 0f 93 3c 5e 8a c6 3c 3f bf 42 bd b8 92 8a bc
       0.017951531 0.0242359 -0.047545668 -0.016915664
0000d0 73 9b 5b 3d 0d 85 8a bd 5b e6 8a ba 4d 91 4e bd
       0.053615045 -0.06763659 -0.0010597216 -0.05043154
0000e0 0c 4a 71 bc c6 91 45 3c 36 a5 64 3d 00 db af bd
       -0.014727127 0.012058681 0.05582162 -0.08586693
0000f0 67 c5 a5 3c a0 7b 10 3d eb 86 8c 3d 32 d8 00 3d
       0.02023573 0.035274148 0.06861671 0.03145618
000100 1a 55 38 3d 64 e3 99 bd db 6b fa bc d9 7d 4e 3c
       0.045003034 -0.075140744 -0.030569008 0.012603247
000110 e4 e2 8c bd 8c d9 2e bd f4 ba 0c 3d 73 2a 19 bd
       -0.068792135 -0.042687938 0.03435798 -0.037394
000120 cd 72 1e 3c b1 c8 01 3d 3a 56 99 3d 6d db 98 3d
       0.009670925 0.031685535 0.074871495 0.07463727
000130 14 cf 80 3c c3 99 84 bd 41 4e 26 bd c3 2e 82 3d
       0.015723743 -0.0647464 -0.040601972 0.06356575
000140 fe 8d 85 3d 9f 83 00 3d 43 ff 8a bd d5 9c b9 3b
       0.065212235 0.031375524 -0.067869686 0.005664448
000150 9c 78 57 bb 11 1b 94 bc 02 a1 0f bd 7f 13 cf 3c
       -0.0032878285 -0.018079313 -0.03506566 0.025277851
000160 6d 09 8b 3d ce 06 2c bd 99 a7 2a 3d e6 12 7b bd
       0.06788907 -0.041998677 0.04166374 -0.06129732
000170 07 8c f2 3c 0b 29 ae bd b8 dc c8 3c 4d 18 d9 3c
       0.029607786 -0.08503922 0.02451931 0.026500845
000180 57 d0 8e bd 5d 65 b4 3c 0e 64 5b 3c 6e e1 99 bd
       -0.069733314 0.02202099 0.013390554 -0.075137004
000190 8e 19 52 bd 81 1d df 3b 33 61 5c bc de 4e 91 3a
       -0.051293902 0.006808937 -0.0134509085 0.0011086126
0001a0 be 87 40 3d 0b bb 53 3d 32 ee 73 bd 3f e6 1d 3d
       0.047004454 0.05169205 -0.059553333 0.038549658
0001b0 f2 00 cf 3c 1b 34 d3 bc 38 b3 b6 3c a4 a1 fb bc
       0.025269005 -0.025781682 0.022302255 -0.030716725
0001c0 b7 15 2d bc bb 0e 88 3d 71 fd 57 bc 62 1f 9c bc
       -0.010564259 0.066434346 -0.013182984 -0.019057933
0001d0 8f aa a5 bd 53 ca f2 bb 90 c4 a8 bd 15 1b e4 3b
       -0.08089172 -0.007409373 -0.08240616 0.0069612362
0001e0 ce df 9b bc 0c 80 1a bd 21 cd 2d bc b4 9b 0f 3d
       -0.019027617 -0.03771977 -0.010607989 0.0350606
0001f0 73 34 0d 3d 01 58 d5 bb 05 0e a8 bd 95 8b dd 3c
       0.034473848 -0.006510735 -0.08205799 0.027044097
000200 39 49 69 bb 72 e5 ca bb 78 f2 ad bc 55 4d 67 bd
       -0.0035596623 -0.006191903 -0.021233782 -0.056470234
000210 ee 28 51 bd a3 c1 80 bc d4 3d 23 3d a1 28 3c 3d
       -0.051064424 -0.015717333 0.039853886 0.045937184
000220 f3 8f 92 3d df f2 7a ba 31 ac 8d ba 27 f5 15 bd
       0.071563624 -0.0009572934 -0.0010808763 -0.03661075
000230 ee c0 01 bd 0d 7a 9f 3d 44 71 1a 3c f9 92 a9 bd
       -0.031678133 0.07786951 0.009426419 -0.08279986
000240 5b 18 c8 3c 15 c0 68 3d d2 2f 1a bd 6c d9 40 3d
       0.024425676 0.05682381 -0.03764326 0.04708235
000250 f3 a0 60 bd 5a 8e ab 3b a8 0b 7c bd 4d a0 9b bd
       -0.054840993 0.0052354755 -0.061534554 -0.07598934
000260 3f f3 20 3c f4 98 a1 3b 08 6c 52 bd dd 32 d0 3c
       0.009823619 0.0049315635 -0.051372558 0.025414879
000270 e6 3b f2 b9 3c 2e 63 3d ed 3e b2 bc 10 26 ec bb
       -0.00046202465 0.055464014 -0.021758521 -0.007206686
000280 c8 33 f8 3c 3a 53 15 bd 73 b1 74 bd 4e 2e 4d 3c
       0.030298129 -0.036456324 -0.05973954 0.012523247
000290 14 d7 80 bd e9 13 ba bc 52 ce d7 3c 36 23 80 3d
       -0.06291023 -0.022714572 0.026343498 0.06256716
0002a0 e6 f9 97 bc 17 4a 26 3d d6 36 59 3c 83 d3 81 bd
       -0.018551778 0.040598 0.013257703 -0.06339171
0002b0 50 40 31 3d c8 7c a3 bd ee cd bb bd 3d ff ab bd
       0.043274224 -0.079827845 -0.09170137 -0.08398292
0002c0 4d 2a 8c bd f5 b5 56 3d e6 6a 84 bc 94 13 aa bd
       -0.06844006 0.05241962 -0.016164254 -0.083045155
0002d0 b9 06 da bb 8d 13 0d 3d 54 e4 69 3d cf 4c 8f 3d
       -0.0066536334 0.034442473 0.057102516 0.06997072
0002e0 ab 8e 76 bd 81 3f 93 bd 3f c3 aa 3c 77 9e 5f bd
       -0.060194653 -0.07189847 0.020845054 -0.054594483
0002f0 f3 31 e1 bc a9 0c 73 3b 08 14 85 3d 4d 08 2a 3d
       -0.027489638 0.0037086403 0.06497961 0.041511822
000300 4a d0 b9 3c 40 7b 73 bd ab e2 20 bd ef 10 b9 bd
       0.022682328 -0.059443712 -0.039278667 -0.09036433
000310 2c 4e 82 3b da b0 bf 3d 4c c2 e0 3c a8 ae 82 3c
       0.003976604 0.09359904 0.027436398 0.015952423
000320 c3 34 93 3d b5 34 08 3a 8d 71 7a bb ad 5f be 3d
       0.07187798 0.0005195842 -0.0038214654 0.092955925
000330 d2 ae 5a bd 73 18 79 3c de 59 e4 bc 80 1e 7a 3d
       -0.053389378 0.015203583 -0.027874883 0.061064243
000340 4a b2 b4 3d 66 4f 2f 3d 8d d5 00 bd 42 df 33 3d
       0.088230684 0.04280033 -0.031453658 0.043914087
000350 c6 34 f1 3c 71 f4 95 3d 9a ae 94 3d b8 53 35 3c
       0.02944411 0.07322014 0.07259865 0.011067323
000360 32 0d 15 bd db 91 d0 3d 55 8b 55 3d e8 a8 a7 3d
       -0.036389537 0.1018407 0.05213483 0.08186513
000370 a7 13 4b bd fa 24 1e bd 10 81 b5 bc 69 91 b4 3d
       -0.04957929 -0.038609482 -0.022156268 0.08816797
000380 25 0e 79 bd 21 6c 14 bb 6e 4a b9 3c f2 67 85 3d
       -0.060804505 -0.0022647458 0.022618499 0.065139666
000390 32 73 9d 3c 05 83 13 3d df fe e7 3b 14 52 66 3d
       0.019219968 0.03601362 0.0070799435 0.05623062
0003a0 c7 b3 f9 3c ff eb 4b bd 6b 91 bb 3a ab d4 63 3d
       0.030481232 -0.04978561 0.0014310306 0.055622738
0003b0 4a d3 66 3c bf d5 97 3c 75 bf c1 3d 61 45 87 3d
       0.014088461 0.01853454 0.09460346 0.0660503
0003c0 02 6c bf 3d 4c 5d 16 3c b9 52 86 3d a3 50 9c 3d
       0.09346773 0.009177517 0.06558747 0.07632568
0003d0 90 60 4a bd a6 59 8b bd e5 62 80 bd cb 52 32 bd
       -0.049408495 -0.068042085 -0.06268863 -0.04353599
0003e0 cf 92 85 3d 96 9f 9c bd c8 de 98 3d 99 42 82 3d
       0.06522142 -0.07647626 0.07464367 0.06360359
0003f0 07 c2 9c bb fb 77 9d bd 1d 88 80 3d 95 ca 2b bb
       -0.004783872 -0.076889 0.062759615 -0.0026213278

base.0.bias f4 [64]
000000 8a 1f c0 bb b2 18 eb bc 59 1a 33 3c 36 3e 9b bd
       -0.0058631347 -0.0286983 0.010931575 -0.07580225
000010 59 96 35 bc 52 c3 ad 3c 78 d1 b3 bc 16 da 6d 3c
       -0.011083209 0.0212113 -0.021950468 0.014517328
000020 60 4e ab bd 84 ed 9c bc b9 8e ed bc e0 62 2a bb
       -0.08364558 -0.019156225 -0.02899872 -0.0025998875
000030 25 bb f3 bb 54 f5 62 bd 27 4c 62 bc db 4a 25 3d
       -0.007438081 -0.055409744 -0.013812101 0.04035459
000040 13 ec 79 3d e0 c1 f0 3a 78 f9 18 3d 04 9d 51 3d
       0.061016154 0.0018368326 0.037347287 0.051175132
000050 2a ea a3 bc c9 7b aa bd c3 5a 3f bc 12 9b 23 bd
       -0.020009119 -0.083243914 -0.011679354 -0.03994281
000060 6c e3 b6 bd 7a 75 63 3d 33 46 18 bd 84 d2 22 3d
       -0.08930096 0.055531956 -0.037176322 0.039751545
000070 74 12 c1 3b c4 08 02 3d 16 e0 b5 3c c6 18 81 3d
       0.0058920924 0.03174664 0.022201579 0.06303553
000080 12 68 57 3c 62 6c f6 3c a6 c7 98 bd 14 59 7c 3c
       0.013147371 0.030080978 -0.07459955 0.015402097
000090 df f2 8c bd f4 0a 05 bc ff 69 c4 3c 06 ce 17 bd
       -0.068822615 -0.008120287 0.023976324 -0.037061714
0000a0 80 65 63 3d e3 5b 55 bd bc 1f 8f 3d 01 ed a7 3d
       0.05551672 -0.052089583 0.06988475 0.08199502
0000b0 6f d9 9d ba c0 07 4b bd e7 49 ac bd fa 1c 9b bd
       -0.001204295 -0.049567938 -0.08412533 -0.07573886
0000c0 a4 8e 05 bd cc 74 32 bd ed 88 bb bd ef dc c2 bc
       -0.032606736 -0.043568417 -0.09156976 -0.02378699
0000d0 bb 75 15 bc 2a 90 58 bd cc f1 18 3b 8e 77 58 bd
       -0.009122307 -0.05287186 0.0023337482 -0.05284839
0000e0 be 8f d4 3c 85 72 73 bc 60 18 67 3d 1b 32 9b bd
       0.025947448 -0.014858847 0.05641973 -0.07577916
0000f0 5e 90 92 3c 44 19 3a 3d 5b cc 1b 3d 09 56 6a 3d
       0.017891105 0.04543425 0.038036685 0.057210956

res_blocks.0.conv.weight f4 [64, 64, 3, 3]
000000 1b b4 bc bc 6b fb 24 3b 1c 1f 9f bc 87 54 4c bc
       -0.0230351 0.002517427 -0.019424014 -0.012471325
000010 43 da d4 bc d3 f7 c8 3a 36 b2 ce 3c 8a 3c 61 bc
       -0.025982982 0.0015332646 0.025231462 -0.013747344
000020 06 ac 37 3d 0c 65 45 bd a3 ef 04 3c ba 7d f6 b9
       0.04484179 -0.04819207 0.0081137745 -0.0004701445
000030 ba da dd bc 04 4a 0a bd 5a 26 e2 3c 8c f9 c3 bc
       -0.027081836 -0.033761993 0.027606178 -0.023922704
000040 07 12 82 3b 21 2f f7 3c 65 10 b0 bc 05 f6 f0 3c
       0.003969434 0.03017384 -0.021492193 0.029414186
000050 6d 19 46 3d 38 d8 19 3d de 50 ef 3c c2 0d 1a 3d
       0.04836409 0.037559718 0.029213365 0.037610777
000060 8b 00 63 3c d3 3d 78 3c 5f 7d 3c 3c fa 1a 36 3d
       0.01385511 0.015151459 0.0115045 0.04445932
000070 39 3f 7b 3b 7b 18 0a 3d a2 85 16 3d bd b1 5a 3a
       0.0038337244 0.033714753 0.036748536 0.0008342525
000080 ef 6c 0e 3b b3 51 bf 3c d2 68 5d bc c8 28 29 3d
       0.002173241 0.023354387 -0.013513761 0.041298658
000090 8a ac 81 3c eb e3 70 bc 04 ae 1f bd 71 4a fd bc
       0.015829343 -0.014702777 -0.038984314 -0.030919285
0000a0 3a 39 61 bc e2 88 fc 3c 19 95 33 3d 8f a0 19 3d
       -0.013746554 0.03082699 0.043843362 0.037506636
0000b0 e3 e3 33 3b 0c 13 7a bb e1 b9 0e bc c2 8d e7 bc
       0.0027449063 -0.0038158325 -0.008711309 -0.028265838
0000c0 ea 17 e3 bc 65 3c 4a 3d d1 99 04 3d e0 0d 90 bc
       -0.027721364 0.049374003 0.032373253 -0.017584741
0000d0 e6 55 61 3b 8d dc e0 3b 83 94 e6 bc d7 9e 51 3c
       0.0034383475 0.006862229 -0.028146988 0.012794218
0000e0 1b fe d5 bc 9f 3d 47 3c 7a 44 15 3d fe 8a 5e b8
       -0.026122143 0.012160688 0.036442257 -5.305837e-05
0000f0 1f 0e 45 3c e2 8d e5 3b 8b fd 29 bc 96 9e c2 3c
       0.0120272925 0.007005439 -0.010375391 0.02375726
000100 49 ad e9 3b 0d db 5f bc 68 2d 92 3c a5 83 92 bc
       0.007131253 -0.013663066 0.017843917 -0.017885039
000110 b0 b3 1c bb fd 3e f2 3c 6c ec ba 3c 00 80 b6 3c
       -0.0023910813 0.02957105 0.022817813 0.022277832
000120 06 db 20 3c 3c ca 44 3d aa 1f 32 3c 87 71 17 3d
       0.009817844 0.04804443 0.010871807 0.036973502
000130 2c 46 a3 3c 07 2d 00 bc 84 fd 2e 3d 3c d3 42 ba
       0.019930921 -0.007823235 0.04272224 -0.0007431989
000140 da 4b 8b 3c 53 58 9b 3c 4d c8 be 3a 3c 26 8f bb
       0.017003942 0.018963015 0.0014555544 -0.0043685716
000150 f2 8b e1 bc df 35 09 3c 3b 25 f2 bb 1f 31 4f bc
       -0.027532551 0.00837466 -0.007389692 -0.012645989
000160 7e af 2f 3d 03 ef 03 3d 24 40 08 bd 01 bc 73 bd
       0.04289197 0.03221036 -0.033264294 -0.059505466
000170 82 e2 2d bd dd 75 d2 bb 64 32 8c bc b2 13 07 bd
       -0.042452343 -0.006422742 -0.017113872 -0.032977767
000180 94 6a c1 3b cc dc e1 bc 38 2f db bc 43 8d e8 bc
       0.0059025977 -0.027571104 -0.026755914 -0.028387671
000190 07 f8 32 bb 1b 60 82 3c 42 99 ab bc be d1 9f 3c
       -0.002730848 0.015914967 -0.020947102 0.019509193
0001a0 42 92 12 bd 57 cc 8b 3c 85 0a fb bc 15 62 75 bc
       -0.035784014 0.01706521 -0.030644665 -0.014976998
0001b0 af 85 01 bd 68 5e 1d 3d ff 93 e9 3c 3d cd 23 3d
       -0.03162163 0.03842011 0.028512953 0.039990652
0001c0 a5 df 33 3b e4 09 72 bc 29 ae 0c bd 83 84 cb 3b
       0.0027446535 -0.014772866 -0.03434578 0.006210865
0001d0 a1 e7 bb bc 79 c2 61 3c 40 e0 89 bb 78 2e 3a 3d
       -0.022937598 0.013779276 -0.004207641 0.045454472
0001e0 1c d3 a3 bc 22 4c e9 bc 87 af ba bc f6 5d e8 bc
       -0.019998126 -0.028478686 -0.022788776 -0.028365117
0001f0 eb ed 6c 3c ff 80 11 bd 5b 83 e9 3c 8c 14 a6 bc
       0.014461021 -0.03552341 0.028505018 -0.02027347
000200 19 35 cc bc 2c ee e1 3c 64 14 c4 bc 24 ed 78 3c
       -0.024927663 0.02757939 -0.023935504 0.0151932575
000210 74 2f 0c 3d 2a 63 63 3c 53 c4 19 3d 49 dd 53 bb
       0.034224942 0.013878623 0.037540745 -0.003232794
000220 ce d0 06 bd 94 3d d7 3c d9 cc 82 39 5e aa c7 39
       -0.032913975 0.02627448 0.00024948156 0.0003808317
000230 a3 be 11 3d 01 ba 34 3d 36 a0 ef 3c 7c 8f 4e 3d
       0.035582196 0.0441227 0.0292512 0.050429806
000240 c7 c0 64 ba 39 d6 24 3d db 22 2d 3d d7 d8 b5 bb
       -0.0008726236 0.04024336 0.04226957 -0.005549531
000250 66 9c 0f 3c b6 4c a2 bc 00 11 0c bc 53 cc 90 3c
       0.008765316 -0.01981197 -0.008548975 0.017675554
000260 c9 e6 02 bd ac 3a 86 3c 73 f5 1c 3d 80 62 72 bc
       -0.031958375 0.016385399 0.038320016 -0.014793992
000270 ff 53 be bc 0a 24 40 bb 23 14 e1 3c 16 e2 4d 3c
       -0.023233412 -0.0029318356 0.027475422 0.01256611
000280 a6 6b 36 3d 77 22 1b 3d 34 4e c1 3b 7c 9e 80 bc
       0.044536255 0.037874665 0.005899215 -0.015700571
000290 f1 5b 27 bd e5 cb 2c 3c 17 ec b9 3c 5f 26 d0 bc
       -0.040859167 0.010546659 0.022695584 -0.025408922
0002a0 78 ae aa 3c 75 92 1e 3a 0b d9 d6 3c db 24 18 3c
       0.020835146 0.00060490455 0.026226541 0.009286131
0002b0 90 58 db 3c bf 02 06 bd 1b b4 88 3c d2 ce 14 3d
       0.026775628 -0.032717463 0.016687443 0.03633005
0002c0 a2 0d fd 3c 5b 48 e4 3c 30 2c 9e 3c f2 b8 c2 3c
       0.03089029 0.027866533 0.01930818 0.02376983
0002d0 56 e1 f3 bb 6f 7c 05 3c 53 c5 4c 3d 90 62 75 3c
       -0.0074426336 0.008147343 0.04999287 0.014977112
0002e0 f4 b3 30 3d 8a 28 b9 3c 25 bd 30 3d 7a b1 b7 3c
       0.043140367 0.022602338 0.043149132 0.022423495
0002f0 b7 c2 34 3c 59 3e a5 3c ef ab 33 3d 04 a1 37 bd
       0.011032752 0.020171331 0.04386514 -0.04483129
000300 ee 19 0b 3d d2 64 4c bb 68 ed d4 ba 43 97 7c bc
       0.033960275 -0.0031188023 -0.0016245069 -0.015416923
000310 0b 27 ce 3b aa 63 fd 3c ea 55 79 3d e1 b9 41 3d
       0.0062912754 0.030931313 0.06087295 0.04729641
000320 72 cc 3f 3d 52 c8 74 3d 8b 97 da 39 d3 9c 67 3b
       0.046825834 0.059761353 0.00041693109 0.0035341277
000330 aa 2b ad 3c bb 74 27 3c aa 10 f8 3c 8d 69 dd ba
       0.021138985 0.010220702 0.030281384 -0.0016892418
000340 e9 df 6c 3d 7a 32 60 bc 4b db 29 ba 5b ba eb 3a
       0.057830725 -0.01368391 -0.00064795156 0.0017984615
000350 d7 60 fa 3c f8 97 45 bc 37 c5 4d 3d 38 af da 3b
       0.030563755 -0.012060158 0.050236907 0.0066737197
000360 97 6d bd 3b ad 67 b4 3a 30 b6 05 3a cd e5 88 3c
       0.0057808864 0.0013763808 0.00051006954 0.01671114
000370 ee 17 24 bd 33 26 a4 bc b9 ed f9 bc de 67 32 3d
       -0.040061884 -0.020037746 -0.030508863 0.043556087
000380 17 d0 81 bc 91 8a a0 3c 0d 72 14 3d 43 ea 90 bc
       -0.015846295 0.019597324 0.03624158 -0.01768983
000390 f1 80 18 3d 36 e2 f9 bc 73 a0 c0 3b ef df a1 3c
       0.037232343 -0.030503374 0.005878502 0.0197601
0003a0 fc 2d dd bc 03 49 c6 bc 77 25 08 3d a1 0b 09 3c
       -0.026999466 -0.024204737 0.033238854 0.008364589
0003b0 98 46 28 3d 0a 72 5b 3b 98 a7 4a 3c 18 07 85 3c
       0.04108295 0.003348472 0.012369059 0.016238734
0003c0 75 ff b1 3c 00 91 4a 3c e7 6b a0 3c f4 d0 61 ba
       0.021728257 0.012363672 0.019582702 -0.0008614205
0003d0 7b c7 b2 bc fb 9a 47 3c e4 35 93 3c bc 5b 62 bb
       -0.021823635 0.012182946 0.017970033 -0.0034539541
0003e0 34 47 4e 3c 0a 59 27 3d 0a 72 3d 3d 5a 53 6f 3c
       0.012590218 0.0408564 0.046251334 0.014607275
0003f0 aa 47 ea bc 3d 16 cd 3c 6e 63 86 3c 2c 37 03 3c
       -0.028598625 0.025035018 0.016404834 0.0080087595

res_blocks.1.conv.weight f4 [64, 64, 3, 3]
000000 b8 7c 0e bd 91 7b 19 bd 39 02 08 bd 12 65 34 bd
       -0.03478691 -0.037471358 -0.033205245 -0.0440417
000010 59 f6 18 3d 75 8d 25 bc 62 37 b1 bc 65 23 f4 bc
       0.03734431 -0.010104527 -0.021632854 -0.029802034
000020 06 c1 7a bc dc d6 19 3d ce 8f cb 3c 96 ed 47 3d
       -0.015304809 0.03755842 0.024848845 0.048810564
000030 3d 88 9d bc 18 11 1e 3d 2b 2b 01 3d 3e 41 21 bc
       -0.019230003 0.03859052 0.03153531 -0.009842215
000040 60 e0 d3 bc f6 c0 74 3c 33 74 f0 bc 24 b1 6c 3c
       -0.025863826 0.014938584 -0.029352283 0.0144465305
000050 b4 1c bb bb 52 0c aa b9 09 c5 f0 3b 1e d0 29 3d
       -0.005710209 -0.00032434106 0.007347707 0.04145824
000060 06 7c 14 3c 7f 5a e7 bc 98 58 a4 3c 2c f7 a6 bb
       0.009062773 -0.028241394 0.020061776 -0.005095383
000070 09 0e f5 3c 55 6a 23 3d 65 27 15 3c ec 0e cf bc
       0.029913919 0.039896328 0.009103631 -0.02527567
000080 f3 c8 a8 bc 41 f1 20 3d 94 47 9d 3c a2 8f bc 3c
       -0.020603633 0.039292578 0.01919917 0.023017708
000090 d3 c1 29 bc 7d ef 41 3d 94 ff 16 3d b4 e1 66 3d
       -0.010361153 0.047347534 0.036864832 0.05636759
0000a0 66 66 ce bc 10 88 88 bc f1 23 d9 3c eb 0d 87 3c
       -0.025195312 -0.016666442 0.026506396 0.016486129
0000b0 15 fd 2a bb 11 56 01 3c 2a 7e f3 bc 9d 1f 13 3d
       -0.002609079 0.007894055 -0.029723246 0.03591882
0000c0 77 96 2f bc 0e 48 18 3d da da 82 bc df 50 02 3a
       -0.010717026 0.03717809 -0.015973497 0.0004971157
0000d0 2d 47 b3 bc 4c 97 ea 3c 26 6f 95 bc 74 66 42 3d
       -0.021884525 0.028636597 -0.018241476 0.04746099
0000e0 d0 1d 73 3c 0a 38 95 bc 85 3a d8 bc f8 4a ee 3c
       0.014838651 -0.018215198 -0.026395092 0.029088482
0000f0 29 5a 16 3d d7 b0 81 3c c5 8d c8 3c 6a 21 c8 bc
       0.036707077 0.015831394 0.024481663 -0.024429996
000100 3c d8 4b 3c 43 61 1a 3d 50 ef 29 3c 60 54 91 3b
       0.012441691 0.037690412 0.010371998 0.004435107
000110 da 5c df 3c e3 87 59 bb 27 ed d5 3b 9e 62 52 bc
       0.027265955 -0.0033192567 0.006528515 -0.012840895
000120 6b a0 62 3b 9b d9 09 bd f3 94 1a bd 80 6d d4 bc
       0.003458048 -0.03365479 -0.037739705 -0.02593112
000130 ec 85 0c bd 6b c1 d3 bc df 77 83 3c 08 f1 f0 3b
       -0.034307405 -0.025849065 0.01604837 0.007352952
000140 b3 fa 76 3c 2d 89 36 3d de 72 9e bc ff cb a2 bc
       0.01507442 0.044564415 -0.019341882 -0.019872664
000150 3b 2c 0c 3d fe a7 b6 3c 5c fd 0e 3d e7 73 34 3d
       0.03422187 0.022296902 0.03490959 0.044055846
000160 fa 00 1d 3c e0 ee 05 bd c5 ac b0 bc 94 ee 07 3b
       0.009582752 -0.032698512 -0.021566758 0.002074157
000170 6f 3c 3b 3c 6c 26 07 bd 8d af 09 bd 4b 27 21 3c
       0.011427983 -0.032995626 -0.033614684 0.009836028
000180 3f d1 b7 bb d8 94 66 bc 26 13 d3 bc c1 cc b9 bc
       -0.005609661 -0.014073573 -0.025765967 -0.022680642
000190 64 5f b3 bc e1 81 0a 3d 30 eb c5 bb ba 5c b6 bc
       -0.021896072 0.03381527 -0.0060399994 -0.022261012
0001a0 c3 7f 02 bc c0 7b 29 3d 77 8c a5 bb fd 70 7f bc
       -0.007965031 0.041377783 -0.005052145 -0.015590903
0001b0 40 be 65 3c 1d 54 04 bc 19 9a 35 bc 11 42 d8 bc
       0.01402241 -0.008076695 -0.011084103 -0.02639869
0001c0 6f a8 19 bb eb af e9 3c 9d d9 1b 3d aa 2b 4a bc
       -0.0023446342 0.028526267 0.03804933 -0.012339512
0001d0 3a 25 42 3d d2 0c 14 3d d8 6f a8 bc 9a b6 3f 3d
       0.047398783 0.03614504 -0.020561144 0.046805
0001e0 cf 70 25 3d 1a 03 6e 3a de 59 ca 3c 0b 97 8d 3b
       0.040390786 0.00090794417 0.024701055 0.0043209842
0001f0 37 97 20 3d 42 20 3b 3d 25 a5 02 bb 80 91 91 bc
       0.03920671 0.04568506 -0.001993486 -0.017769575
000200 e5 b7 f5 3c 7e ad 69 3b b8 4d 33 3d ea 99 8b bb
       0.029994914 0.0035656388 0.04377529 -0.0042602913
000210 90 84 0f 3c 6c d9 a1 3c 42 b1 b8 3c 1b 89 aa bb
       0.008759633 0.019756995 0.02254546 -0.0052043325
000220 11 a5 37 bc cc 5f 08 3a e7 be 50 3d 75 51 26 3d
       -0.0112087885 0.0005202263 0.05096331 0.040605027
000230 78 04 ae bc 56 82 90 39 95 23 3f 3d ef 99 56 3c
       -0.021242365 0.00027562928 0.046664793 0.013098224
000240 ac e7 15 3d ca 5a bf 3c 2b cc 36 3d 85 52 ab bc
       0.036597893 0.023358721 0.044628303 -0.020913372
000250 22 e7 a1 3c 57 5b ff 3c bb 6e 44 3d 37 b2 d4 3b
       0.019763533 0.031171484 0.047957163 0.0064909714
000260 8f 4f a7 3c ee b3 a6 bc 81 10 3b 3d 10 b2 03 3d
       0.020423679 -0.020349469 0.045670036 0.032152236
000270 f5 dc 23 3d 66 61 3c 3d c1 31 8b bc 2b 37 9d 3c
       0.040005643 0.045991324 -0.016991498 0.019191345
000280 50 37 ff bb 34 b1 20 3d cc cf 21 3d 4b 4b 0d 3d
       -0.007788576 0.039231494 0.03950481 0.034495633
000290 f4 01 50 3c 8d 7e 2b 3d 34 25 7f bc 25 a9 11 bc
       0.012695778 0.041868735 -0.015572835 -0.008890425
0002a0 48 9f 8f 3c eb 37 00 3c 0c 66 84 3c 2e d0 a4 3c
       0.017532006 0.007825832 0.016161941 0.020118799
0002b0 6b c0 c3 3c 08 e8 45 3d 84 48 4d 3c 26 0f 19 bb
       0.023895463 0.048316985 0.012529496 -0.0023354976
0002c0 fa d6 85 3c d8 4c c3 bc 21 3e ff 3c 79 6b 2a 3c
       0.01633786 -0.023840353 0.031157555 0.0104016
0002d0 0c 8b 0e 3d 16 a0 d0 3c f4 7d b6 3c c2 a0 52 3c
       0.034800574 0.02546696 0.022276856 0.01285571
0002e0 bc 5a d8 bc 8c b6 9e bc 6b 0f f4 bc fe df dd bc
       -0.026410453 -0.019374155 -0.029792508 -0.027084347
0002f0 eb 3d 91 3c b3 16 a5 3c db 9a fa 3c ce 99 51 3d
       0.01772972 0.020152425 0.030591419 0.05117207
000300 f1 35 dd 3c 4a cf 9b bc 0f e5 bb bc 6f e5 b3 bc
       0.02700326 -0.019019742 -0.022936372 -0.021959988
000310 8b d4 07 3d 06 98 0f 3d 16 0e c9 bb 0a d8 39 bc
       0.03316168 0.03505709 -0.0061357124 -0.011343012
000320 80 34 4b 3d 6c ee 34 bc e7 61 3f 3d 4f b7 00 3d
       0.049610615 -0.011043172 0.046724226 0.031424817
000330 47 12 64 bb a1 75 8c 3a ab f1 3c 3d 9b 10 0f bd
       -0.0034800933 0.0010716208 0.04612891 -0.034927946
000340 48 68 e6 bc 33 38 b1 bc 03 9a 2f 3d b7 55 16 3d
       -0.028125897 -0.021633243 0.042871486 0.036702838
000350 33 82 76 3c 22 ec 82 3c c8 32 84 bc b9 45 8b 3c
       0.01504569 0.015981738 -0.016137496 0.01700102
000360 09 66 c9 bc cb f3 97 3c 50 1e e8 3c bd a7 d1 3b
       -0.024584787 0.018548867 0.028334767 0.00639817
000370 22 fc 9d 3c 2d 25 1a bc db 3a 3a 3d 8f e5 78 3c
       0.019285265 -0.009408277 0.045466285 0.01519145
000380 c1 ce 5b 3d 55 e1 a4 3c c2 4a 91 3c d5 bb c2 bc
       0.053663973 0.020126978 0.017735843 -0.023771206
000390 bf 11 fb 3c 64 3c 16 bc 76 52 63 bb 2d b3 24 3d
       0.03064811 -0.009169672 -0.0034686602 0.040209938
0003a0 b7 2f 5b 3c ef a8 4c 3d c9 4f 62 bc 31 cc 41 3d
       0.013378075 0.049965795 -0.013812968 0.047313873
0003b0 39 fb 35 bc 93 a1 26 bc a6 cf 57 3d 33 95 ff bb
       -0.011107259 -0.010170358 0.052688263 -0.0077997684
0003c0 76 d6 32 3d 5c 7c c6 3c a0 5a 83 3c cb e5 5b 3d
       0.043661557 0.024229221 0.016034424 0.053685945
0003d0 d0 2a da 3c f3 86 c9 3b 4a 1c a7 bb ea a9 38 3b
       0.026631743 0.0061501204 -0.005099808 0.0028177449
0003e0 0f c9 52 3c 72 5d b6 3c d7 84 1e 3d 6e 9b 46 bc
       0.012865319 0.022261355 0.038700905 -0.012122018
0003f0 ab b9 21 3c 71 9f 0e bc df de 07 bd d5 61 30 3d
       0.009870927 -0.008705006 -0.03317153 0.04306205

res_blocks.2.conv.weight f4 [64, 64, 3, 3]
000000 cd 39 64 bc 02 fd 02 3d db 5d 0a bd 8a 07 dd bb
       -0.013929796 0.03197957 -0.033780914 -0.0067452835
000010 a4 84 09 3d c1 b9 9e bc bc 9c a4 bb 14 8f 3f 3d
       0.03357376 -0.019375684 -0.005023567 0.04676731
000020 37 72 5e 3d d7 11 3a bc 98 e8 38 3c bc 96 b2 bc
       0.054308143 -0.011356792 0.011285923 -0.021800391
000030 d3 9d ec bc 2e c7 ca bb 76 34 a5 bc f9 86 27 3c
       -0.02888385 -0.006188295 -0.020166617 0.010225051
000040 1e 1a ed ba 74 bc 2b 3d ed 29 9e 3b 7f a1 0e 3c
       -0.0018089449 0.04192777 0.0048267753 0.008705496
000050 8e 4c da bc 8c 09 85 bb 6a ae ff bc 9e 5a c9 3c
       -0.026647832 -0.004059976 -0.031211097 0.024579342
000060 69 45 1f 3d b4 43 89 bc 85 c7 cc bc f5 c1 b2 bc
       0.038884554 -0.016755916 -0.024997482 -0.021821002
000070 dc 7b f2 3c 21 4d 12 3d b7 e9 d1 bb 2d 89 f0 bb
       0.029600076 0.035718087 -0.006406035 -0.0073405714
000080 54 c0 44 3d 37 b5 03 bd 2b 76 b1 3c 19 51 43 3c
       0.04803498 -0.03215524 0.021662792 0.011921191
000090 73 6b 02 bd 34 20 95 3c a8 20 0f bd fc 0f dc 3a
       -0.031840753 0.018203832 -0.034943253 0.0016789432
0000a0 06 28 95 3c 01 30 b3 bb 47 37 ff 3b 47 33 c5 3c
       0.018207561 -0.005468369 0.007788572 0.024072303
0000b0 01 1a d2 3c 16 7a 18 3c cb 6b 53 3b 9b 58 9c bc
       0.025647165 0.009306451 0.0032260295 -0.01908522
0000c0 c3 88 2a 3d 2a 0a 33 3d 7d 37 ae 3b 8c 3b 34 3d
       0.041634332 0.043710865 0.0053166733 0.0440021
0000d0 20 1c 22 3d 91 de 13 3c b4 5c ac bc f4 dd 89 bc
       0.039577603 0.009025232 -0.021040298 -0.016829468
0000e0 91 54 51 3b 94 7c 38 3d c2 bf 31 3d 2c b8 ba bb
       0.0031941275 0.045040682 0.043395765 -0.0056982245
0000f0 ba cb 20 3d 62 dc a3 3c 61 0e 67 bc b3 fd 88 bc
       0.03925679 0.020002548 -0.014102549 -0.016722536
000100 5a d7 a5 3c a7 6f 04 3d b7 b1 98 3a b7 d9 16 3d
       0.02024429 0.032333042 0.0011649643 0.036828723
000110 50 20 d7 3b d5 3d 07 3d 9a 50 c1 bc 0e ae 7d 3c
       0.0065651312 0.033017952 -0.023598004 0.015483392
000120 8a 70 9e 3c 48 69 59 3c 09 5b 2b bd d6 92 0c bd
       0.019340772 0.01326973 -0.041834865 -0.03431972
000130 fa da eb bc f0 d5 b1 bc ff b2 55 ba cf 9d 0e bd
       -0.02879094 -0.021708459 -0.00081519777 -0.034818467
000140 60 c2 05 bd 25 be e3 bb 27 d3 86 bc 1f d2 3c 3d
       -0.032656074 -0.006950157 -0.016458107 0.046098825
000150 89 17 3e 3c b0 ce 18 3d eb c5 8e bb 8f 93 eb bc
       0.011602291 0.037306488 -0.0043570898 -0.028756885
000160 70 58 7a bc bb f1 99 bc e0 c7 75 bb e1 af 16 bd
       -0.015279874 -0.018792024 -0.0037503168 -0.036788825
000170 75 df 22 bc ea 1c 0c 3c 27 fb 1b bd f8 a1 54 3c
       -0.009940972 0.0085518155 -0.038081314 0.0129780695
000180 ed e8 88 b9 f9 35 0f 3d 45 36 5c 3c 05 cc ce bc
       -0.00026113485 0.03496358 0.013440673 -0.025243768
000190 f0 5c 6b 3c 31 f2 80 3c dd 36 a8 3c 87 de 9d 3c
       0.01436542 0.015740486 0.020533973 0.019271148
0001a0 b0 59 13 3d dc d1 43 3d f7 ab 6f 3c f3 f1 4d 3d
       0.035974205 0.04780756 0.014628402 0.05027957
0001b0 ec 6a 03 3d 93 96 3a 3d c0 b9 c4 bc 18 03 ce 3c
       0.03208439 0.045553755 -0.024014354 0.02514796
0001c0 e9 31 96 3b e0 f6 27 bb 2f 9f 67 3b 98 e4 e9 bc
       0.0045835865 -0.0025629327 0.0035342684 -0.028551385
0001d0 04 0e 1c 3c ee 35 86 ba 5d d1 03 3d 1c e2 27 3d
       0.009524826 -0.0010239461 0.032182086 0.04098712
0001e0 67 7e 06 3d 8b 85 8a 3c 82 dc b7 bc b6 ec 82 bc
       0.03283539 0.016909381 -0.022444014 -0.015982013
0001f0 89 c2 0e bd e8 f7 2d 3d 08 82 37 3d 88 f3 d7 3c
       -0.034853492 0.04247275 0.04480174 0.026361242
000200 4f 12 37 bc 74 16 07 3c 43 77 c2 3b de 17 09 3b
       -0.011173799 0.008245099 0.0059346273 0.0020918767
000210 e2 e2 08 3d f9 6d db bc 43 dd ea bc 73 3b db bc
       0.033419497 -0.026785837 -0.028669959 -0.026761746
000220 7a ba 59 3d c4 e6 0e 3d 56 f9 7a 3c d9 2d 0d bc
       0.053156354 0.034888044 0.015318235 -0.008616888
000230 6e 25 8b bc b6 e3 b0 bc 66 7a 39 bc 56 ae 4e 3d
       -0.016985621 -0.021592956 -0.011320686 0.05045923
000240 f9 01 02 3d 78 e9 64 3c cc 86 32 3c 76 02 2f 3d
       0.031740163 0.013971679 0.010896396 0.042726956
000250 ae d1 1a 3d be 40 d6 3c bc c5 f2 3c 15 33 48 3c
       0.037797622 0.026153918 0.029635303 0.01221921
000260 05 a7 70 bc d7 e9 c5 3c 96 f2 e7 bc 40 a3 f7 3b
       -0.014688258 0.024159355 -0.028313916 0.0075573027
000270 be 10 37 bc 59 9f 02 bc e6 cf e6 bc 0c 57 0c 3b
       -0.011173425 -0.007972562 -0.028175306 0.0021414189
000280 42 52 e4 bb aa eb cb 3c f1 40 37 bb ac dc 1c 3d
       -0.0069678137 0.024892647 -0.0027962292 0.038296387
000290 fe 38 93 3b 8f 72 1d 3d 66 4f e6 3b 98 96 43 3d
       0.004492878 0.03843933 0.007028508 0.04775104
0002a0 a6 79 9a bc e4 84 33 bc 17 9c 3a 3d 33 e2 00 bd
       -0.018856835 -0.010956977 0.045559015 -0.03146572
0002b0 ba d1 84 3b d4 a8 24 bb 6c 8f af 3c 4b 70 95 bc
       0.0040533217 -0.0025125043 0.021430694 -0.018242022
0002c0 ba 92 2f 3d db f7 93 3b 25 3c a4 bc 3d d2 bf 3b
       0.04286454 0.0045156307 -0.02004821 0.00585392
0002d0 33 a4 4d 3d 8d 9e bb 3c 7b 98 a1 3c 75 47 d1 3c
       0.05020542 0.022902751 0.019726029 0.025546769
0002e0 6b b6 a0 3a c1 bf 75 3b ae 91 b8 3c 71 2f 10 3c
       0.0012261396 0.0037498327 0.022530403 0.008800373
0002f0 b8 76 c4 3c 68 4f 19 3d 9f 96 d6 bc d7 be 1b 3d
       0.02398239 0.037429243 -0.026194869 0.038023796
000300 33 44 15 3d df 2e 8c bc cc e4 35 3d 11 eb 94 3b
       0.036441993 -0.017112194 0.04440765 0.0045446237
000310 e1 76 10 3c e0 d1 9e 3a 66 0d 21 3d 71 f6 54 3d
       0.008817405 0.0012116991 0.03931942 0.051992837
000320 9d 2b 92 3c 92 d0 33 3d b0 b6 2b 3d 79 61 3e 3d
       0.017843062 0.04390008 0.04192227 0.046479676
000330 a1 e6 ef 3c 40 a2 46 3d 57 5d e2 3c 91 81 4e bc
       0.029284777 0.048494577 0.027632399 -0.012604133
000340 85 99 83 3b 5f 02 25 bc d1 04 a2 bb aa 81 fe 3c
       0.0040161037 -0.010071366 -0.004944422 0.031067688
000350 de 6b b7 39 6e b3 a6 bc 61 23 3d 3d 1d 31 05 bd
       0.00034984847 -0.02034923 0.046176318 -0.03251754
000360 35 d7 c3 3c b8 12 2b 3d 4e 66 1f bc 50 c3 07 3c
       0.02390633 0.0417659 -0.009728981 0.008286312
000370 e9 4c 67 3c 22 76 68 3a 30 68 01 bd 47 cb 9e bc
       0.014117458 0.0008867701 -0.0315935 -0.01938404
000380 5a 6c 04 3d ad 36 87 3b c5 33 b9 3b 01 ec 8b 3c
       0.032329895 0.004126391 0.0056519234 0.017080309
000390 eb 5b 4d 3d cf 20 cc bc 73 c4 f0 39 93 f9 fd 3c
       0.050136488 -0.024917988 0.00045922733 0.031002795
0003a0 02 0c ac bc ae 90 f1 bc f2 39 19 3d 15 32 30 3c
       -0.02100182 -0.029487934 0.037408777 0.010754128
0003b0 3e 32 c7 bc 17 35 b3 bc b9 21 2b 3d f2 3b 3e 3b
       -0.02431595 -0.021875901 0.041780207 0.002902743
0003c0 6e fc d3 3c ac 5f ab bc 99 ed ca bc 30 aa c1 3c
       0.025877204 -0.020919643 -0.024771499 0.023640722
0003d0 d3 d5 e6 bc 3d 65 2d 3c 18 64 82 bc 74 a1 c2 bb
       -0.028178131 0.010583219 -0.015916869 -0.005939657
0003e0 6e 59 04 3c f9 30 6f 3c b0 5d cf 3b 5a a8 1a 3c
       0.008077962 0.014599078 0.006328307 0.009439552
0003f0 11 b4 98 bc 71 5b 0e 3d 51 b4 34 3c 7a a2 02 3d
       -0.01864055 0.034755174 0.011029319 0.03189323

global_pool.0.weight f4 [64, 64, 3, 3]
000000 d8 d9 35 3b d6 4f 10 bd 1a f1 ee 3c da 67 8f 3c
       0.0027748253 -0.035232387 0.0291677 0.017505575
000010 62 54 bf bc bf 8d 2c 3c 3a 23 a6 bc 7d a9 c3 3c
       -0.023355667 0.010531842 -0.02028047 0.02388453
000020 ea bf 7f ba 90 f2 f0 3b 5d 53 34 bc 86 5a e5 3c
       -0.00097560755 0.0073531345 -0.0110062035 0.027997267
000030 f6 4b 9b 3a c4 11 0f bd 8c c5 60 bc b6 70 31 3d
       0.00118482 -0.034929052 -0.013718974 0.04332038
000040 97 62 0e bb dc 65 dc 3c 91 8d ce 3c 41 51 b5 bc
       -0.0021726245 0.02690404 0.025213988 -0.022133471
000050 f0 b1 43 3c d6 7d 44 bd 56 2f 35 bd 5b 89 81 bd
       0.011944279 -0.04797157 -0.044234596 -0.063250266
000060 6f 57 d0 bb c8 96 5f bc fc cb 5a bc 13 66 06 3d
       -0.006358079 -0.013646789 -0.013354298 0.03281219
000070 a2 4e e3 bc d5 0f ba bc b8 83 f3 bc 02 9e 3b bd
       -0.027747456 -0.022712627 -0.029725894 -0.045804985
000080 85 89 78 3c 91 f8 8b bc 6c b9 66 bc 4c cb 25 bb
       0.015169506 -0.0170863 -0.014082294 -0.0025298176
000090 d1 b0 9b ba 31 fc e4 bc 96 ff 94 bc e0 e1 84 bb
       -0.0011878257 -0.027952285 -0.01818828 -0.0040552467
0000a0 b5 27 4e bd 1a ae f8 bc 20 1d 19 bd cb e0 91 3b
       -0.050330836 -0.030356456 -0.03738129 0.0044518462
0000b0 0c 1c a1 3c ef 11 52 3c 24 8d 0b 3d 4a 75 06 bd
       0.019666694 0.0128216585 0.03407015 -0.0328267
0000c0 ec fa c0 bc 74 08 08 bd 5b 18 27 bd ca a3 3d bd
       -0.023557149 -0.033211187 -0.04079471 -0.04629878
0000d0 9d 2c 88 bc 59 d9 2e b9 7b 5d 9d bb a5 5a 8d 3c
       -0.016622836 -0.00016674901 -0.0048024035 0.017255137
0000e0 1d f9 1c bd 54 41 18 bc 8b ee db 3c 1c d0 e4 3c
       -0.03832351 -0.009292919 0.026847145 0.027931266
0000f0 1e 6e 03 bd cd c7 2e bd f4 9f ff 3c 87 52 dc bc
       -0.032087438 -0.042671014 0.031204201 -0.02689482
000100 f5 d7 02 3d 3f 8d b4 3c 46 1f b4 3c 5f a6 fd 3c
       0.031944234 0.022040008 0.021987569 0.030963121
000110 7b 14 11 3c f1 0c c3 3c 99 23 a2 ba 28 71 1b bd
       0.008854981 0.023809882 -0.0012370228 -0.03794971
000120 4e fd ef bb 09 2e 1e bd 49 39 84 3c 95 96 df 3b
       -0.0073238974 -0.03861812 0.016140597 0.0068233707
000130 20 c4 9f bb 15 84 a4 3c b3 2b 91 3b e5 b5 13 3d
       -0.004875675 0.020082513 0.004430258 0.03606214
000140 59 7d d1 bc 1d a2 32 bd 05 48 24 3a 74 ae 00 3d
       -0.025572466 -0.043611635 0.0006266835 0.03141637
000150 eb 18 db bb 7d 92 8c 39 be 67 da ba 9e cf cd bc
       -0.00668632 0.00026812023 -0.0016662998 -0.025123414
000160 60 62 4c 3c 06 c7 27 3c 67 7c f4 bc ac d5 00 bd
       0.012474626 0.010240322 -0.029844476 -0.031453773
000170 69 4d 2b bc bb 73 0a 3d 89 d4 1b bd f6 15 f6 3c
       -0.010455468 0.033801775 -0.038044486 0.030039769
000180 db e2 05 bd 25 72 eb 3c 13 3c 17 3d 13 7f da 3b
       -0.03268705 0.028740952 0.036922526 0.0066679805
000190 31 1d 0b bd 17 b8 34 bc 50 80 c5 3a 8e c6 94 3c
       -0.033963386 -0.011030219 0.0015068147 0.018161085
0001a0 26 40 bc bb 2b 86 1a 3d 25 0f 0d bd 04 00 ad bc
       -0.005744952 0.03772561 -0.03443827 -0.021118172
0001b0 8a 3e 12 bd 21 ff ea 3a 9c 08 1c bc a4 b8 d8 bc
       -0.035704173 0.0017928818 -0.009523537 -0.026455231
0001c0 f8 40 29 3c 4d 07 a4 bc 25 33 4d bd c4 4b 05 bc
       0.010330431 -0.020023013 -0.050097603 -0.00813574
0001d0 b5 dd c0 39 4f a1 09 3d 5c 39 2a bd c6 b2 fc 3b
       0.00036786278 0.0336011 -0.04155861 0.007711741
0001e0 36 d9 06 bd 45 af 5a 3c 10 bf 6d bc 91 83 f6 3b
       -0.032921992 0.013347452 -0.014510885 0.007523008
0001f0 98 20 39 bd 51 a4 1b bc fa 7b 41 bd 79 9e 8d 3a
       -0.0451971 -0.009499625 -0.047237374 0.0010804675
000200 79 16 e6 3c 2f 85 9f bc 09 b5 18 3b bf 16 a6 bc
       0.028086888 -0.019472687 0.0023301265 -0.020274518
000210 06 47 d2 3c 87 9e 78 3c a5 f5 c6 bc a5 ea a7 bb
       0.025668632 0.015174515 -0.024287054 -0.0051244074
000220 e8 5a b9 3b 21 5e 02 bd ff 92 e1 bc 74 fc 93 3c
       0.005656589 -0.03182805 -0.027535914 0.018064715
000230 4b aa 8d bc 59 92 0b 3c 13 d7 49 3c 9f 8b 41 bd
       -0.017293116 0.008518779 0.012319344 -0.047252294
000240 3b d3 0d 3d 84 89 87 3c 45 c2 a7 3c 61 73 eb 3c
       0.034625273 0.016545065 0.020478377 0.02874154
000250 c7 1e 2c bd 07 4c ab bb fb df 6c 3b 32 43 0e bd
       -0.04202154 -0.005227569 0.0036144245 -0.03473205
000260 ea b3 e7 bc 93 5d 61 3c 85 92 0c 3d 15 6c 54 3c
       -0.028284032 0.01375522 0.03431942 0.012965222
000270 1e e9 32 3c 49 d6 f7 3c f7 b6 40 bd 6c c1 f7 bc
       0.010919837 0.030253546 -0.04704949 -0.030243598
000280 b6 1a a0 3c 68 15 1c bd b4 07 2e 3b c3 02 fb bb
       0.019543987 -0.038106352 0.0026554884 -0.0076602413
000290 ba b7 97 bb 92 4f 46 3c 46 6f f2 bc 2f c7 da bc
       -0.004630056 0.012103932 -0.029594075 -0.026706306
0002a0 e9 63 1b bd e2 fe 28 bd 62 76 11 bd 16 9a 35 bc
       -0.03793708 -0.0412587 -0.03551329 -0.0110841
0002b0 0a 85 4f bc d4 02 7e bc 98 49 13 bd 9e c6 19 bd
       -0.012665996 -0.015503604 -0.035958856 -0.03754293
0002c0 39 af 8c bc 06 6c 22 bd 21 3d 9a bb 60 79 c8 bc
       -0.017173396 -0.0396538 -0.004706994 -0.024471939
0002d0 dd c8 67 bc df 05 80 bc 78 3f 3e ba b0 20 d5 bc
       -0.014147011 -0.0156278 -0.00072573824 -0.026016563
0002e0 97 39 d0 3c 4d de 23 bd a8 60 a5 3c 07 58 22 bc
       0.025418086 -0.040006924 0.02018769 -0.009908683
0002f0 94 3d 0f 3c 38 37 08 3d 32 f6 29 3d 26 27 d7 bc
       0.008742709 0.033255786 0.041494556 -0.026263785
000300 cf 77 f2 ba 34 b7 56 bb 6f 6d 93 3c a1 dd bc bc
       -0.001849884 -0.0032763006 0.017996518 -0.0230549
000310 16 10 28 3c f8 5b 8b 3c ed 46 15 3b 1a 86 1c 3c
       0.010257741 0.017011628 0.002277787 0.009553457
000320 4a 15 51 bb 19 13 5b bd 94 1f bc 3c 9c 52 3d 3c
       -0.0031903558 -0.05348501 0.022964276 0.01155534
000330 f0 37 2a 3b 3d ec e5 3c 2c 0d 88 3c fd 07 4c bc
       0.0025973283 0.028066749 0.016607843 -0.012453076
000340 7a cb da 3c 1b 01 b5 3c 6b 2d bc bc eb d4 42 3c
       0.026708353 0.022095254 -0.022970876 0.011891584
000350 90 89 2d bb e9 3a 15 bd 81 f0 ad bc c2 d8 c5 3c
       -0.0026479699 -0.036433134 -0.021232845 0.02415121
000360 e9 fa ce 3c e4 03 bb 3c 24 8f 8d 3b 16 8a bc 3c
       0.025266128 0.022829004 0.004320042 0.023015063
000370 10 b2 90 3c 5f 89 b1 3c f5 70 9c bc 2c e3 b8 3c
       0.017663032 0.021671949 -0.01909683 0.022569261
000380 4b 0a 83 bc ed 79 a3 bc 6f 9d d5 bc 02 d7 6a bc
       -0.015996119 -0.0199556 -0.026076047 -0.014333488
000390 3f c9 ff 3c 51 51 cc 3b aa 36 9a 3c 82 87 4f 3c
       0.031223891 0.0062352796 0.018824894 0.012666585
0003a0 ce ee a1 bc 88 c2 e5 3c f3 73 40 3c 2c 6d e1 bc
       -0.019767191 0.028046861 0.011746394 -0.027517878
0003b0 55 bd 0a bd f4 20 9e bb c9 7c f4 3b 0b f7 fd bb
       -0.033871967 -0.0048257057 0.0074611646 -0.007750397
0003c0 0e 42 cf bc e9 be 6a bc 5c 25 45 bd 67 08 cf bc
       -0.025300052 -0.014327743 -0.04813133 -0.025272561
0003d0 b8 84 f3 3b ce e8 71 bc 01 ed b9 3b ba 80 85 39
       0.007431593 -0.014764978 0.005674005 0.00025463646
0003e0 ef 48 6e 3c b9 03 4b bd 51 85 1d bd ef 58 3f bd
       0.014543756 -0.049564097 -0.03845722 -0.046715673
0003f0 e6 7a 03 3d 23 fc 27 3c 6b c0 ca bc d5 04 af bb
       0.032099627 0.010252985 -0.024749955 -0.005341152

global_pool.0.bias f4 [64]
000000 e7 ae 8c bb 23 79 b4 bc 4a 02 30 3c de df 37 bd
       -0.004293311 -0.022030419 0.010742733 -0.04489123
000010 52 a2 19 3c 30 90 bd bc 55 ad 41 bc 34 f1 09 bd
       0.009377079 -0.023140043 -0.011821111 -0.033677295
000020 ed 25 20 3b d6 26 34 bd 5f 6f d2 3c 62 28 cd bc
       0.0024436668 -0.04398235 0.025687872 -0.02504367
000030 0a 62 a7 3c 73 6b 88 3b 9b 1b 26 3d fb 30 dd bc
       0.02043249 0.0041631996 0.04055367 -0.027000895
000040 46 c7 be b9 02 8b 77 bc ea 05 cb 3c 83 f7 64 3c
       -0.00036388094 -0.015108826 0.024783093 0.013975027
000050 f7 f2 13 bd e2 fb 25 bd fc 52 21 bd 60 17 c3 3c
       -0.03612038 -0.040523417 -0.03938578 0.023814857
000060 59 e2 ac bb 16 67 12 3d 38 23 26 bd 67 66 b1 3c
       -0.005276006 0.03574284 -0.04056093 0.021655275
000070 ae b7 19 3d fe c1 fb 3c 06 9d aa 3c 31 79 5e bc
       0.037528686 0.030732151 0.020826828 -0.013578699
000080 c9 0e 57 bc d9 83 eb 3c 3a 79 4c 3c fc 9f 44 bc
       -0.013126084 0.028749393 0.012480075 -0.012001034
000090 38 16 7a ba 7d 42 a2 3b ae 80 23 3d 97 9e 91 3b
       -0.0009540054 0.0049517737 0.03991764 0.004443954
0000a0 8f 9a ca 3b fd d7 47 3d d7 0d a1 3c c7 92 81 bc
       0.0061829756 0.048789967 0.01965992 -0.01581706
0000b0 d7 41 8c 3c 09 5b 5c bc c4 69 91 3c 00 5d 38 bc
       0.017121239 -0.013449439 0.017750628 -0.011252642
0000c0 09 38 3d 3d d3 f6 8c bc bd 65 d8 bb d7 30 e6 bc
       0.046196017 -0.017207539 -0.006603925 -0.02809946
0000d0 9c 64 33 3c fc 96 15 3d 24 ea 27 3d 63 73 2d 3c
       0.01094928 0.036520943 0.04099478 0.010586592
0000e0 18 b7 16 bd f1 c0 30 3b 20 cb 32 3b 74 6f 94 bc
       -0.036795706 0.002697047 0.0027281716 -0.018119551
0000f0 ab 20 8c bb e6 e2 36 bd 05 68 2a 3b 2f 33 8e 3b
       -0.0042763553 -0.04464998 0.0026001942 0.0043395977

head.1.weight f4 [64]
000000 6e 76 7e 3f b5 93 7e 3f 6c 76 7e 3f 00 00 80 3f
       0.9939946 0.99444133 0.9939945 1.0
000010 9b 1c 7f 3f 54 7c 7c 3f 95 4c 7e 3f 00 00 80 3f
       0.99653023 0.9862721 0.99335605 1.0
000020 ab d2 78 3f 00 00 80 3f c6 4b 7e 3f 1a 28 71 3f
       0.97196454 1.0 0.9933437 0.94201815
000030 00 00 80 3f 00 00 80 3f 07 ac 82 3f 6d 76 7e 3f
       1.0 1.0 1.0208749 0.99399453
000040 2e b5 7f 3f 6c 76 7e 3f 00 00 80 3f b0 6b 80 3f
       0.99885833 0.9939945 1.0 1.0032864
000050 00 00 80 3f 00 00 80 3f 3a 43 80 3f 69 b5 81 3f
       1.0 1.0 1.0020516 1.0133487
000060 b5 93 7e 3f bf ae 76 3f b9 93 7e 3f 6c 76 7e 3f
       0.99444133 0.9636039 0.99444157 0.9939945
000070 50 5c 7f 3f e1 63 75 3f 9d e3 7f 3f 00 00 80 3f
       0.9975023 0.9585553 0.99956685 1.0
000080 e8 93 7d 3f 19 1c 80 3f 6d 76 7e 3f 73 9b 81 3f
       0.9905381 1.0008575 0.99399453 1.0125564
000090 2d 77 7e 3f b8 93 7e 3f a7 ac 7f 3f 00 00 80 3f
       0.994006 0.9944415 0.9987282 1.0
0000a0 14 75 7e 3f 62 b6 80 3f a4 25 7a 3f b5 1a 80 3f
       0.993974 1.0055659 0.97713685 1.000815
0000b0 a1 dd 7d 3f 63 2e 81 3f ea ad 7e 3f bf 0d 81 3f
       0.99166304 1.0092281 0.9948412 1.008232
0000c0 7d dc 7f 3f 6c 76 7e 3f 4b 70 7e 3f 6c 76 7e 3f
       0.99945813 0.9939945 0.99390095 0.9939945
0000d0 0e c2 80 3f 20 6f 79 3f ac 38 80 3f 00 00 80 3f
       1.0059221 0.9743519 1.0017295 1.0
0000e0 40 66 78 3f f4 c9 76 3f c8 93 7e 3f 90 4e 7a 3f
       0.9703102 0.96401906 0.99444246 0.97776127
0000f0 af 76 7e 3f 0f 46 77 3f 81 a0 7e 3f 6c 76 7e 3f
       0.99399847 0.96591276 0.9946366 0.9939945

head.1.bias f4 [64]
000000 94 c9 c4 bb 40 27 b6 bb c7 c9 c4 bb 00 00 00 00
       -0.0060054753 -0.005558878 -0.006005499 0.0
000010 53 ba 71 3b 06 0c 80 3a cf fb 4b bd 00 00 00 00
       0.003688474 0.0009769208 -0.04980069 0.0
000020 aa 83 fb bc 00 00 00 00 13 8b fb bb 56 86 80 bd
       -0.03070243 0.0 -0.007676491 -0.062756225
000030 00 00 00 00 00 00 00 00 25 8d 24 bd c9 c9 c4 bb
       0.0 0.0 -0.04017367 -0.0060055
000040 1e d3 2f 3c c9 c9 c4 bb 00 00 00 00 3a 4d 41 3b
       0.010731487 -0.0060055 0.0 0.0029495494
000050 00 00 00 00 00 00 00 00 da 85 e3 ba 4d 15 11 3c
       0.0 0.0 -0.0017358616 0.008855176
000060 3b 27 b6 bb 09 ab fa bc 7c 26 b6 bb c9 c9 c4 bb
       -0.005558876 -0.030599134 -0.005558787 -0.0060055
000070 a2 74 93 ba 43 92 97 bc 54 de 92 3b 00 00 00 00
       -0.0011249969 -0.01850236 0.00448207 0.0
000080 dc c6 2e bc 00 ff c3 bb c3 c9 c4 bb 95 95 32 3c
       -0.010667529 -0.005981326 -0.006005497 0.010899921
000090 4c c9 c4 bb 1b 27 b6 bb 2c f8 bf 3b 00 00 00 00
       -0.006005442 -0.005558861 0.005858442 0.0
0000a0 a1 97 f2 bb ef 3a fb 3b 94 d3 5c bc 34 a2 ed bb
       -0.0074033295 0.0076669375 -0.0134781785 -0.007252002
0000b0 d0 03 0a bc d2 7a 19 3c f2 97 80 3b d2 2c e5 3b
       -0.0084237605 0.009367662 0.0039243633 0.0069938684
0000c0 2d bb 05 bd c9 c9 c4 bb 3f e4 c7 bb c7 c9 c4 bb
       -0.032649208 -0.0060055 -0.006100207 -0.006005499
0000d0 32 13 e8 bb 14 87 ec bc 5d e8 b1 3b 00 00 00 00
       -0.0070823664 -0.028873004 0.005429311 0.0
0000e0 e9 04 31 bd 56 4c f3 bc 14 27 b6 bb fc a5 ac bc
       -0.043217573 -0.029699486 -0.0055588577 -0.021075241
0000f0 57 c6 c4 bb d5 bb 9f bc 0d 9e 8b 3b ca c9 c4 bb
       -0.0060050893 -0.019498745 0.0042607845 -0.0060055004

head.3.weight f4 [64, 64]
000000 1a 6b 1d 3d 8d 2a 96 bd d7 08 b3 bb d0 f6 f2 bc
       0.038432218 -0.07332335 -0.0054637003 -0.029658705
000010 b5 f6 87 bd 8a ce 27 bd e4 08 fd bd 64 27 bc 3d
       -0.066388525 -0.040968455 -0.123552114 0.09187201
000020 d2 ef da bd 1c 12 6e 3d 35 f1 54 bd 15 c1 20 3e
       -0.10690273 0.05812274 -0.051987845 0.15698655
000030 ac c0 3f bd a2 b1 b0 3d 9a 18 06 bd e1 dd 1f bd
       -0.046814606 0.08627631 -0.032738306 -0.03902996
000040 9a 96 aa bd e2 0d b3 bc 88 56 63 bd cd a1 f8 bd
       -0.08329506 -0.021857206 -0.055502445 -0.12140236
000050 10 54 8f bd 0c 5e 63 bd ed df a3 3d 46 a2 68 bd
       -0.069984555 -0.055509612 0.08001695 -0.05679538
000060 31 27 bf 3d 6c 75 06 3b 8a 6f 4e bd 9d 41 dd 3c
       0.09333647 0.0020516766 -0.05039934 0.027008826
000070 db 5e ff bc d0 a4 b1 bd 2b 55 ab 3d 9c ae 18 3d
       -0.03117316 -0.086740136 0.08365854 0.037275895
000080 9b 77 c8 bc db 67 7d bc 42 0d cc 3d 25 5b da 3d
       -0.024471095 -0.015466656 0.09963466 0.10661916
000090 e2 dd a4 3d b0 56 b2 bc 91 a0 86 3d 64 a6 20 3d
       0.08050133 -0.021769851 0.06573594 0.039221182
0000a0 c9 8e b9 bc 28 87 f8 bd bc 14 78 bd da c1 9c 3d
       -0.022651093 -0.12135154 -0.06056665 0.07654162
0000b0 be 50 b5 3d 8d 4c 83 3d 98 7a b8 bd 1a af 16 bd
       0.08853291 0.06411085 -0.09007758 -0.036788084
0000c0 0a 04 22 3d 02 5e 7a 3d 05 6d 88 bd 6a 54 20 3d
       0.039554633 0.06112481 -0.06661419 0.039143004
0000d0 38 7f e2 3d 1f 71 4a bc b5 06 ea bd a8 62 d8 bc
       0.11059421 -0.012356072 -0.114270605 -0.02641423
0000e0 e6 83 b4 3d 52 bf 29 bd 54 94 53 bb 3b 31 8b 3d
       0.0881422 -0.041442223 -0.0032284455 0.06796499
0000f0 e5 8e 01 be 1f 6e 87 bd 3e 2a 22 3d e9 0b b5 3d
       -0.12652166 -0.06612801 0.039591067 0.08840162
000100 15 ac ab bb 8e d1 60 bc 8b 0f d2 bc ce 82 d2 bd
       -0.0052390196 -0.013721837 -0.025642177 -0.10278855
000110 4b 18 b8 3d 5c b7 60 bd d5 f1 b9 bc e4 26 b8 bd
       0.089890085 -0.054862365 -0.022698322 -0.08991793
000120 96 e0 d0 3d ec ef 55 bd be 39 ae bd df 17 e9 bd
       0.10199086 -0.05223076 -0.08507107 -0.11381506
000130 18 aa 29 bd 80 82 6b bb 64 d9 b9 3d 98 17 ca 3d
       -0.04142198 -0.0035935938 0.09074667 0.098677814
000140 f0 ae e3 bd b5 fb bb 3d 38 3c a9 3d 17 e4 5e 3d
       -0.11117351 0.09178869 0.08263439 0.054416742
000150 38 01 5c bd e8 12 24 bd f0 d3 a0 3d 67 6d e6 bd
       -0.0537121 -0.040057093 0.07852924 -0.112513356
000160 12 2c c7 3d e5 14 a7 bd 8f 9f ba 3d df d3 d1 3d
       0.097252026 -0.08158282 0.09112465 0.10245489
000170 09 77 2b 3d 40 f2 46 3d 2d 88 e9 bd 84 b6 94 3d
       0.041861568 0.04857087 -0.114029266 0.072613746
000180 a2 d0 82 bd 9b 12 9b 3d cb 06 9c 3d 3e 0c de 3c
       -0.0638745 0.07571908 0.07618483 0.027105447
000190 a5 9e 70 bd 80 dd 34 bd 9d 02 04 3c ec 92 bf 3d
       -0.058745045 -0.04415655 0.008057264 0.09354195
0001a0 53 6d 3d 3c 5d e4 c1 3d b7 36 99 3c 77 bd d3 3d
       0.011561709 0.09467385 0.018702848 0.10338872
0001b0 6d 73 2d 3d 31 18 01 3d 41 1d d5 bd 6c 1d 55 bd
       0.042346407 0.03151721 -0.1040597 -0.052030012
0001c0 3c d4 54 3d e1 0b ad bd 06 ba 43 3d 45 48 68 bc
       0.051960215 -0.08449531 0.047784828 -0.014177387
0001d0 2e a2 9a 3d 3b 6f e1 bd 79 05 19 bc f0 3d ec 3c
       0.075504646 -0.11007544 -0.009339684 0.028838128
0001e0 f0 f1 61 bd d9 55 c1 bd 17 ce 01 3e a0 48 cb 3b
       -0.05516237 -0.09440202 0.12676273 0.006203726
0001f0 03 a6 50 bd 00 1d 08 bc b7 39 e3 bd 2f fe 9f 3b
       -0.05093957 -0.008307695 -0.110949926 0.004882596
000200 14 ab ae 3d 66 9c 39 3d 0d 75 bd bd a0 cd 9f bb
       0.08528724 0.04531517 -0.09250841 -0.0048768073
000210 d3 41 de 3d 97 17 ad bd a6 77 c3 bd b4 8d e6 3d
       0.10852399 -0.08451765 -0.095443055 0.112574965
000220 5f 74 be bd 0e 85 ce 3d 94 97 25 3c 96 15 b6 3d
       -0.0929954 0.10083972 0.01010694 0.08890836
000230 00 18 f2 bb 5e 2d 92 bd 55 c8 79 3d 97 c5 a8 3d
       -0.007388115 -0.07137559 0.060982067 0.08240812
000240 c5 0f 58 3d 84 96 8f bd 92 b3 fe bd 5b 52 83 bd
       0.052749414 -0.070111305 -0.12436594 -0.064121924
000250 b0 b7 bc bd 42 64 a9 bd 0f fb ef 3d e0 f8 d2 bd
       -0.09214723 -0.08271076 0.117178075 -0.103013754
000260 75 29 37 3d 2b 95 ae bd 72 b9 9c bc fa ef 41 3d
       0.04471727 -0.08524545 -0.019131396 0.047348
000270 4a 12 1c bd 9c 71 cc 3d 8a 5d 2e 3c fc f2 fa 3d
       -0.03810338 0.09982607 0.010642419 0.12253377
000280 40 fc 3c 3c 3a a1 ef bc 02 dd bf 3b 40 c4 ba 3d
       0.01153475 -0.029251684 0.0058552036 0.09119463
000290 09 d5 d0 3c 73 25 da 3c b8 c0 7f bd a0 62 d4 3c
       0.025492208 0.026629185 -0.06243965 0.025925934
0002a0 ca 23 86 3d 73 db 1d bd c1 a2 1d bc c2 dc 02 bc
       0.06549795 -0.03853936 -0.009621323 -0.007987203
0002b0 15 ce 64 3c fd 57 bc 3d 85 23 7c bd 66 d7 bf 3d
       0.013965149 0.0919647 -0.06155731 0.09367256
0002c0 dc d0 74 3d ef fc 99 3d 29 93 45 3c 6f 9a e4 3d
       0.059769496 0.075189464 0.0120590115 0.11162268
0002d0 ed e5 61 3c 77 3c c1 3d 1b ae be 3d 60 c5 d9 bd
       0.013787729 0.09435361 0.09310552 -0.106333494
0002e0 f5 47 92 bd f4 4c 82 3c 32 d1 81 bb 9f a4 57 3b
       -0.07142631 0.015905835 -0.0039617056 0.0032904518
0002f0 bd 9f 80 bd ae d5 1f 3d e4 c2 10 3c ad 1b dd bc
       -0.06280468 0.03902214 0.008835528 -0.026990736
000300 f6 76 8d 3d 8c 67 1f 3d 09 e4 b0 bd 52 25 a2 bd
       0.069074556 0.03891711 -0.08637244 -0.079172745
000310 8f bf e5 3d 18 19 79 3d 6a c5 8d bd 40 87 13 bd
       0.112181775 0.060814947 -0.06922419 -0.036017656
000320 73 a1 b4 3c c4 7c 0a bd f9 32 dc 3d db 43 65 3d
       0.022049641 -0.033810392 0.1075191 0.055972915
000330 16 0d b5 3d 26 7c ba 3d 21 51 36 bd 4a bd 69 bc
       0.088403866 0.09105711 -0.044510964 -0.014266321
000340 61 ac ae 3c 89 70 e8 3d 24 2e 21 3d c6 a7 73 3d
       0.021322431 0.113495894 0.039350644 0.059486173
000350 54 5c 2c bd 02 ec ba bd 3d c2 94 3c 2a ad bd bb
       -0.04208024 -0.09127046 0.018159026 -0.005788465
000360 e5 22 9a bd dd 20 8c bc 24 56 a7 3d fa 7e d1 3d
       -0.07526187 -0.017105514 0.08170727 0.10229297
000370 6a 36 58 3d d6 7c 8d bd 5e 6e 5b bd 8c e3 71 bd
       0.05278627 -0.06908576 -0.05357205 -0.059054896
000380 dc 41 66 3c 35 d8 c8 bd fd e3 f2 3d 45 6b 7b bd
       0.014053788 -0.09806863 0.118598916 -0.061381597
000390 f2 8b 5a bc 48 d7 c3 bc 3c 12 e3 3d 76 94 e0 bd
       -0.01333903 -0.023906365 0.11087462 -0.10965817
0003a0 6b 86 71 3c 98 31 ee 3d c2 d0 11 3e a4 c6 4d bd
       0.01474152 0.11630553 0.14239791 -0.050238267
0003b0 95 92 10 3c 08 e3 60 3d 97 1a df bd e4 09 7c 3d
       0.00882401 0.054904014 -0.108937435 0.06153287
0003c0 ae 82 21 bd e5 f9 54 bd ec 85 b2 3d bb 3f d2 bd
       -0.039431266 -0.05199613 0.0871695 -0.10266062
0003d0 43 7c d0 bd 9c 29 9d 3d de 0e 86 bd 5c 8a a1 bd
       -0.10179951 0.07673952 -0.065458044 -0.07887718
0003e0 0f b7 86 bd 29 f8 df 3b 42 d6 f2 3d 44 14 fb bd
       -0.065778844 0.006835003 0.11857273 -0.12259725
0003f0 61 39 d8 3d 99 8d 80 3d 42 28 7f 3d 7f 89 97 3d
       0.10557819 0.062770076 0.062294252 0.07399272
