outputs/exp_v1/checkpoints/epoch_60.pth (torch, 651919 bytes, 13 tensors)

base.0.weight f4 [64, 3, 7, 7]
-0.01878141 0.06069635 -0.036889866 0.006586752 -0.0019471647 -0.06404686 0.0066432874 0.06737259
0.014520524 0.05390972 -0.060006488 -0.06919631 0.07025688 0.072230525 0.025955662 0.07981478
-0.036007814 -0.065250196 0.025788326 0.0116282 0.031163057 0.05105267 -0.04573447 -0.027804133
-0.048272703 -0.07926311 -0.022429178 0.077712685 -0.06791343 0.04743398 -0.045090076 -0.06288347
0.0036520872 0.049622167 0.0034509508 0.02009744 -0.07297301 0.05953695 -0.060073715 0.03274986
0.07809743 0.008036886 -0.08173615 -0.07692383 0.028335404 -0.06632419 -0.05497358 -0.03145837
0.016977984 0.024024451 -0.047838118 -0.017255168 0.05323861 -0.06804993 -0.0015317957 -0.050950848
-0.014764414 0.011935986 0.055622302 -0.08625725 0.01974122 0.034758553 0.068068646 0.031322554
0.044764385 -0.07544678 -0.031039651 0.012048818 -0.06931926 -0.043223076 0.03377825 -0.03805871
0.0090005975 0.03097556 0.074157104 0.07396357 0.015072191 -0.06567188 -0.041477006 0.06271785
0.064358 0.030507915 -0.06877217 0.004838245 -0.004288148 -0.018999392 -0.03597136 0.024261875
0.06683289 -0.043090153 0.040660474 -0.062260758 0.028673537 -0.08595762 0.023476819 0.025373137
-0.07095051 0.020836648 0.0139640905 -0.0746381 -0.050831378 0.007279662 -0.012972266 0.0016126224
0.047503747 0.052364625 -0.058964502 0.039076276 0.025721563 -0.025353784 0.022786187 -0.03021885
-0.009946995 0.06695245 -0.012706615 -0.018638274 -0.080477744 -0.0069229035 -0.08187786 0.0073272516
-0.018736647 -0.03741436 -0.010272754 0.035431523 0.034925032 -0.0059985653 -0.08186025 0.027244305
-0.0033203394 -0.005904702 -0.020919457 -0.056121144 -0.05061422 -0.015538641 0.04004989 0.046161328
0.07178703 -0.00071381015 -0.0008022048 -0.036225177 -0.031420007 0.07812266 0.0096970415 -0.082513995
0.024687374 0.057116132 -0.03728697 0.048143107 -0.053682957 0.006342116 -0.06050034 -0.074939884
0.01092873 0.0061082267 -0.050321728 0.026582519 0.000649514 0.05654813 -0.020680597 -0.006122533
0.031456918 -0.035755854 -0.058973096 0.013258364 -0.062131196 -0.021846076 0.027263384 0.06354249
-0.018260587 0.040906277 0.013586931 -0.062997304 0.04387715 -0.07906015 -0.09085492 -0.08360761
-0.06805906 0.052846164 -0.015603176 -0.08224114 -0.005600805 0.03556591 0.05796691 0.07084704
-0.059159994 -0.07075209 0.022115001 -0.053121347 -0.02588129 0.005156959 0.066437304 0.043106753
0.024278633 -0.05776826 -0.0374505 -0.0883289 0.001161013 0.09089039 0.024654983 0.01320402
0.06921451 -0.0019159734 -0.0061272 0.09001639 -0.056199633 0.012301209 -0.030651549 0.058342416
0.08568839 0.040395014 -0.034935568 0.04042604 0.025832755 0.06976984 0.06935487 0.008096864
-0.03919102 0.09784426 0.048022017 0.07766623 -0.053633697 -0.042270385 -0.025377834 0.085142106
-0.06441807 -0.0059747803 0.018893298 0.061678275 0.016147966 0.033410296 0.004615483 0.05353231
0.027790861 -0.052340686 -0.00094478216 0.05341617 0.012196507 0.01681023 0.09270156 0.06418099
0.091722645 0.007477802 0.06397782 0.07492547 -0.050591588 -0.067476414 -0.06203512 -0.04289639
0.06581162 -0.0758876 0.075238176 0.064229384 -0.0042050253 -0.076207496 0.06342093 -0.0019788356
00000000: 79db 99bc bc9c 783d d419 17bd aed5 d73b
00000010: 0138 ffba 002b 83bd efaf d93b a4fa 893d
00000020: 7ee7 6d3c 70d0 5c3d 5dc9 75bd ccb6 8dbd
00000030: d7e2 8f3d 99ed 933d f8a0 d43c ee75 a33d
00000040: ee7c 13bd e5a1 85bd 0a42 d33c 3584 3e3c
00000050: ab49 ff3c 9b1c 513d 1154 3bbd 7ec5 e3bc
00000060: 99b9 45bd b354 a2bd 65bd b7bc d427 9f3d
00000070: 3216 8bbd 224a 423d 5fb0 38bd 0cc9 80bd
00000080: db57 6f3b 9d40 4b3d 5929 623b 63a3 a43c
00000090: e072 95bd 04dd 733d db0f 76bd b824 063d
000000a0: 8cf1 9f3d 25ad 033c 4865 a7bd 3e8a 9dbd
000000b0: a61f e83c fad4 87bd fa2b 61bd 7eda 00bd
000000c0: 6a15 8b3c edce c43c e7f1 43bd b65a 8dbc
000000d0: bb10 5a3d c35d 8bbd 89c6 c8ba d6b1 50bd
000000e0: 71e6 71bc 278f 433c 36d4 633d a4a7 b0bd
000000f0: 57b8 a13c fc5e 0e3d 9367 8b3d 144c 003d
00000100: dc5a 373d d783 9abd de46 febc 6868 453c
00000110: 42f7 8dbd ae0a 31bd 105b 0a3d 73e3 1bbd
00000120: 3e77 133c 75c0 fd3c aedf 973d 367a 973d
00000130: 5af1 763c fb7e 86bd cbe3 29bd 3772 803d
00000140: 21ce 833d bceb f93c 6cd8 8cbd 248a 9e3b
00000150: 9883 8cbb 9da4 9bbc b456 13bd d7c0 c63c
00000160: afdf 883d 4d7f 30bd 998b 263d 2305 7fbd
00000170: c4e4 ea3c 8c0a b0bd 7552 c03c 53db cf3c
00000180: 804e 91bd 9eb1 aa3c a4c9 643c dcdb 98bd
00000190: 9034 50bd 3b8a ee3b a189 54bc a15e d33a
000001a0: 4a93 423d 4a7c 563d c384 71bd 720e 203d
000001b0: 07b6 d23c bdb2 cfbc 19aa ba3c 868d f7bc
000001c0: b9f8 22bc 5e1e 893d 682f 50bc 4baf 98bc
000001d0: 84d1 a4bd 86d9 e2bb 94af a7bd 7119 f03b
000001e0: 997d 99bc cd3f 19bd 0e4f 28bc a520 113d
000001f0: 8d0d 0f3d 9d8f c4bb 59a6 a7bd 732f df3c
00000200: 0d9a 59bb 3b7c c1bb 485f abbc 49df 65bd
00000210: db50 4fbd c995 7ebc 5a0b 243d a913 3d3d
00000220: 1405 933d fd1e 3bba 0e4b 52ba da60 14bd
00000230: 44b2 00bd c6fe 9f3d 57e0 1e3c 19fd a8bd
00000240: 2d3d ca3c 9bf2 693d 39ba 18bd b531 453d
00000250: a9e2 5bbd 86d1 cf3b 34cf 77bd 157a 99bd
00000260: 6a0e 333c 8527 c83b 281e 4ebd 95c3 d93c
00000270: 2644 2a3a 039f 673d 5b6a a9bc 889f c8bb
00000280: f8d8 003d bb74 12bd c68d 71bd 9c39 593c
00000290: 487d 7ebd 8bf6 b2bc 7657 df3c 9122 823d
000002a0: 3a97 95bc 578d 273d b89b 5e3c bb04 81bd
000002b0: 87b8 333d 4aea a1bd 2512 babd 773a abbd
000002c0: 8c62 8bbd 3875 583d 77a4 7fbc 0b6e a8bd
000002d0: f586 b7bb 8fad 113d b66e 6d3d 4118 913d
000002e0: c051 72bd 79e6 90bd 852a b53c c595 59bd
000002f0: 0005 d4bc b5fb a83b 4810 883d b590 303d
00000300: fce3 c63c 699e 6cbd b265 19bd c8e5 b4bd
00000310: 222d 983a be24 ba3d 3ff9 c93c ad55 583c
00000320: 56c0 8d3d 6621 fbba aec6 c8bb 835a b83d
00000330: 9631 66bd 038b 493c f518 fbbc 75f8 6e3d
00000340: 657d af3d 3e75 253d 9918 0fbd c695 253d
00000350: 379f d33c 7de3 8e3d ed09 8e3d b6a8 043c
00000360: c386 20bd 9262 c83d bcb2 443d 790f 9f3d
00000370: 02af 5bbd b623 2dbd 2de5 cfbc fc5e ae3d
00000380: 9fed 83bd 17c8 c3bb 1ec6 9a3c 5ca2 7c3d
00000390: bd48 843c 3cd9 083d 7a3d 973b b244 5b3d
000003a0: a9a9 e33c 3063 56bd 42ab 77ba eaca 5a3d
000003b0: dcd3 473c 9cb5 893c 51da bd3d 5371 833d
000003c0: 15d9 bb3d 5a08 f53b ce06 833d 8672 993d
000003d0: 2039 4fbd 1331 8abd 8a18 7ebd 20b4 2fbd
000003e0: 3ec8 863d f56a 9bbd 7916 9a3d b28a 833d
000003f0: 4fca 89bb ad12 9cbd d5e2 813d 5aaf 01bb

base.0.bias f4 [64]
-0.00576681 -0.028782997 0.011563114 -0.075287126 -0.009828217 0.02421693 -0.020269515 0.015349139
-0.08271955 -0.019025732 -0.029568633 -0.0010904168 -0.004322464 -0.052728504 -0.008296039 0.043217625
0.06357792 0.0016793839 0.040896114 0.05197445 -0.019810935 -0.07870892 -0.0072647426 -0.03978988
-0.08552892 0.056406613 -0.035745386 0.042782173 0.0071754055 0.03329914 0.023836982 0.06606852
0.014222139 0.0327747 -0.07178605 0.018988745 -0.06644165 -0.0047735027 0.024754468 -0.03614969
0.055522922 -0.050754417 0.07381114 0.082719736 -0.0009597261 -0.048364412 -0.08248467 -0.075263135
-0.029624231 -0.042577136 -0.090010785 -0.02176921 -0.008213528 -0.052126512 0.0022156227 -0.0531281
0.026036358 -0.014487962 0.058050025 -0.07462096 0.019073354 0.047103964 0.038832724 0.05883388
00000000: 82f7 bcbb 52ca ebbc 3773 3d3c 2330 9abd
00000010: 8806 21bc 9562 c63c 410c a6bc f57a 7b3c
00000020: de68 a9bd dadb 9bbc eb39 f2bc 51ec 8eba
00000030: 75a3 8dbb d8f9 57bd 1cec 07bc f704 313d
00000040: 2435 823d c61e dc3a af82 273d 29e3 543d
00000050: 8b4a a2bc 2432 a1bd 140d eebb b7fa 22bd
00000060: c929 afbd 9f0a 673d c169 12bd 5c3c 2f3d
00000070: aa1f eb3b ae64 083d c645 c33c ef4e 873d
00000080: f903 693c c43e 063d 9104 93bd 498e 9b3c
00000090: 8f12 88bd 0b6b 9cbb e2c9 ca3c b311 14bd
000000a0: 016c 633d dde3 4fbd 4c2a 973d f768 a93d
000000b0: 2196 7bba c319 46bd b9ed a8bd 8f23 9abd
000000c0: 84ae f2bc 5d65 2ebd 9357 b8bd 5855 b2bc
000000d0: 0992 06bc 9c82 55bd fb33 113b da9c 59bd
000000e0: 334a d53c eb5e 6dbc ddc5 6d3d e0d2 98bd
000000f0: b93f 9c3c 16f0 403d 100f 1f3d cbfb 703d

res_blocks.0.conv.weight f4 [64, 64, 3, 3]
-0.023677697 0.0016958265 -0.020303344 -0.013358824 -0.026992718 0.0007921809 0.024280753 -0.014782771
0.043728035 -0.047962874 0.008284328 -0.00051967986 -0.026681203 -0.033566274 0.027676923 -0.023803677
0.00421079 0.03033832 -0.022668798 0.02819023 0.04714066 0.036548547 0.028273016 0.036475196
0.012530792 0.013961498 0.0104251625 0.043707486 0.0027821735 0.03289408 0.03589738 0.00022059689
0.0016258401 0.022484738 -0.0138732465 0.040796533 0.014605989 -0.014503895 -0.03861063 -0.031242177
-0.013877499 0.029607616 0.04364902 0.036726784 0.001222724 -0.0045088995 -0.007984554 -0.027825596
-0.028887048 0.048736908 0.032366037 -0.01781072 0.002853689 0.005961784 -0.030994266 0.009464069
-0.028083483 0.010004676 0.034509074 -0.0013929624 0.010201618 0.005453376 -0.01237244 0.02417028
0.007832763 -0.013507523 0.018188164 -0.017899295 -0.0027837937 0.029689355 0.022054175 0.021359041
0.007572143 0.04578648 0.00871538 0.034990415 0.01816309 -0.009727576 0.040567894 -0.0026043225
0.014895512 0.016800983 -0.00066234416 -0.00628399 -0.028994408 0.006801391 -0.009091842 -0.013982256
0.04154241 0.030619832 -0.026236 -0.05140486 -0.032456953 -0.0017404463 -0.008778112 -0.026551818
0.011824885 -0.021117736 -0.022023961 -0.028038075 -0.002167842 0.016440684 -0.0213331 0.019148396
-0.03572066 0.01688695 -0.030515376 -0.015148392 -0.03246392 0.038793687 0.02874915 0.03970808
0.0020914767 -0.015780399 -0.033868793 0.0050472626 -0.023973549 0.009298297 -0.008763816 0.041998364
-0.023561077 -0.031096675 -0.025669236 -0.030322988 0.012813347 -0.036928315 0.02889061 -0.019580226
-0.024435265 0.027876018 -0.024001315 0.014902574 0.034900278 0.013667871 0.037171092 -0.0042281807
-0.032018855 0.026250431 -0.0008390992 8.500011e-05 0.033727247 0.04370614 0.02803266 0.049153943
-0.002147154 0.040934306 0.042493958 -0.006174816 0.008332484 -0.020979924 -0.008053439 0.01691304
-0.032850076 0.014620001 0.03633905 -0.016521404 -0.02449705 -0.0041441945 0.026106993 0.011048407
0.04335042 0.036402628 0.0054112943 -0.01464797 -0.040490173 0.0100014545 0.022950178 -0.026396343
0.020873906 -0.00054761756 0.02518353 0.00790775 0.025395304 -0.034223363 0.015384381 0.03501938
0.029307084 0.026432728 0.017829435 0.022090256 -0.008933593 0.006612303 0.048408136 0.01391982
0.042062312 0.021495963 0.04209541 0.021505158 0.009744069 0.019495564 0.043841228 -0.043829434
0.03264541 -0.0028473479 -0.002514664 -0.015914511 0.006273545 0.029890824 0.05134546 0.039783046
0.042482007 0.05355838 -0.005638994 0.00090327027 0.018617094 0.0076894765 0.028003234 -0.0039604353
0.055182885 -0.016373254 -0.0025672114 -5.142637e-05 0.02897095 -0.013737857 0.049029645 0.0054833503
0.004982897 0.002665444 0.0016359703 0.015788024 -0.040004175 -0.02051608 -0.030719206 0.043003995
-0.017236771 0.018627072 0.035279747 -0.018757181 0.036258187 -0.03161135 0.0046075634 0.018816918
-0.027872171 -0.025522456 0.032418367 0.00761735 0.040357374 0.002586736 0.011796065 0.016116789
0.021292748 0.012508667 0.019625068 -0.0013559407 -0.02118343 0.012748366 0.017732687 -0.0038011475
0.01184394 0.04077571 0.045564275 0.013867282 -0.030138621 0.023525504 0.01475579 0.0066037774
00000000: bbf7 c1bc 7f46 de3a 3353 a6bc f8de 5abc
00000010: d51f ddbc 5caa 4f3a 6ee8 c63c 6f33 72bc
00000020: 2b1c 333d b874 44bd fdba 073c 203b 08ba
00000030: 8a92 dabc ca7c 09bd b7ba e23c eeff c2bc
00000040: abfa 893b 1288 f83c eab3 b9bc 32ef e63c
00000050: 9116 413d eeb3 153d d09c e73c 0467 153d
00000060: f34d 4d3c c4be 643c 4dce 2a3c 9f06 333d
00000070: 2055 363b f1bb 063d 2209 133d 0750 6739
00000080: 241a d53a ea31 b83c 9d4c 63bc 441a 273d
00000090: f54d 6f3c bfa1 6dbc 2e26 1ebd 98ef ffbc
000000a0: 735e 63bc ac8b f23c 51c9 323d d36e 163d
000000b0: cf43 a03a 64bf 93bb a6d1 02bc 81f2 e3bc
000000c0: 88a4 ecbc 5aa0 473d 4092 043d c9e7 91bc
000000d0: f504 3b3b 125b c33b b0e7 fdbc 2f0f 1b3c
000000e0: 550f e6bc a7ea 233c 6359 0d3d 1094 b6ba
000000f0: b024 273c 3cb2 b23b c6b5 4abc c000 c63c
00000100: fd54 003c a84e 5dbc 58ff 943c 8ba1 92bc
00000110: 4f70 36bb 1737 f33c f5aa b43c 28f9 ae3c
00000120: bd1f f83b 9b8a 3b3d f4ca 0e3c 1c52 0f3d
00000130: c3ca 943c 6960 1fbc 852a 263d 48ad 2abb
00000140: 4e0c 743c 37a2 893c 2aa1 2dba eee9 cdbb
00000150: ae85 edbc 34de de3b f3f5 14bc d515 65bc
00000160: 6028 2a3d 71d6 fa3c e1ec d6bc e78d 52bd
00000170: 95f1 04bd b01f e4ba 12d2 0fbc 3383 d9bc
00000180: 2abd 413c 1aff acbc 986b b4bc 1bb0 e5bc
00000190: 5a12 0ebb 9dae 863c c1c2 aebc 19dd 9c3c
000001a0: d44f 12bd 8056 8a3c 62fb f9bc f630 78bc
000001b0: e3f8 04bd 21e6 1e3d 5683 eb3c f1a4 223d
000001c0: 2811 093b e545 81bc 01ba 0abd 8263 a53b
000001d0: 2d64 c4bc e257 183c 1c96 0fbc 7a06 2c3d
000001e0: 2903 c1bc 74be febc 4a48 d2bc ea67 f8bc
000001f0: 13ef 513c 2542 17bd 00ac ec3c b666 a0bc
00000200: 772c c8bc 3f5c e43c 689e c4bc ed29 743c
00000210: 98f3 0e3d 35ef 5f3c b740 183d 8d8c 8abb
00000220: 3426 03bd 250b d73c fef6 5bba 1642 b238
00000230: 9525 0a3d 3605 333d c0a4 e53c a555 493d
00000240: 44b7 0cbb bbaa 273d 250e 2e3d 1c56 cabb
00000250: f984 083c 17de abbc 92f2 03bc 378d 8a3c
00000260: cd8d 06bd bb88 6f3c 41d8 143d e557 87bc
00000270: 0aae c8bc 06cc 87bb 55de d53c 6104 353c
00000280: 3690 313d ec1a 153d 3a51 b13b 0afe 6fbc
00000290: 06d9 25bd 24dd 233c 0302 bc3c 253d d8bc
000002a0: c1ff aa3c fe8d 0fba b14d ce3c 828f 013c
000002b0: d009 d03c cc2d 0cbd c50e 7c3c 7b70 0f3d
000002c0: 6915 f03c 7389 d83c 090f 923c a0f6 b43c
000002d0: 345e 12bc 05ac d83b 9c47 463d f50f 643c
000002e0: 8849 2c3d 4d18 b03c 3d6c 2c3d 962b b03c
000002f0: 96a5 1f3c 29b5 9f3c dc92 333d 7e86 33bd
00000300: 32b7 053d 929a 3abb 10cd 24bb 265f 82bc
00000310: 4f92 cd3b 9add f43c 9e4f 523d 8cf3 223d
00000320: 9d01 2e3d 0860 5b3d 4fc7 b8bb 71c9 6c3a
00000330: e082 983c 01f8 fb3b 0a67 e53c 8ac6 81bb
00000340: 7307 623d 3421 86bc a93e 28bb a5b2 57b8
00000350: 7c54 ed3c c014 61bc 4fd3 483d adad b33b
00000360: 9247 a33b bbae 2e3b 0e6e d63a e355 813c
00000370: 6bdb 23bd 5711 a8bc d8a6 fbbc f524 303d
00000380: 2134 8dbc cd97 983c 7f81 103d a9a8 99bc
00000390: 7783 143d e77a 01bd 0bfb 963b f025 9a3c
000003a0: 2e54 e4bc 7814 d1bc 1fc9 043d f79a f93b
000003b0: c64d 253d 3b86 293b 4844 413c 5b07 843c
000003c0: 216e ae3c 27f1 4c3c c0c4 a03c d2b9 b1ba
000003d0: df88 adbc 86de 503c 2444 913c ac1c 79bb
000003e0: 160d 423c 6e04 273d 9ba1 3a3d 9933 633c
000003f0: 45e5 f6bc 8fb8 c03c 45c2 713c 8064 d83b

res_blocks.1.conv.weight f4 [64, 64, 3, 3]
-0.036327228 -0.039576028 -0.035070367 -0.046238665 0.03369185 -0.012687215 -0.023142487 -0.032100853
-0.017610092 0.032360516 0.021101175 0.04524351 -0.022833096 0.035037525 0.027706524 -0.01469978
-0.030835537 0.0102783255 -0.029554462 0.014133914 -0.005933768 -0.000737761 0.006808367 0.041174218
0.008805994 -0.028540827 0.019646449 -0.0052399617 0.029749956 0.039977185 0.009081225 -0.025477855
-0.0205289 0.039218027 0.019017868 0.022929111 -0.0111561185 0.047098856 0.036811687 0.055789627
-0.025799202 -0.017137183 0.02580453 0.015038443 -0.0037813685 0.007521869 -0.029920919 0.03590452
-0.010708566 0.037128683 -0.015882872 0.00018122472 -0.02259687 0.02817678 -0.01886186 0.04665826
0.014439935 -0.018838448 -0.027226338 0.028686695 0.03637175 0.015385207 0.024004666 -0.024574414
0.012374589 0.03762976 0.0102921715 0.0043609035 0.027160635 -0.0034241676 0.0063347346 -0.012950861
0.003044236 -0.034898017 -0.03848824 -0.026700122 -0.03579057 -0.02659512 0.015796894 0.007206333
0.014260811 0.044216108 -0.019775165 -0.020067142 0.033822566 0.021808103 0.034647703 0.043756012
0.009266276 -0.033075728 -0.019476362 0.0047773197 0.014399509 -0.030287366 -0.030460538 0.012619176
-0.003308705 -0.012039504 -0.023076376 -0.023134848 -0.022155805 0.03383415 -0.0061984435 -0.02236764
-0.007883701 0.041165482 -0.005377606 -0.015879493 0.013346991 -0.008362702 -0.011201244 -0.026407573
-0.0026432974 0.028337458 0.0374328 -0.013708629 0.046616893 0.035405327 -0.021559883 0.046112094
0.03975431 0.00015401175 0.024098514 0.003733305 0.038590867 0.045122243 -0.0021791074 -0.017578457
0.03084133 0.0040714922 0.044149354 -0.0038626455 0.008665726 0.018831484 0.022277826 -0.0051052477
-0.010478549 0.0014856763 0.05109464 0.040806603 -0.02072002 -0.0002663284 0.04574857 0.013182298
0.036486387 0.023598596 0.04491949 -0.020632882 0.019996667 0.031319495 0.047707673 0.005964238
0.020179318 -0.020746607 0.044663638 0.031957697 0.03960772 0.0451869 -0.017041814 0.019299068
-0.007682787 0.039035354 0.03937051 0.034715097 0.013030179 0.042067654 -0.01543839 -0.008749439
0.017328378 0.007221812 0.015893001 0.020085007 0.023815138 0.04829468 0.012458986 -0.0024989897
0.016280478 -0.023948966 0.03096366 0.010219507 0.03471082 0.025073154 0.022211201 0.0125211375
-0.027214848 -0.019514907 -0.029860416 -0.02703945 0.017571101 0.019055655 0.02983381 0.051172767
0.02639411 -0.019623585 -0.023611851 -0.022621673 0.031984232 0.03421927 -0.00860115 -0.013609168
0.048214667 -0.012923683 0.04442205 0.03029637 -0.0055111833 -0.0020362907 0.043998614 -0.03600081
-0.02952819 -0.022713041 0.041759185 0.034964938 0.013988417 0.015155404 -0.017063485 0.016193194
-0.025801042 0.018168317 0.02806769 0.0059168646 0.019065743 -0.009650839 0.04492857 0.013754018
0.05269781 0.019747766 0.017510828 -0.023817029 0.030380998 -0.009402226 -0.0036092051 0.03972182
0.012891104 0.04955633 -0.014200117 0.046890974 -0.011156272 -0.0104604475 0.052187603 -0.00788647
0.043530922 0.023841618 0.01574495 0.05264603 0.025789697 0.0055878814 -0.0058007916 0.0020013407
0.012226933 0.0214316 0.037460275 -0.013107749 0.009829677 -0.008860281 -0.033247344 0.04299807
00000000: dccb 14bd 791a 22bd f2a5 0fbd c164 3dbd
00000010: 7700 0a3d 09de 4fbc 5095 bdbc 2f7c 03bd
00000020: 0a43 90bc 768c 043d 5fdc ac3c 4251 393d
00000030: 790c bbbc 8283 0f3d cbf8 e23c 59d7 70bc
00000040: cf9a fcbc 6c66 283c 331c f2bc ef91 673c
00000050: 0e70 c2bb 4d66 41ba b918 df3b 4ca6 283d
00000060: 0447 103c 74ce e9bc 97f1 a03c fcb3 abbb
00000070: 2eb6 f33c 1ebf 233d 6bc9 143c efb6 d0bc
00000080: 392c a8bc 15a3 203d 5ccb 9b3c d5d5 bb3c
00000090: 27c8 36bc bbea 403d dac7 163d aa83 643d
000000a0: d958 d3bc 4763 8cbc 0664 d33c cd63 763c
000000b0: d6d0 77bb 037a f63b b71c f5bc 9e10 133d
000000c0: fb72 2fbc 3f14 183d cc1c 82bc 2407 3e39
000000d0: 121d b9bc fed2 e63c 3084 9abc bb1c 3f3d
000000e0: 7a95 6c3c 1753 9abc c509 dfbc 5c00 eb3c
000000f0: 8bfa 143d 3c12 7c3c 6fa5 c43c 4850 c9bc
00000100: cabe 4a3c aa21 1a3d 7fa0 283c e9e5 8e3b
00000110: fb7f de3c 0068 60bb 9b93 cf3b d92f 54bc
00000120: ce81 473b 39f1 0ebd d8a5 1dbd 37ba dabc
00000130: 2299 12bd 02de d9bc 7d68 813c 1a23 ec3b
00000140: 2da6 693c f31b 353d 87ff a1bc d963 a4bc
00000150: 8889 0a3d e8a6 b23c c0ea 0d3d 8139 333d
00000160: 94d1 173c 6a7a 07bd e48c 9fbc 108b 9c3b
00000170: ebeb 6b3c 361d f8bc 6188 f9bc a9c0 4e3c
00000180: dcd6 58bb 5741 45bc ab0a bdbc 4b85 bdbc
00000190: 1780 b5bc ad95 0a3d 501c cbbb 573c b7bc
000001a0: a32a 01bc 239d 283d a136 b0bb b615 82bc
000001b0: 56ad 5a3c b703 09bc 6c85 37bc b254 d8bc
000001c0: 2c3b 2dbb f523 e83c 2353 193d 289a 60bc
000001d0: 5bf1 3e3d 2d05 113d 5a9e b0bc 09e0 3c3d
000001e0: 6ad5 223d 377e 2139 3f6a c53c 77aa 743b
000001f0: 7511 1e3d 1ad2 383d 5bcf 0ebb b200 90bc
00000200: f5a6 fc3c 276a 853b f4d5 343d 7024 7dbb
00000210: b0fa 0d3c 7c44 9a3c fd7f b63c ec49 a7bb
00000220: 38ae 2bbc 06bb c23a 9d48 513d d324 273d
00000230: 08bd a9bc fea1 8bb9 da62 3b3d 91fa 573c
00000240: c072 153d d851 c13c 80fd 373d 4a06 a9bc
00000250: 0dd0 a33c df48 003d 1f69 433d a86f c33b
00000260: 194f a53c caf4 a9bc 38f1 363d 13e6 023d
00000270: b43b 223d e615 393d 469b 8bbc 1419 9e3c
00000280: e3bf fbbb 89e3 1f3d f942 213d 6b31 0e3d
00000290: 887c 553c 224f 2c3d 4df1 7cbc cf59 0fbc
000002a0: 3ef4 8d3c f3a4 ec3b 0a32 823c 5089 a43c
000002b0: f717 c33c a4d0 453d c620 4c3c 17c6 23bb
000002c0: a35e 853c 9f30 c4bc 80a7 fd3c b86f 273c
000002d0: ef2c 0e3d 3766 cd3c 44f4 b53c 7525 4d3c
000002e0: acf1 debc badd 9fbc d59d f4bc d681 ddbc
000002f0: 45f1 8f3c 9b1a 9c3c 0966 f43c 899a 513d
00000300: 7638 d83c a4c1 a0bc a46d c1bc 1651 b9bc
00000310: e601 033d 8129 0c3d d6eb 0cbc fdf8 5ebc
00000320: be7c 453d dbbd 53bc e5f3 353d 1830 f83c
00000330: 2897 b4bb 4a73 05bb e437 343d 9675 13bd
00000340: 1ae5 f1bc b310 babc ae0b 2b3d 6537 0f3d
00000350: ac2f 653c 5f4e 783c b9c8 8bbc 97a7 843c
00000360: b55c d3bc b9d5 943c 36ee e53c 42e2 c13b
00000370: c32f 9c3c 8d1e 1ebc 0507 383d 8858 613c
00000380: a9d9 573d 11c6 a13c de72 8f3c ee1b c3bc
00000390: 92e1 f83c cb0b 1abc 6a88 6cbb 59b3 223d
000003a0: 3635 533c 94fb 4a3d 9ca7 68bc c010 403d
000003b0: ccc8 36bc 4c62 2bbc abc2 553d 4136 01bc
000003c0: 7b4d 323d 7f4f c33c 8efb 803c 5da3 573d
000003d0: ea44 d33c 8c1a b73b 9114 bebb ed28 033b
000003e0: 7953 483c 5391 af3c f26f 193d e2c1 56bc
000003f0: a70c 213c b62a 11bc 5e2e 08bd bf1e 303d

res_blocks.2.conv.weight f4 [64, 64, 3, 3]
-0.012712885 0.03269945 -0.033396583 -0.0065723206 0.03267471 -0.021010645 -0.00391993 0.04603014
0.05192948 -0.01286706 0.0097862035 -0.023378171 -0.030505644 -0.007838539 -0.021819549 0.008448392
-0.0036128825 0.04019933 0.0049230643 0.008698752 -0.026571948 -0.0041904356 -0.03149367 0.024457715
0.03881181 -0.016939016 -0.02513649 -0.021022035 0.030408911 0.036587127 -0.0056848526 -0.006638918
0.04864853 -0.03139932 0.022212965 0.012363881 -0.032150052 0.01800807 -0.03508905 0.0015300127
0.01803551 -0.0057232585 0.007721911 0.023704505 0.025314463 0.009486033 0.003487277 -0.018978698
0.042079013 0.044081617 0.0053145415 0.044633925 0.03967395 0.008784367 -0.021110414 -0.01695255
0.0032679583 0.044869907 0.043152917 -0.0057268823 0.039262608 0.019890893 -0.014068811 -0.016833803
0.020177962 0.03227558 0.0011299528 0.036771104 0.0064697177 0.033019233 -0.023745077 0.015362714
0.020169284 0.013866807 -0.04112915 -0.033879172 -0.02866136 -0.021368641 -0.00027132072 -0.03444336
-0.032299843 -0.006957296 -0.016507737 0.046269894 0.011371943 0.036899142 -0.0044511408 -0.028754855
-0.015530638 -0.018843964 -0.0020316353 -0.0345423 -0.0074649374 0.010840651 -0.035331912 0.015556027
0.0021733916 0.037592627 0.016259465 -0.025038717 0.014516888 0.015911486 0.020989256 0.019652072
0.03600732 0.048324455 0.01455656 0.049726464 0.031893946 0.04549065 -0.024111463 0.025217375
0.0046161143 -0.0027028702 0.00378434 -0.028700218 0.00935634 -0.0015683759 0.03158883 0.04058645
0.032253023 0.016246637 -0.022921605 -0.016394107 -0.035309643 0.042183567 0.044835992 0.02637006
-0.01124385 0.008571783 0.0061127534 0.0018771774 0.033940166 -0.026861316 -0.029111952 -0.026512023
0.053491358 0.035169337 0.015793018 -0.008203577 -0.016914843 -0.021208987 -0.011428612 0.050075874
0.031889725 0.014204953 0.011094155 0.043206323 0.03814557 0.026264945 0.030356325 0.012493421
-0.014609191 0.024593282 -0.027959304 0.008087269 -0.010953682 -0.0079555465 -0.027899465 0.0027170232
-0.0066349176 0.025279932 -0.0023796288 0.038790856 0.0049154237 0.039434902 0.007848874 0.047966193
-0.017403215 -0.010663311 0.045236666 -0.031236468 0.0042719725 -0.0023065892 0.021500507 -0.018208126
0.04288882 0.0046132384 -0.020068297 0.0057647056 0.050504044 0.023135003 0.019948589 0.025585096
0.001019354 0.0034335703 0.022854572 0.008627277 0.023488618 0.03701213 -0.026686208 0.037585143
0.03612623 -0.017366497 0.04369917 0.004039879 0.007971446 0.00010242122 0.03922057 0.051830772
0.017717103 0.044163674 0.04199726 0.046283957 0.030309597 0.048736658 0.027522454 -0.011451722
0.004870725 -0.00928609 -0.004659366 0.030539965 -0.00044101398 -0.019730745 0.045967925 -0.03301954
0.023278296 0.041317407 -0.010008763 0.008037027 0.01389275 0.00054516265 -0.03170498 -0.020065133
0.031632684 0.004097929 0.005699084 0.017135633 0.050120194 -0.02493503 0.0001972884 0.030884292
-0.021326838 -0.030022535 0.037551384 0.010883173 -0.02417346 -0.021781797 0.04176555 0.002792783
0.026008548 -0.021063972 -0.025095237 0.023606375 -0.028195102 0.010455817 -0.01585718 -0.0059645674
0.0077180504 0.014806027 0.005939316 0.0088024195 -0.018307861 0.034985196 0.011293819 0.032096688
00000000: b449 50bc dcef 053d dbca 08bd 9f5c d7bb
00000010: ebd5 053d 841e acbc c272 80bb 1a8a 3c3d
00000020: 02b4 543d 5cd0 52bc 5056 203c 9483 bfbc
00000030: f9e6 f9bc 376d 00bc e9be b2bc 206b 0a3c
00000040: 1cc6 6cbb 0da8 243d a851 a13b 3685 0e3c
00000050: 6aad d9bc ec4f 89bb 82ff 00bd 8c5b c83c
00000060: 22f9 1e3d b1c3 8abc 0aeb cdbc 6736 acbc
00000070: 1c1c f93c 62dc 153d 0048 babb 488b d9bb
00000080: ae43 473d 939c 00bd f7f7 b53c e091 4a3c
00000090: c6af 03bd a985 933c 89b9 0fbd b58a c83a
000000a0: 35bf 933c 2c8a bbbb 1608 fd3b f32f c23c
000000b0: 4760 cf3c 4e6b 1b3c cd8a 643b 3779 9bbc
000000c0: 0b5b 2c3d ed8e 343d 9b25 ae3b 10d2 363d
000000d0: 2781 223d 4eec 0f3c bfef acbc 13e0 8abc
000000e0: 3e2b 563b 82c9 373d 1dc1 303d 92a8 bbbb
000000f0: d4d1 203d 3af2 a23c df80 66bc 0be7 89bc
00000100: 414c a53c 6633 043d ed1a 943a 4c9d 163d
00000110: edff d33b 2d3f 073d 0985 c2bc e5b3 7b3c
00000120: 0e3a a53c 9b31 633c 0a77 28bd e3c4 0abd
00000130: 3acb eabc 4a0d afbc 0d40 8eb9 7b14 0dbd
00000140: d74c 04bd 07fa e3bb 3c3b 87bc 8085 3d3d
00000150: 6351 3a3c 8e23 173d e0da 91bb 4d8f ebbc
00000160: 3874 7ebc a85e 9abc 2f25 05bb 3a7c 0dbd
00000170: 6f9c f4bb fc9c 313c 32b8 10bd b5de 7e3c
00000180: 766f 0e3b bafa 193d 9232 853c ff1d cdbc
00000190: 3ed8 6d3c ce58 823c a9f1 ab3c 62fd a03c
000001a0: 697c 133d ddef 453d a37e 6e3c faad 4b3d
000001b0: 3aa3 023d 6754 3a3d 6785 c5bc ab94 ce3c
000001c0: c642 973b a322 31bb b102 783b b81c ebbc
000001d0: 564b 193c f691 cdba 4a63 013d fa3d 263d
000001e0: bf1b 043d ab17 853c 17c6 bbbc ef4c 86bc
000001f0: d8a0 10bd adc8 2c3d f2a5 373d 0606 d83c
00000200: 2038 38bc aa70 0c3c 7e4d c83b 9f0b f63a
00000210: d804 0b3d 430c dcbc 307c eebc be2f d9bc
00000220: c119 5b3d b90d 103d 5c60 813c 4c68 06bc
00000230: ff90 8abc 78be adbc 133f 3bbc 5c1c 4d3d
00000240: cd9e 023d e4bb 683c 42c4 353c 1df9 303d
00000250: 873e 1c3d 9529 d73c d4ad f83c 35b1 4c3c
00000260: 635b 6fbc da77 c93c e90a e5bc 7780 043c
00000270: 1277 33bc fb57 02bc 6b8d e4bc 1610 323b
00000280: b969 d9bb dc17 cf3c 8cf3 1bbb 29e3 1e3d
00000290: 9011 a13b 7e86 213d 9098 003c 3378 443d
000002a0: 3091 8ebc 2bb5 2ebc 154a 393d 9fe3 ffbc
000002b0: e7fb 8b3b 252a 17bb d521 b03c 3529 95bc
000002c0: 30ac 2f3d a62a 973b 4566 a4bc dbe5 bc3b
000002d0: 54dd 4e3d 9e85 bd3c 396b a33c d697 d13c
000002e0: d89b 853a c005 613b 8339 bb3c 6c59 0d3c
000002f0: 346b c03c 089a 173d 099d dabc e1f2 193d
00000300: 19f9 133d 2f44 8ebc e7fd 323d f660 843b
00000310: ab9a 023c f9ca d638 c0a5 203d 814c 543d
00000320: 7523 913c f8e4 343d 5205 2c3d 3f94 3d3d
00000330: d54b f83c 17a0 473d c576 e13c 01a0 3bbc
00000340: 9a9a 9f3b af24 18bc 98ad 98bb f32e fa3c
00000350: e537 e7b9 5fa2 a1bc dd48 3c3d 7f3f 07bd
00000360: 20b2 be3c 713c 293d cbfb 23bc bcad 033c
00000370: 6b9e 633c 3fe9 0e3a 15dd 01bd a25f a4bc
00000380: 4691 013d ec47 863b 62bf ba3b 0760 8c3c
00000390: d54a 4d3d 8c44 ccbc 34df 4e39 0e01 fd3c
000003a0: 9fb5 aebc d2f1 f5bc 7bcf 193d 564f 323c
000003b0: 6c07 c6bc bd6f b2bc 5a12 2b3d 2007 373b
000003c0: e10f d53c 5a8e acbc 8794 cdbc 2862 c13c
000003d0: 6af9 e6bc e04e 2b3c ebe6 81bc 6b72 c3bb
000003e0: b3e7 fc3b fa94 723c 989e c23b 0638 103c
000003f0: 5efa 95bc a34c 0f3d b609 393c d177 033d

global_pool.0.weight f4 [64, 64, 3, 3]
0.0038116933 -0.033822376 0.029986762 0.018302597 -0.022437487 0.011474832 -0.014837435 0.027804766
0.002424466 0.008925801 -0.009504722 0.029729221 0.002544532 -0.033796187 -0.012528406 0.043985713
-0.0015629855 0.027481567 0.029595546 -0.018490396 0.021574069 -0.04594592 -0.0416168 -0.05442381
-0.0058370526 -0.01317719 -0.012862508 0.032568987 -0.02798764 -0.023013236 -0.029876193 -0.04600099
0.014943766 -0.017281944 -0.014361618 -0.002866531 0.0015546244 -0.024372956 -0.015405546 -0.0011472105
-0.047547895 -0.027039241 -0.033632766 0.0088232355 0.023442337 0.012880743 0.03416253 -0.032823406
-0.023449073 -0.033087242 -0.040694796 -0.04604519 -0.016437713 3.0054369e-05 -0.0046410365 0.017441908
-0.03813423 -0.009135553 0.027023952 0.028115688 -0.031893 -0.042442467 0.031436548 -0.026369607
0.0325103 0.022573113 0.02253837 0.031525552 0.009518658 0.024652014 -0.0003162981 -0.03673752
-0.004104844 -0.03700334 0.01891553 0.0073565124 -0.004109693 0.021123605 0.004866464 0.03662106
-0.025143629 -0.04296942 0.0014001301 0.032110337 -0.006050856 0.000996534 -0.00086510513 -0.023967499
0.014182347 0.011869253 -0.030101584 -0.031746488 -0.0106094 0.034141865 -0.03769982 0.0305495
-0.0315619 0.029530708 0.037304286 0.007948367 -0.032750547 -0.010219412 0.0022741943 0.019062137
-0.004859306 0.039488643 -0.03321964 -0.02000617 -0.03430587 0.0035400887 -0.007998249 -0.02472609
0.012141353 -0.017410018 -0.04503186 -0.0019380131 0.0063886773 0.03384523 -0.041280024 0.007990846
-0.03267841 0.013617581 -0.01422549 0.007865865 -0.044782422 -0.0090840245 -0.046033196 0.0025336312
0.02905701 -0.018468453 0.003463955 -0.019055562 0.028974013 0.020090226 -0.019093996 -0.004846436
0.005959826 -0.031774517 -0.02718308 0.018425217 -0.01700579 0.009074007 0.012838645 -0.046757028
0.03511009 0.017096993 0.02092662 0.029228378 -0.041447073 -0.0046696076 0.0044974484 -0.03367156
-0.027245691 0.013965009 0.034568556 0.013201612 0.011117747 0.030482162 -0.046786256 -0.029891822
0.019966625 -0.037608378 0.0028506068 -0.0074263345 -0.004476428 0.012334829 -0.029351749 -0.026460832
-0.03756157 -0.040883552 -0.035117745 -0.011142266 -0.012697342 -0.015560035 -0.03599432 -0.037570752
-0.017209833 -0.039739914 -0.0047832606 -0.024521064 -0.011623404 -0.013238844 0.0016043313 -0.024336888
0.027216278 -0.038047895 0.026369363 -0.0025641029 0.016858183 0.03197288 0.03908832 -0.029744696
-0.0021775123 -0.0036223105 0.017018318 -0.02298321 0.009469094 0.016250798 0.007456478 0.017484961
0.0021959268 -0.0473603 0.03019256 0.018552223 0.00483963 0.029625213 0.018221123 -0.011884348
0.027392758 0.022591446 -0.022418281 0.012466263 -0.0020784284 -0.035843503 -0.020531362 0.024832161
0.025682691 0.02329844 0.004802683 0.023438213 0.01812015 0.022189878 -0.018451633 0.0233228
-0.015129386 -0.020249756 -0.026392711 -0.01470142 0.031042496 0.006000391 0.018564614 0.012398871
-0.020128692 0.027660664 0.0116526 -0.027582016 -0.034064103 -0.00485738 0.0074360156 -0.007842068
-0.02535843 -0.014498654 -0.04816801 -0.024926621 0.0078015947 -0.014621492 0.0060729138 0.0006582184
0.014901956 -0.048528366 -0.03777963 -0.045514625 0.03223736 0.010413302 -0.024595365 -0.005227417
00000000: 9acd 793b 5589 0abd cca6 f53c 54ef 953c
00000010: d2ce b7bc ef00 3c3c b718 73bc d2c6 e33c
00000020: cae3 1e3b 863d 123c b2b9 1bbc b28a f33c
00000030: 2ac2 263b df6d 0abd f243 4dbc 5d2a 343d
00000040: 17dd ccba 0621 e13c 5c72 f23c 2c79 97bc
00000050: 1abc b03c ca31 3cbd 6176 2abd 80eb 5ebd
00000060: bf44 bfbb 24e5 57bc 45bd 52bc 0f67 053d
00000070: 5646 e5bc 4186 bcbc ebbe f4bc 896b 3cbd
00000080: b3d6 743c dd92 8dbc fe4c 6bbc 69dc 3bbb
00000090: 8ac4 cb3a cba9 c7bc 8b67 7cbc ff5d 96ba
000000a0: 95c1 42bd 6681 ddbc 83c2 09bd 558f 103c
000000b0: 250a c03c c009 533c 02ee 0b3d d671 06bd
000000c0: 4518 c0bc 7d86 07bd 96af 26bd e299 3cbd
000000d0: 62a8 86bc 441d fc37 d613 98bb 55e2 8e3c
000000e0: a332 1cbd 49ad 15bc 5661 dd3c df52 e63c
000000f0: 3ca2 02bd 27d8 2dbd 9cc3 003d 1305 d8bc
00000100: 8529 053d 40eb b83c 63a2 b83c f020 013d
00000110: 25f4 1b3c 05f3 c93c d0d4 a5b9 157a 16bd
00000120: ed81 86bb d090 17bd bef4 9a3c e60e f13b
00000130: 9baa 86bb 690b ad3c dc76 9f3b f7ff 153d
00000140: 03fa cdbc b400 30bd 9284 b73a 2186 033d
00000150: 4246 c6bb 229e 823a 39c8 62ba 7d57 c4bc
00000160: 135d 683c 4177 423c 9997 f6bc 9b08 02bd
00000170: 0dd3 2dbc 57d8 0b3d 206b 1abd f242 fa3c
00000180: 0d47 01bd 62ea f13c 61cc 183d de39 023c
00000190: 7025 06bd 526f 27bc a60a 153b 3328 9c3c
000001a0: d03a 9fbb d8be 213d 5111 08bd fbe3 a3bc
000001b0: 5084 0cbd d500 683b 160b 03bc 5e8e cabc
000001c0: 87ec 463c 749f 8ebc 5473 38bd ee04 feba
000001d0: 1c58 d13b 4ca1 0a3d 3e15 29bd 0aec 023c
000001e0: ccd9 05bd 461c 5f3c 0812 69bc d4df 003c
000001f0: c66d 37bd 29d5 14bc 4e8d 3cbd 470b 263b
00000200: f708 ee3c 274b 97bc 8503 633b 691a 9cbc
00000210: e95a ed3c 4294 a43c 036b 9cbc dace 9ebb
00000220: a54a c33b ff25 02bd 0daf debc 7bf0 963c
00000230: ba4f 8bbc 25ab 143c 2e59 523c 4c84 3fbd
00000240: 99cf 0f3d fe0e 8c3c 4e6e ab3c 5a70 ef3c
00000250: 68c4 29bd 8203 99bb 555f 933b 31eb 09bd
00000260: 5b32 dfbc 7ecd 643c c297 0d3d 934b 583c
00000270: 3627 363c bab5 f93c f2a2 3fbd b2df f4bc
00000280: 0c91 a33c 3e0b 1abd 3fd1 3a3b 9c58 f3bb
00000290: 00af 92bb 0618 4a3c 1473 f0bc 63c4 d8bc
000002a0: 29da 19bd 8375 27bd a0d7 0fbd 0d8e 36bc
000002b0: 8308 50bc 84ef 7ebc c86e 13bd cae3 19bd
000002c0: a3fb 8cbc 52c6 22bd e6bc 9cbb 66e0 c8bc
000002d0: 1770 3ebc bde7 58bc 6d48 d23a 275e c7bc
000002e0: acf4 de3c 1cd8 1bbd 9004 d83c 820a 28bb
000002f0: 2c1a 8a3c fff5 023d 131b 203d 26ab f3bc
00000300: 98b4 0ebb 4964 6dbb 006a 8b3c 4947 bcbc
00000310: 4224 1b3c 6520 853c 7955 f43b 9f3c 8f3c
00000320: 8ae9 0f3b e0fc 41bd 6356 f73c d5fa 973c
00000330: c295 9e3b 93b0 f23c 7744 953c 91b6 42bc
00000340: c766 e03c b211 b93c 8ba6 b7bc 4c3f 4c3c
00000350: 3e36 08bb a3d0 12bd 6331 a8bc d16c cb3c
00000360: 8264 d23c 5fdc be3c d35f 9d3b 7f01 c03c
00000370: b570 943c 8cc7 b53c e127 97bc 750f bf3c
00000380: 3fe1 77bc d1e2 a5bc 8735 d8bc 3ade 70bc
00000390: d54c fe3c ee9e c43b d114 983c a224 4b3c
000003a0: ede4 a4bc 9e98 e23c 8cea 3e3c aef3 e1bc
000003b0: cd86 0bbd a82a 9fbb d2a9 f33b 047c 00bc
000003c0: 7bbc cfbc c38b 6dbc d24b 45bd ea32 ccbc
000003d0: 85a4 ff3b fb8e 6fbc 4bff c63b 4a8c 2c3a
000003e0: 5527 743c aec5 46bd d0be 1abd 8b6d 3abd
000003f0: 520b 043d 8e9c 2a3c 387c c9bc c14a abbb

global_pool.0.bias f4 [64]
-0.0055409023 -0.022146404 0.010532527 -0.044560596 0.0093253115 -0.022423627 -0.012069981 -0.03374007
0.0018337008 -0.043836858 0.02568992 -0.025093045 0.019353265 0.0022888253 0.041027404 -0.027011916
-0.0007264309 -0.01517191 0.02617801 0.01378717 -0.037255723 -0.0402594 -0.03954412 0.024047203
-0.0052876943 0.035223227 -0.04055474 0.021622106 0.037476726 0.030214105 0.02078778 -0.014911988
-0.013208883 0.027662069 0.012434816 -0.011712803 -0.0016935824 0.0047443947 0.03988849 0.0045802626
0.0061588753 0.048711374 0.019678138 -0.016384361 0.017057277 -0.012825522 0.01763466 -0.010504887
0.046395175 -0.017264709 -0.0066814823 -0.028256733 0.010606987 0.037056915 0.040677395 0.00986207
-0.03529098 0.003699382 0.00263582 -0.018269569 -0.0043111993 -0.045011654 0.002942657 0.0043151416
00000000: 7590 b5bb 606c b5bc 9f90 2c3c 2c85 36bd
00000010: 31c9 183c c1b1 b7bc 2bc1 45bc 0733 0abd
00000020: ca58 f03a 478e 33bd ab73 d23c ee8f cdbc
00000030: bd8a 9e3c 1e00 163b 5a0c 283d 1848 ddbc
00000040: f46d 3eba 9a93 78bc 4473 d63c 95e3 613c
00000050: 7599 18bd 0ae7 24bd 04f9 21bd a4fe c43c
00000060: 6544 adbb 3b46 103d ba1c 26bd d820 b13c
00000070: 3281 193d 9283 f73c 224b aa3c 6951 74bc
00000080: 126a 58bc 909b e23c 66bb 4b3c 0ee7 3fbc
00000090: 32fb ddba de76 9b3b 1d62 233d 0716 963b
000000a0: 64d0 c93b 9485 473d 0c34 a13c 7f38 86bc
000000b0: b4bb 8b3c 2322 52bc 9076 903c b11c 2cbc
000000c0: de08 3e3d b86e 8dbc 56f0 dabb aa7a e7bc
000000d0: eec8 2d3c fec8 173d 579d 263d 8594 213c
000000e0: 468d 10bd 5571 723b b9bd 2c3b 10aa 95bc
000000f0: f644 8dbb 245e 38bd 98d9 403b 0866 8d3b

head.1.weight f4 [64]
0.9939946 0.99444133 0.9939945 1.0 0.99653023 0.9820859 0.9855535 1.0
0.97050333 1.0 0.9933437 0.9359622 1.0 1.0 1.0093218 0.99399453
0.99885833 0.9939945 1.0 1.0032864 1.0 1.0 1.0020646 1.0130639
0.99444133 0.96270925 0.99444157 0.9939945 0.9975023 0.9574406 0.99956685 1.0
0.9905381 0.99397945 0.99399453 1.0124782 0.994006 0.9944415 0.9987282 1.0
0.993974 1.005822 0.97713685 1.0000144 0.99166304 1.0091157 0.9948412 1.0075167
0.9992292 0.9939945 0.99390095 0.9939945 1.0059221 0.97380793 1.002386 1.0
0.95614225 0.96016484 0.99444246 0.97776127 0.99399847 0.96591276 0.9950462 0.9939945
00000000: 6e76 7e3f b593 7e3f 6c76 7e3f 0000 803f
00000010: 9b1c 7f3f fb69 7b3f 3c4d 7c3f 0000 803f
00000020: e872 783f 0000 803f c64b 7e3f 389b 6f3f
00000030: 0000 803f 0000 803f 7531 813f 6d76 7e3f
00000040: 2eb5 7f3f 6c76 7e3f 0000 803f b06b 803f
00000050: 0000 803f 0000 803f a743 803f 14ac 813f
00000060: b593 7e3f 1d74 763f b993 7e3f 6c76 7e3f
00000070: 505c 7f3f d41a 753f 9de3 7f3f 0000 803f
00000080: e893 7d3f 7075 7e3f 6d76 7e3f e398 813f
00000090: 2d77 7e3f b893 7e3f a7ac 7f3f 0000 803f
000000a0: 1475 7e3f c6be 803f a425 7a3f 7900 803f
000000b0: a1dd 7d3f b42a 813f eaad 7e3f 4ff6 803f
000000c0: 7ccd 7f3f 6c76 7e3f 4b70 7e3f 6c76 7e3f
000000d0: 0ec2 803f 7a4b 793f 2f4e 803f 0000 803f
000000e0: bdc5 743f 5dcd 753f c893 7e3f 904e 7a3f
000000f0: af76 7e3f 0f46 773f 59bb 7e3f 6c76 7e3f

head.1.bias f4 [64]
-0.0060054753 -0.005558878 -0.006005499 0.0 0.003688474 0.0011481311 -0.04619342 0.0
-0.02949975 0.0 -0.007676491 -0.057346996 0.0 0.0 -0.03738701 -0.0060055
0.010731487 -0.0060055 0.0 0.0029495494 0.0 0.0 0.00010334567 0.008793178
-0.005558876 -0.029537017 -0.005558787 -0.0060055 -0.0011249969 -0.017600771 0.00448207 0.0
-0.010667529 -0.0060563763 -0.006005497 0.010889593 -0.006005442 -0.005558861 0.005858442 0.0
-0.0074033295 0.007847171 -0.0134781785 -0.00799124 -0.0084237605 0.009360538 0.0039243633 0.006872479
-0.032559086 -0.0060055 -0.006100207 -0.006005499 -0.0070823664 -0.027856676 0.0058191973 0.0
-0.038406517 -0.029472359 -0.0055588577 -0.021075241 -0.0060050893 -0.019498745 0.0044762497 -0.0060055004
00000000: 94c9 c4bb 4027 b6bb c7c9 c4bb 0000 0000
00000010: 53ba 713b e37c 963a 5035 3dbd 0000 0000
00000020: 76a9 f1bc 0000 0000 138b fbbb afe4 6abd
00000030: 0000 0000 0000 0000 1f23 19bd c9c9 c4bb
00000040: 1ed3 2f3c c9c9 c4bb 0000 0000 3a4d 413b
00000050: 0000 0000 0000 0000 49bb d838 4311 103c
00000060: 3b27 b6bb 9df7 f1bc 7c26 b6bb c9c9 c4bb
00000070: a274 93ba 7e2f 90bc 54de 923b 0000 0000
00000080: dcc6 2ebc 9174 c6bb c3c9 c4bb 436a 323c
00000090: 4cc9 c4bb 1b27 b6bb 2cf8 bf3b 0000 0000
000000a0: a197 f2bb 6c91 003c 94d3 5cbc b1ed 02bc
000000b0: d003 0abc f15c 193c f297 803b 8832 e13b
000000c0: ad5c 05bd c9c9 c4bb 3fe4 c7bb c7c9 c4bb
000000d0: 3213 e8bb af33 e4bc f7ae be3b 0000 0000
000000e0: 2750 1dbd 0470 f1bc 1427 b6bb fca5 acbc
000000f0: 57c6 c4bb d5bb 9fbc 81ad 923b cac9 c4bb

head.3.weight f4 [64, 64]
0.038432218 -0.07332335 -0.0054637003 -0.029658705 -0.066388525 -0.04190309 -0.11464746 0.09187201
-0.10500402 0.05812274 -0.051987845 0.14006206 -0.046814606 0.08627631 -0.03670916 -0.03902996
-0.08329506 -0.021857206 -0.055502445 -0.12140236 -0.069984555 -0.055509612 0.08001899 -0.056964405
0.09333647 0.0058991523 -0.05039934 0.027008826 -0.03117316 -0.08506512 0.08365854 0.037275895
-0.024471095 -0.024012133 0.09963466 0.10637978 0.08050133 -0.021769851 0.06573594 0.039221182
-0.022651093 -0.121263765 -0.06056665 0.07696459 0.08853291 0.06386438 -0.09007758 -0.036629997
0.039762564 0.06112481 -0.06661419 0.039143004 0.11059421 -0.01301911 -0.11424285 -0.02641423
0.08266348 -0.041780394 -0.0032284455 0.06796499 -0.12652166 -0.06612801 0.039619554 0.08840162
-0.0052390196 -0.013721837 -0.025642177 -0.10278855 0.089890085 -0.054862365 -0.022698322 -0.08991793
0.10199086 -0.05223076 -0.08507107 -0.11381506 -0.04142198 -0.0035935938 0.09074667 0.098677814
-0.11117351 0.09178869 0.08263439 0.054416742 -0.0537121 -0.040057093 0.07852924 -0.112513356
0.097252026 -0.08158282 0.09112465 0.10245489 0.041861568 0.04857087 -0.114029266 0.072613746
-0.0638745 0.07571908 0.07618483 0.027105447 -0.058745045 -0.04415655 0.008057264 0.09354195
0.011561709 0.09467385 0.018702848 0.10338872 0.042346407 0.03151721 -0.1040597 -0.052030012
0.051960215 -0.08449531 0.047784828 -0.014177387 0.075504646 -0.11007544 -0.009339684 0.028838128
-0.05516237 -0.09440202 0.12676273 0.006203726 -0.05093957 -0.008307695 -0.110949926 0.004882596
0.08528724 0.04531517 -0.09250841 -0.0048768073 0.10852399 -0.08851274 -0.08937701 0.112574965
-0.09551755 0.10083972 0.01010694 0.082824685 -0.007388115 -0.07137559 0.0698301 0.08240812
0.052749414 -0.070111305 -0.12436594 -0.064121924 -0.09214723 -0.08271076 0.117188945 -0.10337707
0.04471727 -0.08161657 -0.019131396 0.047348 -0.03810338 0.09972198 0.010642419 0.12253377
0.01153475 -0.06259452 0.0058552036 0.09092406 0.025492208 0.026629185 -0.06243965 0.025925934
0.06549795 -0.038408365 -0.009621323 -0.006587447 0.013965149 0.09165899 -0.06155731 0.093150936
0.060630795 0.075189464 0.0120590115 0.11162268 0.013787729 0.094151735 0.09378091 -0.106333494
-0.06144034 0.0121403495 -0.0039617056 0.0032904518 -0.06280468 0.03902214 0.009066492 -0.026990736
0.069074556 0.03891711 -0.08637244 -0.079172745 0.112181775 0.05643434 -0.06193918 -0.036017656
0.019441446 -0.033810392 0.1075191 0.05052457 0.088403866 0.09105711 -0.03345056 -0.014266321
0.021322431 0.113495894 0.039350644 0.059486173 -0.04208024 -0.09127046 0.01816885 -0.0061806403
-0.07526187 -0.012796745 0.08170727 0.10229297 0.05278627 -0.069184765 -0.05357205 -0.059054896
0.014053788 -0.117383786 0.118598916 -0.06168177 -0.01333903 -0.023906365 0.11087462 -0.10965817
0.01474152 0.11645644 0.14239791 -0.048545025 0.00882401 0.05456224 -0.108937435 0.06099372
-0.038415328 -0.05199613 0.0871695 -0.10266062 -0.10179951 0.0767396 -0.06475685 -0.07887718
-0.05347026 0.0026218358 0.11857273 -0.12259725 0.10557819 0.062770076 0.06252719 0.07399272
00000000: 1a6b 1d3d 8d2a 96bd d708 b3bb d0f6 f2bc
00000010: b5f6 87bd 93a2 2bbd 4acc eabd 6427 bc3d
00000020: 590c d7bd 1c12 6e3d 35f1 54bd 6e6c 0f3e
00000030: acc0 3fbd a2b1 b03d 585c 16bd e1dd 1fbd
00000040: 9a96 aabd e20d b3bc 8856 63bd cda1 f8bd
00000050: 1054 8fbd 0c5e 63bd ffe0 a33d 8253 69bd
00000060: 3127 bf3d ad4d c13b 8a6f 4ebd 9d41 dd3c
00000070: db5e ffbc 9f36 aebd 2b55 ab3d 9cae 183d
00000080: 9b77 c8bc 18b5 c4bc 420d cc3d a4dd d93d
00000090: e2dd a43d b056 b2bc 91a0 863d 64a6 203d
000000a0: c98e b9bc 2359 f8bd bc14 78bd 9c9f 9d3d
000000b0: be50 b53d 54cb 823d 987a b8bd 5609 16bd
000000c0: 12de 223d 025e 7a3d 056d 88bd 6a54 203d
000000d0: 387f e23d 1b4e 55bc 28f8 e9bd a862 d8bc
000000e0: 784b a93d eb21 2bbd 5494 53bb 3b31 8b3d
000000f0: e58e 01be 1f6e 87bd 1d48 223d e90b b53d
00000100: 15ac abbb 8ed1 60bc 8b0f d2bc ce82 d2bd
00000110: 4b18 b83d 5cb7 60bd d5f1 b9bc e426 b8bd
00000120: 96e0 d03d ecef 55bd be39 aebd df17 e9bd
00000130: 18aa 29bd 8082 6bbb 64d9 b93d 9817 ca3d
00000140: f0ae e3bd b5fb bb3d 383c a93d 17e4 5e3d
00000150: 3801 5cbd e812 24bd f0d3 a03d 676d e6bd
00000160: 122c c73d e514 a7bd 8f9f ba3d dfd3 d13d
00000170: 0977 2b3d 40f2 463d 2d88 e9bd 84b6 943d
00000180: a2d0 82bd 9b12 9b3d cb06 9c3d 3e0c de3c
00000190: a59e 70bd 80dd 34bd 9d02 043c ec92 bf3d
000001a0: 536d 3d3c 5de4 c13d b736 993c 77bd d33d
000001b0: 6d73 2d3d 3118 013d 411d d5bd 6c1d 55bd
000001c0: 3cd4 543d e10b adbd 06ba 433d 4548 68bc
000001d0: 2ea2 9a3d 3b6f e1bd 7905 19bc f03d ec3c
000001e0: f0f1 61bd d955 c1bd 17ce 013e a048 cb3b
000001f0: 03a6 50bd 001d 08bc b739 e3bd 2ffe 9f3b
00000200: 14ab ae3d 669c 393d 0d75 bdbd a0cd 9fbb
00000210: d341 de3d 2b46 b5bd 4b0b b7bd b48d e63d
00000220: b59e c3bd 0e85 ce3d 9497 253c fd9f a93d
00000230: 0018 f2bb 5e2d 92bd 1503 8f3d 97c5 a83d
00000240: c50f 583d 8496 8fbd 92b3 febd 5b52 83bd
00000250: b0b7 bcbd 4264 a9bd c200 f03d 5bb7 d3bd
00000260: 7529 373d 9726 a7bd 72b9 9cbc faef 413d
00000270: 4a12 1cbd 0a3b cc3d 8a5d 2e3c fcf2 fa3d
00000280: 40fc 3c3c 8e31 80bd 02dd bf3b 6536 ba3d
00000290: 09d5 d03c 7325 da3c b8c0 7fbd a062 d43c
000002a0: ca23 863d 1752 1dbd c1a2 1dbc 83db d7bb
000002b0: 15ce 643c b5b7 bb3d 8523 7cbd ebc5 be3d
000002c0: ff57 783d effc 993d 2993 453c 6f9a e43d
000002d0: ede5 613c a0d2 c03d 3510 c03d 60c5 d9bd
000002e0: dea8 7bbd 51e8 463c 32d1 81bb 9fa4 573b
000002f0: bd9f 80bd aed5 1f3d a08b 143c ad1b ddbc
00000300: f676 8d3d 8c67 1f3d 09e4 b0bd 5225 a2bd
00000310: 8fbf e53d b227 673d f0b3 7dbd 4087 13bd
00000320: ab43 9f3c c47c 0abd f932 dc3d daf2 4e3d
00000330: 160d b53d 267c ba3d 7403 09bd 4abd 69bc
00000340: 61ac ae3c 8970 e83d 242e 213d c6a7 733d
00000350: 545c 2cbd 02ec babd d7d6 943c f886 cabb
00000360: e522 9abd 70a9 51bc 2456 a73d fa7e d13d
00000370: 6a36 583d beb0 8dbd 5e6e 5bbd 8ce3 71bd
00000380: dc41 663c e966 f0bd fde3 f23d 06a6 7cbd
00000390: f28b 5abc 48d7 c3bc 3c12 e33d 7694 e0bd
000003a0: 6b86 713c b780 ee3d c2d0 113e 26d7 46bd
000003b0: 9592 103c a87c 5f3d 971a dfbd 8dd4 793d
000003c0: 6459 1dbd e5f9 54bd ec85 b23d bb3f d2bd
000003d0: 437c d0bd a729 9d3d 3d9f 84bd 5c8a a1bd
000003e0: a203 5bbd 1bd3 2b3b 42d6 f23d 4414 fbbd
000003f0: 6139 d83d 998d 803d 410e 803d 7f89 973d

head.3.bias f4 [64]
0.06513462 -0.002142265 -0.060315553 0.0038659333 -0.036336496 0.1368605 -0.116039895 0.038120225
-0.056676008 0.04611797 -0.07749264 -0.033354618 0.05741105 -0.095141105 -0.053076312 0.057146132
0.022695556 -0.03847225 0.0024795725 0.101213366 -0.039917327 0.039227664 0.065839276 -0.10375412
-0.097042896 -0.11241486 -0.020988196 -0.08397813 0.032358944 0.09181349 -0.06412772 0.01715158
-0.09219466 0.09739309 0.040454287 -0.07155604 -0.08259304 -0.06895225 -0.061399776 -0.06976179
0.027608093 -0.06701259 -0.044673488 -0.03402794 -0.066288754 0.028730078 0.103595436 -0.0032193728
0.004485715 0.02494671 -0.07460902 0.07123198 -0.058741786 -0.109081455 -0.0096770525 0.07572645
-0.07501604 0.052738506 0.108263776 0.104037225 -0.064416945 0.031931862 -0.004523449 0.09472714
00000000: 4d65 853d 3e65 0cbb 710d 77bd 995b 7d3b
00000010: 94d5 14bd 2925 0c3e 53a6 edbd f423 1c3d
00000020: 1a25 68bd 32e6 3c3d 76b4 9ebd da9e 08bd
00000030: d927 6b3d 57d9 c2bd 8c66 59bd 1012 6a3d
00000040: 08ec b93c 1495 1dbd 5380 223b f448 cf3d
00000050: 5a80 23bd 30ad 203d bed6 863d 0a7d d4bd
00000060: 6dbe c6bd c339 e6bd 70ef abbc bafc abbd
00000070: d08a 043d b608 bc3d 6555 83bd 7881 8c3c
00000080: 8ed0 bcbd 0776 c73d 65b3 253d f98b 92bd
00000090: 8a26 a9bd d636 8dbd 557e 7bbd 45df 8ebd
000000a0: 5e2a e23c e63d 89bd 8cfb 36bd e260 0bbd
000000b0: 66c2 87bd 575b eb3c d829 d43d 1dfc 52bb
000000c0: e8fc 923b 0b5d cc3c 9dcc 98bd 13e2 913d
000000d0: 3a9b 70bd 1966 dfbd 808c 1ebc 7816 9b3d
000000e0: 02a2 99bd 5504 583d 66b9 dd3d 7811 d53d
000000f0: 08ed 83bd fcca 023d 7139 94bb 4e00 c23d
