outputs/exp_v1/checkpoints/epoch_80.pth (torch, 651919 bytes, 13 tensors)

base.0.weight f4 [64, 3, 7, 7]
00000000: c7dc 94bc 794d 7b3d 9d5e 14bd 2423 ed3b
00000010: 1794 a8ba 74c2 81bd 96f5 f03b 3ff9 8a3d
00000020: 42a9 763c 3024 5f3d 1d36 73bd 4253 8cbd
00000030: de4e 913d c363 953d c1b5 d83c 579c a43d
00000040: 7b19 11bd d356 84bd 2dca d83c 097b 493c
00000050: 6b6a 023d 7bf4 533d de47 38bd d0c9 ddbc
00000060: bdca 42bd 3bdb a0bd 74ef b1bc 9e96 a03d
00000070: 6f66 89bd c399 453d 9d7b 35bd d172 7ebd
00000080: 93e4 903b e986 4e3d 97ce 893b c664 ab3c
00000090: 3fce 93bd 3822 773d a1a7 72bd c79f 093d
000000a0: 1db9 a13d 47fd 103c 5ecf a5bd 7cf0 9bbd
000000b0: b282 ee3c 342d 86bd 3ea8 5dbd bf6d fabc
000000c0: 932a 923c 9b06 c63c 6f15 43bd 6161 8bbc
000000d0: 2b2a 5b3d a6c0 8abd 8390 9aba 0e18 4fbd
000000e0: ffb1 71bc f7d0 443c b560 643d 9413 b0bd
000000f0: 15be a43c 7af7 0f3d 8240 8c3d 8dac 003d
00000100: 080d 383d 3d11 9abd 1171 fbbc 4a3e 4c3c
00000110: 4e25 8dbd 7a5e 2fbd e82d 0c3d 62ce 19bd
00000120: 27c1 1b3c 760e 013d 04fa 983d 4087 983d
00000130: 5619 7f3c 6807 85bd f526 27bd 05c3 813d
00000140: 4d1e 853d 1244 ff3c 006f 8bbd bb53 b33b
00000150: b756 66bb 20e3 95bc 0f85 10bd f718 cd3c
00000160: 7086 8a3d 1b0c 2dbd 22b9 293d 7fff 7bbd
00000170: 88bf f03c df9b aebd f0e0 c63c 4bfa d63c
00000180: 0b60 8fbd 8a35 b23c c482 5e3c 5c86 99bd
00000190: ce6e 51bd 906c e43b 55ad 59bc cbf3 a73a
000001a0: 813d 413d 3797 543d b226 73bd 459e 1e3d
000001b0: b34c d03c ffeb d1bc f516 b83c 5236 fabc
000001c0: 3fce 29bc 2b6b 883d e249 55bc 9ce1 9abc
000001d0: f759 a5bd 3231 edbb 8565 a8bd 7705 e93b
000001e0: 0dca 9abc 28f6 19bd 4e98 2bbc a332 103d
000001f0: 39df 0d3d c58a cfbb 7ad1 a7bd 7c76 de3c
00000200: 4295 61bb f5d6 c6bb c8e1 acbc 53b9 66bd
00000210: 557c 50bd a2b1 7fbc 3db2 233d 01a2 3c3d
00000220: 7ecc 923d c98c 5bba 2856 79ba 2455 15bd
00000230: ec3d 01bd 12bb 9f3d a684 1c3c 3e4e a9bd
00000240: 0f23 c93c 9e4b 693d 8096 19bd 0bf2 413d
00000250: 826e 5fbd cedd b43b 35f3 7abd 5814 9bbd
00000260: c272 253c 9d10 ab3b 2055 51bd a296 d23c
00000270: 0229 3eb9 064c 643d f80a b0bc 7942 e3bb
00000280: 5994 fa3c 4c8a 14bd 20df 73bd ed58 503c
00000290: b96c 80bd 7a44 b8bc d8bb d93c b7a5 803d
000002a0: de1f 97bc 1eb7 263d c604 5b3c 1190 81bd
000002b0: 6ff4 313d 5211 a3bd 465b bbbd 8dbe abbd
000002c0: cfe9 8bbd 1d40 573d 8c14 83bc aea3 a9bd
000002d0: 9467 d1bb 0f34 0e3d 3fc6 6a3d c0bd 8f3d
000002e0: a98f 75bd 8eb3 92bd c228 ad3c 9a3c 5ebd
000002f0: 9431 debc ae20 843b 92bb 853d ee71 2b3d
00000300: 19af bc3c 90f7 71bd 4738 1fbd d723 b8bd
00000310: 5512 613b 39a8 be3d 8b97 dc3c d712 7d3c
00000320: 592f 923d acf8 6838 15b6 8bbb 8535 bd3d
00000330: 5cdc 5cbd f931 703c 3aa6 e8bc f8fc 773d
00000340: b5b3 b33d b270 2d3d aaa3 03bd de14 313d
00000350: 3878 eb3c 7796 943d bb63 933d 5dea 2b3c
00000360: da44 17bd 97ee ce3d 6e33 523d fbf7 a53d
00000370: 0a51 4ebd ee14 21bd 2eaf babc 0658 b33d
00000380: d10d 7cbd 914e 45bb 802a b33c 9bfc 833d
00000390: 9f66 983c 245e 113d f1a9 d73b a908 643d
000003a0: 4521 f53c 051d 4ebd 3142 743a 95ed 613d
000003b0: 1a53 603c 32e2 943c 97ed c03d d273 863d
000003c0: 90a5 be3d 3a5f 103c 8c9e 853d 9eb6 9b3d
000003d0: 6360 4bbd 930f 8bbd 630e 80bd ffaa 31bd
000003e0: 5ee0 853d fd53 9cbd b028 993d 7f8f 823d
000003f0: 3111 98bb 0c22 9dbd 00dc 803d 2dbf 21bb
-0.018171681 0.06135318 -0.036223043 0.007236855 -0.0012861517 -0.06335917 0.007353495 0.06785821
0.015055003 0.05447787 -0.05937778 -0.06851818 0.07095121 0.07294419 0.026453855 0.08037632
-0.03542469 -0.06461873 0.026463592 0.0122974 0.03183977 0.051746827 -0.044990413 -0.02707377
-0.047556628 -0.07854315 -0.021720625 0.07841228 -0.06708991 0.04824234 -0.04430734 -0.062121216
0.0044217794 0.05042163 0.0042055356 0.020922076 -0.07217073 0.060335368 -0.059241895 0.03359964
0.07896636 0.0088494485 -0.08096193 -0.07614228 0.029115055 -0.065515906 -0.054115526 -0.03056991
0.017842567 0.024173072 -0.047627863 -0.017014207 0.05350701 -0.06775026 -0.0011792335 -0.05056005
-0.01475191 0.012012712 0.05575629 -0.08597484 0.02011017 0.03514812 0.068482414 0.031414557
0.044934303 -0.07522819 -0.030693563 0.012466023 -0.06891881 -0.04281471 0.034223467 -0.037550338
0.0095065 0.03150793 0.07469562 0.07447672 0.015570005 -0.06495553 -0.040808637 0.06336025
0.0649992 0.031160388 -0.06808281 0.005472628 -0.00351469 -0.018296778 -0.035283145 0.025036318
0.06763923 -0.042247873 0.041436322 -0.061522957 0.029388204 -0.08525824 0.02427718 0.026242396
-0.070007406 0.021754045 0.013580982 -0.0749633 -0.051131062 0.0069709495 -0.0132859545 0.0012813745
0.047177795 0.051902022 -0.059363075 0.038725156 0.025427198 -0.025625227 0.022471884 -0.03054348
-0.010364114 0.06661066 -0.013018103 -0.018906407 -0.080738 -0.0072385306 -0.08222488 0.007111247
-0.018895173 -0.03758827 -0.010473324 0.03520454 0.03463671 -0.0063336813 -0.08194251 0.027156107
-0.003442124 -0.0060681053 -0.021103755 -0.056329083 -0.050899822 -0.015606316 0.039964903 0.046052936
0.0716791 -0.00083751656 -0.00095114345 -0.03645815 -0.031553194 0.07799353 0.00955311 -0.08266877
0.02455285 0.05695688 -0.037497044 0.04734997 -0.054548748 0.0055196052 -0.061267097 -0.0757224
0.010098161 0.0052204863 -0.051106572 0.025706593 -0.00018135089 0.055736564 -0.021489605 -0.0069354144
0.030588316 -0.036264703 -0.05953896 0.012716514 -0.06270737 -0.02249359 0.026578829 0.062816076
-0.018447813 0.040701978 0.013367837 -0.063263066 0.043446 -0.07962288 -0.091482684 -0.08385954
-0.06831705 0.052551378 -0.016001008 -0.082831725 -0.0063905213 0.034717616 0.05731797 0.07018614
-0.059951458 -0.071631536 0.021137599 -0.054257013 -0.02712325 0.004032216 0.06529917 0.0418567
0.023032712 -0.059073985 -0.03887203 -0.08991211 0.0034343202 0.0930943 0.02692773 0.015446386
0.07137937 5.5544704e-05 -0.004263649 0.09238724 -0.05392109 0.014660352 -0.028399576 0.060543984
0.08774511 0.042343803 -0.032138504 0.04323279 0.028743848 0.072552614 0.071967565 0.010492888
-0.036930896 0.10104101 0.05131858 0.08103939 -0.050370254 -0.0393266 -0.02278861 0.087570235
-0.061536614 -0.0030106644 0.021870852 0.06444665 0.018603621 0.03549017 0.006581538 0.05567232
0.02992309 -0.050320644 0.00093177246 0.055158217 0.013691688 0.018174265 0.09420317 0.0656506
0.09308922 0.008811766 0.06524381 0.07603191 -0.04965247 -0.0679008 -0.06252744 -0.043375965
0.06536935 -0.07633207 0.07478464 0.06375026 -0.0046407213 -0.076725096 0.06291962 -0.00246806

base.0.bias f4 [64]
00000000: e181 c3bb a38a ebbc 8bbd 353c 4018 9bbd
00000010: da83 31bc 3326 b23c 460d b1bc 0af8 703c
00000020: 400f abbd e3c5 9cbc e274 efbc ede3 1abb
00000030: 0638 e0bb 42f7 5fbd 4e3b 4ebc ae82 273d
00000040: 3af3 7b3d aefa e33a 5f97 1b3d 9d20 523d
00000050: cd07 a4bc ba23 a9bd 4adc 2dbc aa91 23bd
00000060: 978f b5bd 4c5f 643d 80f9 16bd 9df2 243d
00000070: 3aa0 c93b 2622 033d ab1b b83c 8435 823d
00000080: 1c1e 593c 946c fa3c 7560 97bd 12e0 833c
00000090: 6d0d 8cbd c9ec f6bb f7a2 c53c f52b 17bd
000000a0: 8656 633d 9bef 53bd 6f91 903d 5d63 a83d
000000b0: 56f9 a4ba f4f0 49bd 3b5a abbd 9cfd 9abd
000000c0: f0f7 02bd c297 31bd afca babd a316 bfbc
000000d0: 04ea 12bc 36ee 57bd 10bc 163b 3dee 58bd
000000e0: 243f d53c 16fd 71bc ed8c 683d 8a90 9abd
000000f0: 0e75 943c cd6b 3a3d b85b 1c3d 878d 6b3d
-0.0059664105 -0.02875263 0.011092554 -0.07572985 -0.0108346585 0.02174673 -0.021612775 0.014707575
-0.08352518 -0.019137328 -0.029230539 -0.002363439 -0.006842616 -0.054679163 -0.0125873815 0.04089611
0.061511256 0.0017393434 0.037986156 0.051300634 -0.020023251 -0.082587674 -0.010611603 -0.039933838
-0.08865278 0.055754945 -0.036859035 0.040270437 0.0061531337 0.03201499 0.02247413 0.063578635
0.013251808 0.030569352 -0.073914446 0.016098056 -0.06838498 -0.007535551 0.02412556 -0.036907155
0.055502437 -0.051742177 0.07058989 0.08222077 -0.0012586515 -0.049302056 -0.083668195 -0.075679034
-0.031974733 -0.04335762 -0.0912069 -0.023326224 -0.0089669265 -0.05271741 0.0023000278 -0.052961577
0.026031084 -0.014769813 0.056775022 -0.075471 0.018122222 0.045512963 0.038173407 0.057508018

res_blocks.0.conv.weight f4 [64, 64, 3, 3]
00000000: 0003 bfbc ea6b 103b c7d9 a1bc 7bc7 51bc
00000010: e999 d7bc 96cc a13a fae0 cb3c 2e11 67bc
00000020: 1828 363d 169f 45bd f7e7 033c 693e 16ba
00000030: f920 debc 0796 0abd 1a6b e13c fb7f c4bc
00000040: 37ab 803b f9c6 f63c 4ac6 b3bc 674b ed3c
00000050: b63d 443d ea2a 183d 1310 ec3c cd43 183d
00000060: 4636 5b3c be1e 713c 0371 353c d0cb 343d
00000070: ed39 643b 8fc6 083d 4328 153d 9f06 143a
00000080: 2520 fa3a 3799 bc3c 15f2 60bc 011c 283d
00000090: 433a 803c ea13 6ebc dcd3 1ebd 368e fdbc
000000a0: cd07 60bc 095e fb3c 38b9 333d 207c 193d
000000b0: 125f 293b 4a85 7abb 557c 0abc 3ad1 e5bc
000000c0: 6e54 e4bc 7031 4a3d e803 053d 74bb 8fbc
000000d0: 5e1a 633b b65d df3b 84d1 ecbc be4a 433c
000000e0: cf1b dbbc 2b1d 3d3c d9ee 123d 4a1e 12ba
000000f0: 7fd5 3b3c 3ea2 d43b 7663 34bc f5a7 c43c
00000100: 8228 f43b 3854 5cbc ecf6 933c ef30 91bc
00000110: 5107 17bb 6cc2 f33c 0113 bb3c 4da0 b63c
00000120: ddfd 163c 3d5b 423d 559d 283c 0034 153d
00000130: 4426 9f3c e8db 08bc 649c 2c3d 4e78 a5ba
00000140: 399a 863c 11f7 953c d054 523a 9356 a4bb
00000150: bdbc e5bc 3d25 003c 0d1e 03bc ce6b 57bc
00000160: 648a 2d3d 617f 013d ae58 03bd f40e 6ebd
00000170: 5fda 26bd 083c b5bb cd8c 7dbc 8b37 02bd
00000180: 9a6a e73b 829b d7bc 4b62 d3bc 81d4 e6bc
00000190: 23c6 21bb a13a 843c b276 abbc 47a5 9f3c
000001a0: fee8 11bd 7e28 8c3c 4dd9 f9bc 9040 73bc
000001b0: 8bcc 01bd d913 1e3d a4e3 ea3c 64c2 233d
000001c0: fecb 313b cd5b 73bc 3d07 0cbd 3ae3 c63b
000001d0: 3a6e bcbc c9ac 503c 829b acbb 96e9 363d
000001e0: 53ba aabc f27d eebc b049 c0bc be82 ecbc
000001f0: 2421 663c 1c1b 13bd bb62 eb3c 0ed8 a3bc
00000200: 9d7f cabc 8536 e33c 132d c3bc 97be 793c
00000210: 110f 0d3d 7a97 643c dfeb 193d 5846 5bbb
00000220: 0291 05bd a980 d83c f9eb f038 720f e939
00000230: 996d 103d e568 343d f925 ee3c 23df 4d3d
00000240: a291 85ba d9cd 253d 0bbc 2d3d 2d2e b8bb
00000250: 3979 103c 1e55 a3bc 099d 09bc 875e 903c
00000260: 4e18 03bd 946f 813c bb77 1a3d 66f6 7bbc
00000270: 5147 c2bc cfce 5ebb a0d4 dc3c 153e 453c
00000280: b283 343d e1ec 183d d83d c13b b043 7cbc
00000290: 239b 26bd 7fa1 2b3c d73d bb3c dd0f d1bc
000002a0: 492e ab3c a604 043a 4945 d63c b6df 113c
000002b0: 7532 d83c 1daa 07bd b1b5 853c c949 133d
000002c0: 079e f93c aa12 e13c 95e8 9a3c 1d23 bf3c
000002d0: ab01 02bc a3ac fa3b 13a4 4a3d b7ba 6e3c
000002e0: 4d0d 2f3d 3aa8 b53c a81c 2f3d 4e8e b43c
000002f0: b019 2d3c 2f50 a53c 391b 343d 2509 36bd
00000300: 955f 0a3d 9c13 42bb 5f88 ddba efad 7dbc
00000310: 14e5 d03b 0d69 fc3c 2d1f 713d 3fbb 3a3d
00000320: 56d8 3b3d 51bb 6e3d 2f96 6cba a46a 453b
00000330: 117b a83c 0e03 1e3c 2617 f43c ebae 1bbb
00000340: d4d5 693d c1a2 6cbc 4095 a6ba 5d08 9f3a
00000350: 84f6 f53c 7794 4ebc 49ec 4b3d 9f51 cb3b
00000360: 89a0 bb3b 8aac e13a a2eb 593a 34c3 873c
00000370: e9b7 23bd df3d a4bc a1f6 f9bc e474 323d
00000380: 89a7 82bc ec66 9e3c da5d 133d 0e36 93bc
00000390: 0869 173d 6248 fcbc 6c32 b63b 39c2 9f3c
000003a0: 2f42 dfbc 16f7 c8bc 8699 063d ea2a 033c
000003b0: 3cbe 263d df1c 433b 489b 453c 5018 833c
000003c0: 1db0 af3c 7aba 473c b7b0 9e3c b994 61ba
000003d0: 61f3 b0bc 402d 4b3c 385f 933c 999d 5ebb
000003e0: 3503 4e3c b987 273d 136c 3d3d e6ca 6f3c
000003f0: d03b eebc 5947 c93c 7857 823c 759b f73b
-0.02331686 0.0022036978 -0.019757165 -0.0128039075 -0.026318507 0.0012344297 0.02488755 -0.014103217
0.04447183 -0.04824742 0.00805091 -0.0005731346 -0.027115332 -0.033834483 0.02751689 -0.023986807
0.0039266604 0.030124174 -0.021945138 0.028966619 0.047910415 0.0371503 0.028816259 0.037174035
0.013379639 0.014716802 0.011074307 0.044139683 0.0034824566 0.033392485 0.03641535 0.00056467386
0.0019083066 0.023022277 -0.013729592 0.04104233 0.015652781 -0.014531115 -0.038776264 -0.0309516
-0.013673735 0.030684488 0.04387781 0.03747189 0.002584402 -0.003822642 -0.008452495 -0.028053869
-0.02787229 0.049363554 0.03247443 -0.01754544 0.0034653167 0.006816591 -0.028908499 0.011919675
-0.026746659 0.011542599 0.035872314 -0.00055739714 0.011464476 0.0064890673 -0.011010041 0.02400587
0.007451118 -0.013447814 0.018062077 -0.017723529 -0.0023045132 0.029755794 0.02283621 0.022293234
0.009215799 0.047450293 0.010291417 0.036426544 0.019427426 -0.008353211 0.042141333 -0.0012624355
0.016430961 0.018306287 0.00080235023 -0.0050152033 -0.028044099 0.007821378 -0.00800277 -0.013148261
0.042368308 0.03161562 -0.032066993 -0.05811973 -0.0407356 -0.005530838 -0.015475464 -0.03179125
0.0070622684 -0.02631927 -0.025803706 -0.028177502 -0.002468475 0.016141238 -0.020930622 0.01948799
-0.03562259 0.017109152 -0.030499125 -0.014846936 -0.031689208 0.038593147 0.028673 0.039980307
0.0027129645 -0.01485343 -0.03418659 0.006069568 -0.023001779 0.012736508 -0.0052675614 0.04465636
-0.0208408 -0.02911279 -0.023472637 -0.028870936 0.014045987 -0.035914525 0.028733602 -0.020000484
-0.024719054 0.027735958 -0.023825204 0.015243194 0.034438197 0.01395213 0.03757846 -0.0033458676
-0.032608993 0.026428537 0.00011488045 0.0004445273 0.03526077 0.044045348 0.029070841 0.050261628
-0.0010190497 0.040479515 0.04241566 -0.005620739 0.008817964 -0.019938048 -0.0083992565 0.0176232
-0.0320056 0.015800275 0.03771184 -0.01537857 -0.023715647 -0.003399778 0.026956856 0.012038727
0.044070907 0.03733528 0.005897265 -0.015396997 -0.040675294 0.010475515 0.022856636 -0.02552026
0.020896094 0.0005036093 0.026156085 0.0089034345 0.026391247 -0.033121217 0.016321989 0.03595904
0.030470861 0.02747472 0.018909732 0.023332173 -0.007934968 0.0076499744 0.04947288 0.0145708835
0.042737294 0.022174943 0.042751938 0.022040512 0.010565206 0.020179836 0.043971274 -0.044442315
0.03378256 -0.002961374 -0.0016901604 -0.0154833635 0.0063749645 0.03081181 0.058867622 0.045588728
0.04586061 0.058284108 -0.00090250646 0.0030123377 0.020566495 0.009644283 0.029796194 -0.0023755382
0.057088688 -0.0144431 -0.0012709275 0.001213323 0.030024774 -0.012608639 0.049785886 0.0062047984
0.0057259244 0.0017217558 0.0008313005 0.016572572 -0.039970312 -0.020049034 -0.03051311 0.043568507
-0.015949028 0.019336186 0.035978176 -0.017970111 0.0369654 -0.030796234 0.00556021 0.019501792
-0.027253238 -0.024531882 0.032861255 0.008005837 0.040708765 0.0029771847 0.012060948 0.016002804
0.021446282 0.012190456 0.019371374 -0.000860523 -0.021600427 0.012400925 0.01798974 -0.0033968447
0.012574007 0.04090092 0.046245646 0.014635777 -0.029081255 0.024570154 0.015910849 0.0075563737

res_blocks.1.conv.weight f4 [64, 64, 3, 3]
00000000: 4575 0fbd dad3 1abd 83f0 08bd efb0 35bd
00000010: c890 163d 0773 2bbc 957d b2bc 9b95 f6bc
00000020: cf64 7fbc 4f75 153d aa8e c43c 0cd0 443d
00000030: a53a a4bc cabc 1a3d 76ad fb3c a517 34bc
00000040: 8c36 ddbc b1c3 633c 85f0 f0bc 684d 6b3c
00000050: 9018 bdbb 1c5e e1b9 c79c ec3b ce80 293d
00000060: d377 133c b5e0 e7bc b084 a33c ac7c a5bb
00000070: 965f f53c 0ad8 233d 2a47 163c 98cb cebc
00000080: 8ae7 a7bc 8a2e 213d 769f 9d3c ac22 bd3c
00000090: 6b22 2ebc 6f51 413d 2182 163d e6f1 653d
000000a0: b148 d0bc 8d3f 8abc 9625 d73c 16ec 833c
000000b0: 3ead 41bb e0fe 003c 6649 f3bc 8b68 133d
000000c0: 19bb 2ebc 8f70 183d b82c 82bc 753d 023a
000000d0: f1db b3bc 1471 ea3c bcd3 96bc 3c90 413d
000000e0: 8b47 713c 8597 96bc 14f8 d9bc 694e ed3c
000000f0: c7f9 153d 7ebc 803c af7a c73c 7ab1 c8bc
00000100: 9a21 4b3c 8f2f 1a3d 6614 293c ade7 8f3b
00000110: 0ae6 de3c d3fc 5cbb dea5 d33b ff51 53bc
00000120: 0f4d 6b3b 0508 0abd 6c30 1abd 83d8 d3bc
00000130: 72a7 0cbd c8d1 d2bc a503 853c 89c8 f83b
00000140: 7cd8 783c 2d16 363d 7d74 9fbc cd56 a3bc
00000150: 8bb4 0b3d e38f b53c 0ea7 0e3d 9815 343d
00000160: bd9d 1b3c 3365 06bd ada9 adbc cf03 253b
00000170: e117 433c bc72 05bd 85b1 07bd 0f2e 283c
00000180: 55e0 abbb 405f 61bc 5285 cfbc a372 babc
00000190: 23a6 b3bc eaab 0a3d 6e4d c6bb 6f5c b6bc
000001a0: 9397 01bc 1762 293d 0edf a6bb 2bed 7fbc
000001b0: 038d 613c 7cc9 06bc 9194 37bc 813d d9bc
000001c0: a899 24bb 929b e83c 1eda 1a3d b6cf 50bc
000001d0: 6dfd 403d 7c41 133d b97e aabc 3ff7 3e3d
000001e0: ebbe 243d d2f9 3a3a 1107 c93c 246f 883b
000001f0: 31f0 1f3d 9a80 3a3d fc58 0ebb c252 92bc
00000200: 2922 f63c a401 663b b91a 333d 03d8 8cbb
00000210: 61d2 0c3c 626a 9f3c 980b b73c 5085 a6bb
00000220: 22d4 33bc 9409 543a 5127 513d cacc 263d
00000230: f362 acbc 07d1 8539 dac9 3e3d 6657 583c
00000240: f184 153d a54a bf3c 60d0 363d d755 abbc
00000250: 11db a13c a72d ff3c 72e4 433d c3cd ce3b
00000260: 804e a63c fd7a a7bc d637 3a3d ee85 033d
00000270: 9386 233d 5bbd 3b3d 2855 8bbc 7e74 9d3c
00000280: 6fb1 fdbb 5b83 203d e0b5 213d ab89 0d3d
00000290: 397a 513c 73ab 2b3d d78f 7ebc 36f4 10bc
000002a0: 9d4d 8f3c 6569 fc3b b001 843c d142 a53c
000002b0: b71c c43c 6f2d 463d d01a 4e3c 96a6 17bb
000002c0: 5b49 863c 72ec c2bc e572 ff3c 35e6 2a3c
000002d0: 6143 0e3d e8c2 cf3c ea1a b63c ae17 513c
000002e0: 12d4 d9bc 0432 9fbc 8b5a f4bc 4bdf ddbc
000002f0: 79b1 903c a3b5 a33c cdae f93c 8fd4 513d
00000300: bd58 dc3c 118b 9cbc 61a3 bcbc 25c3 b4bc
00000310: 9507 073d 421c 0f3d e114 debb 0f6c 43bc
00000320: 2e98 493d cd84 3dbc 8edb 3c3d 839e fe3c
00000330: 980a 82bb dd95 d139 cdd0 3a3d f41a 10bd
00000340: 9bdd e8bc ad41 b3bc 0d91 2e3d 64da 143d
00000350: 518f 723c 0e5a 813c 20db 85bc 0ebe 893c
00000360: a1a9 ccbc d765 963c 4db8 e63c 2a25 c93b
00000370: 929d 9c3c 9a0a 1dbc e638 393d cfa8 713c
00000380: 7a61 5a3d 8f38 a53c 4dd2 913c 40c7 c1bc
00000390: d784 fb3c a94a 15bc c251 5dbb 54c0 243d
000003a0: ef6a 5b3c d9d4 4c3d da60 62bc 08bd 413d
000003b0: 5098 34bc 1e4e 26bc eba7 573d 0a24 fdbb
000003c0: 900f 333d 417a c63c f493 833c 0947 5b3d
000003d0: e458 d93c c990 c83b 310a aabb ebda 313b
000003e0: 6001 523c c789 b53c 21cc 1d3d b68a 48bc
000003f0: 81d5 213c 24f2 0ebc 42da 07bd d960 303d
-0.035023946 -0.037799694 -0.033432495 -0.04435819 0.036759168 -0.010464436 -0.021788398 -0.030100634
-0.0155879995 0.036488827 0.023993809 0.04804997 -0.020047495 0.0377777 0.030722361 -0.010991965
-0.027003549 0.013901637 -0.029411564 0.014361717 -0.0057707503 -0.0004298546 0.0072208378 0.041382603
0.009000736 -0.02830539 0.019960731 -0.0050502624 0.029952805 0.040000953 0.00917224 -0.025243565
-0.020496149 0.039351024 0.019241076 0.023087822 -0.010628323 0.0471968 0.036745194 0.056138895
-0.025425287 -0.016876006 0.02626304 0.016103785 -0.0029552723 0.007873267 -0.029698085 0.03598837
-0.010664725 0.03721672 -0.015890464 0.0004968264 -0.021955462 0.028618373 -0.01841151 0.047256693
0.01472653 -0.018382797 -0.02660755 0.028968053 0.03661516 0.01571488 0.024350492 -0.02449869
0.012398148 0.03764301 0.010319805 0.0043916316 0.0272093 -0.003372003 0.006458982 -0.012897967
0.0035904085 -0.033699054 -0.037643835 -0.025860077 -0.034339376 -0.025734797 0.01623709 0.007592265
0.015188333 0.044454742 -0.019464726 -0.01993885 0.034107726 0.022163337 0.034827285 0.043965906
0.009498057 -0.032811355 -0.021199072 0.0025179272 0.011907549 -0.032580122 -0.03312828 0.0102648875
-0.0052452483 -0.0137556195 -0.025332127 -0.022759741 -0.021929806 0.033855356 -0.006051711 -0.022260873
-0.007909673 0.04135331 -0.005092508 -0.01562051 0.01376653 -0.008226749 -0.011204855 -0.026518585
-0.0025116 0.028394494 0.03780567 -0.012744835 0.047116686 0.035951123 -0.02081238 0.04662251
0.040221136 0.0007132563 0.024539502 0.0041636396 0.039047424 0.0455328 -0.002172052 -0.017861728
0.030045586 0.0035096193 0.043726657 -0.0042982115 0.00859508 0.019459907 0.022344396 -0.00508181
-0.010975869 0.00080885855 0.051062886 0.040722646 -0.021043276 0.00025523474 0.04657922 0.013204431
0.036503736 0.023351023 0.044632316 -0.020914955 0.01975778 0.031149698 0.047825284 0.00631115
0.020301104 -0.020444388 0.045463406 0.032110147 0.03992326 0.04583488 -0.01700838 0.019220587
-0.007742099 0.03918777 0.03948009 0.03455512 0.012785488 0.041911554 -0.015537224 -0.008847287
0.017493064 0.0077029937 0.016114086 0.020173462 0.023939474 0.048383173 0.012579635 -0.0023140064
0.0163924 -0.023794387 0.031182716 0.010430862 0.034732226 0.025361493 0.02222963 0.012761993
-0.02659038 -0.019433029 -0.02982833 -0.027084013 0.01766275 0.019984072 0.03047886 0.051228102
0.026897782 -0.01910928 -0.023027124 -0.022065708 0.032966215 0.034939058 -0.0067773913 -0.011927619
0.049217395 -0.011567307 0.04610782 0.031081444 -0.003968548 0.00039975243 0.045609284 -0.035181955
-0.028425982 -0.021881903 0.0426188 0.036341086 0.014804677 0.015790012 -0.016339839 0.016814258
-0.02498323 0.018359108 0.028164053 0.0061384635 0.019118104 -0.009585047 0.04522028 0.01474972
0.053315617 0.02016857 0.017800475 -0.02365458 0.030702991 -0.009112039 -0.0033770655 0.04022248
0.013392194 0.050007675 -0.0138170365 0.047299415 -0.011022642 -0.0101504605 0.052650373 -0.0077252435
0.043716013 0.024228217 0.01606176 0.05353454 0.026531644 0.0061207754 -0.005189203 0.0027138542
0.012817711 0.022160424 0.03852475 -0.0122401025 0.009877563 -0.008724723 -0.03316713 0.04306111

res_blocks.2.conv.weight f4 [64, 64, 3, 3]
00000000: 7546 5fbc e820 043d 575e 09bd 791c dabb
00000010: 4a19 093d dc72 a0bc 2844 99bb ea9c 3f3d
00000020: 2238 5d3d 39bc 40bc 2b28 323c e21f b6bc
00000030: 5454 f0bc a9a9 d9bb 42eb a8bc 3796 1f3c
00000040: 5cd1 16bb 39c7 293d 473c a03b 556f 0f3c
00000050: 89ce d9bc 24a8 84bb 65c6 ffbc 5b7c c93c
00000060: 636f 1f3d 9d13 89bc e59d ccbc 8fb8 b1bc
00000070: c793 f33c 60ec 123d f358 cebb 0ddc ecbb
00000080: d92d 453d f138 03bd 5228 b23c d687 443c
00000090: e699 02bd 750c 953c ed25 0fbd 1bfb d93a
000000a0: 1a0a 953c b14b b4bb b156 ff3b 40c4 c43c
000000b0: cdad d13c f6ef 183c aff2 563b 6919 9cbc
000000c0: 68de 2a3d 9154 333d 3e12 ae3b 7dc3 343d
000000d0: 892b 223d ff02 133c 0c51 acbc 87d5 89bc
000000e0: f130 543b 996c 383d c7a6 313d f60a babb
000000f0: 84e7 203d b6e4 a33c b27f 66bc ef06 89bc
00000100: 98ec a53c 2579 043d 813d 993a 7ee0 163d
00000110: d106 d73b a04f 073d a263 c1bc b28d 7d3c
00000120: 8eff a03c 5fed 5d3c d921 2abd 0baa 0bbd
00000130: 6f7a eabc 5514 b0bc 8acc 0fba 11a2 0dbd
00000140: 21d8 04bd 7c4e e2bb 3673 86bc 7e29 3d3d
00000150: 8006 3e3c 61b2 183d 63cb 8dbb 6316 ebbc
00000160: 1a14 7abc b194 99bc 5548 69bb 1397 15bd
00000170: 6902 1ebc 9b50 103c 9396 1abd 7cce 593c
00000180: c4ad d236 2580 103d 4fd8 613c 4c90 cebc
00000190: 7ebf 6b3c 673c 813c f4cb a83c ce5c 9e3c
000001a0: 124a 133d d134 443d e90f 6f3c 7d57 4d3d
000001b0: 8336 033d 0686 3a3d 1deb c4bc d30e ce3c
000001c0: 0248 963b 626a 2abb 42d4 6a3b 922f eabc
000001d0: c559 1b3c 9019 91ba 3276 033d eda9 273d
000001e0: 8520 063d d4b2 893c 3b64 b8bc 635c 83bc
000001f0: 3300 0fbd 0cd9 2d3d 726e 373d 6fdc d73c
00000200: 8a76 37bc 5fad 073c ede2 c23b c235 043b
00000210: 2047 093d 89bf dbbc 3dde ebbc 3c00 dbbc
00000220: d6f0 593d 4e1b 0f3d 26f5 7b3c c03b 0cbc
00000230: f822 8bbc 1981 b0bc 6918 3abc 2a54 4e3d
00000240: 2a18 023d 3faa 653c 3c26 333c 9661 2f3d
00000250: da15 1b3d fd5a d63c 88ed f33c 3aeb 483c
00000260: f391 70bc ec0b c73c fcd4 e6bc ae2d fd3b
00000270: e18d 35bc c2a3 01bc c0dd e5bc 06ce 183b
00000280: ca66 dfbb 691e cd3c cbc7 32bb e647 1d3d
00000290: 0451 963b 613a 1e3d 3653 eb3b 49ae 433d
000002a0: 0005 98bc aceb 32bc d534 3a3d 2088 00bd
000002b0: 33b8 873b 99aa 1ebb e8f0 af3c b719 95bc
000002c0: 77c3 2f3d 58f2 953b 8bf1 a3bc 3489 c03b
000002d0: fce8 4d3d 8329 bc3c eb29 a23c 0644 d13c
000002e0: d8f8 993a f807 713b b74b b93c 30d2 0f3c
000002f0: 9a98 c33c 8eb6 183d 4fe1 d7bc 2128 1b3d
00000300: 01bd 143d 1c1a 8dbc 8517 353d e43a 8f3b
00000310: 62aa 0c3c 7108 783a 2bea 203d 81d7 543d
00000320: 6809 923c b3f7 333d 24bf 2b3d 8230 3e3d
00000330: 78d7 f13c 32e6 463d 6733 e23c 9d02 4abc
00000340: 1489 8b3b 7933 21bc 21d5 9fbb 3ccc fd3c
00000350: 1bb5 5a39 b727 a5bc 7a34 3d3d fc55 05bd
00000360: 70d4 c23c 0abe 2a3d 4846 20bc 08da 063c
00000370: 6176 663c ac38 543a 847b 01bd 17de 9fbc
00000380: c9d8 033d d5f8 863b 098d b93b 021a 8c3c
00000390: af52 4d3d 8e30 ccbc 4a53 d739 98c1 fd3c
000003a0: 5298 acbc e663 f2bc 5d62 193d b9ea 303c
000003b0: 3ebd c6bc cc06 b3bc 9625 2b3d 1b9a 3d3b
000003c0: f550 d43c 6b82 abbc 4f55 cbbc dd73 c13c
000003d0: 2ff1 e6bc 71ea 2c3c 2979 82bc 4770 c3bb
000003e0: f5d9 023c 8ebc 6f3c ec4c cc3b 2045 183c
000003f0: 4dc1 97bc dac0 0e3d 9374 363c 3bff 023d
-0.013627638 0.032257944 -0.033537235 -0.0066562262 0.033471383 -0.01958602 -0.0046773143 0.046780504
0.05400861 -0.011763626 0.010873835 -0.022232 -0.029337086 -0.0066425395 -0.020619992 0.009740404
-0.0023012972 0.04144976 0.004889998 0.008754571 -0.026587741 -0.0040483642 -0.031222532 0.02459543
0.038924586 -0.016732985 -0.024977634 -0.02169445 0.029733552 0.035869956 -0.0062972247 -0.0072283805
0.048139427 -0.032036725 0.021747742 0.011995276 -0.03188505 0.018194417 -0.03494828 0.0016630621
0.018193293 -0.005502187 0.007792317 0.02401936 0.02559557 0.009334555 0.003279846 -0.019055085
0.04171601 0.04378182 0.005312233 0.044131745 0.0395923 0.008972882 -0.02103474 -0.01682545
0.0032377804 0.04502544 0.043371942 -0.005677576 0.03928329 0.020006519 -0.014068531 -0.016726939
0.020254418 0.032342095 0.0011691303 0.036835186 0.006562092 0.03303492 -0.023607079 0.015475677
0.019653108 0.013545363 -0.041536186 -0.034097712 -0.028622834 -0.02149407 -0.0005485496 -0.034578387
-0.03243268 -0.0069063287 -0.016412359 0.04618215 0.011598229 0.03727949 -0.004327224 -0.028697198
-0.015263582 -0.01874766 -0.0035596092 -0.03652103 -0.009644129 0.00880828 -0.037741255 0.013293859
6.2787167e-06 0.03527846 0.013784482 -0.02521529 0.014388917 0.015775872 0.020605065 0.019331362
0.03595931 0.047901932 0.014591196 0.050132263 0.03203441 0.04553797 -0.024037892 0.025153553
0.0045862207 -0.002600335 0.0035832082 -0.028587136 0.009481852 -0.001107024 0.03209514 0.04093354
0.032745857 0.016808905 -0.022508731 -0.016035264 -0.0349123 0.04244332 0.044783063 0.026350228
-0.0111976955 0.008281081 0.005947462 0.0020173644 0.033515096 -0.02682473 -0.028792495 -0.02673351
0.053208195 0.03493815 0.015378272 -0.008559167 -0.016984448 -0.021545934 -0.011358359 0.050373234
0.031761326 0.014017641 0.010934409 0.042817675 0.037862636 0.026166433 0.02977635 0.012263114
-0.0146832345 0.024297677 -0.02817773 0.0077263927 -0.01108119 -0.007912578 -0.02805984 0.002331616
-0.0068176733 0.025038915 -0.002727973 0.038398646 0.0045872945 0.038629893 0.0071815504 0.047773633
-0.018557072 -0.010920446 0.04546054 -0.03137982 0.0041418313 -0.002421057 0.021477178 -0.018200738
0.04291102 0.0045760088 -0.020012638 0.005875731 0.05027102 0.022969013 0.019795379 0.025545131
0.0011747135 0.0036778431 0.022619111 0.00877814 0.023876477 0.037283473 -0.026352553 0.037880067
0.03631306 -0.017224364 0.044211883 0.004371034 0.008585544 0.0009461707 0.03928582 0.051963333
0.01782675 0.043937396 0.041930333 0.04643298 0.029521689 0.048559375 0.027612401 -0.012329725
0.0042582843 -0.009838932 -0.004877702 0.030981176 0.00020857567 -0.02016054 0.046192624 -0.032552704
0.023782939 0.04168514 -0.009782381 0.008230694 0.01406631 0.0008095603 -0.031611934 -0.01951508
0.032189164 0.0041190186 0.0056625647 0.017102245 0.05012768 -0.024925496 0.0004107005 0.030976102
-0.021068726 -0.02958865 0.037447322 0.01079815 -0.02426016 -0.021853827 0.04178389 0.0028930965
0.02591751 -0.020936212 -0.024820952 0.023614818 -0.028191177 0.010553942 -0.015926914 -0.0059643122
0.007986535 0.014632357 0.0062347557 0.009293824 -0.01852479 0.034851886 0.011136192 0.031981688

global_pool.0.weight f4 [64, 64, 3, 3]
00000000: 39a0 4c3b 8961 0ebd 1160 f13c 3184 913c
00000010: 98d0 bcbc 6ecc 313c cd93 9bbc 2ee0 cc3c
00000020: 736d 1037 e194 fe3b 5ae3 2dbc 260a e93c
00000030: 0d74 cb3a bdcf 0dbd 0a95 5bbc 4d2c 323d
00000040: f556 03bb 01ac dd3c 59bc d63c 24cf aebc
00000050: 5541 653c ce7e 42bd ecb8 32bd 5117 7bbd
00000060: bc06 ccbb c8b6 5dbc d7d7 58bc 03f2 053d
00000070: bf2d e4bc 0d13 bbbc 5e30 f4bc 8dfb 3bbd
00000080: a4e4 763c 12f0 8cbc 45e0 68bc 2419 30bb
00000090: e039 d7b9 531c ddbc 50bd 8ebc b12c 53bb
000000a0: ccf7 4abd 8c24 f1bc ced1 14bd 949b b83b
000000b0: f2c4 a93c 1716 523c a49b 0b3d ba80 06bd
000000c0: 5fda c0bc abec 07bd b805 27bd c17c 3dbd
000000d0: f9d2 87bc db93 01b9 d684 9bbb 4eda 8d3c
000000e0: beb8 1cbd 0161 17bc f168 dc3c d14f e53c
000000f0: f528 03bd d278 2ebd 6120 003d e4fb dabc
00000100: cd89 033d 0cdc b53c a38f b53c e50d ff3c
00000110: fa67 143c f13e c53c df1c 79ba 52e4 19bd
00000120: d93a d8bb f9b2 1cbd c372 893c d118 e33b
00000130: ddc3 9abb a051 a63c 7c68 933b ba19 143d
00000140: 00df d0bc 76b2 31bd 9051 693a c9a6 013d
00000150: 20c3 d3bb cb5f 073a e8b3 b6ba b68a cabc
00000160: 75b2 553c 0ca8 303c 3748 f7bc 4965 02bd
00000170: 589c 31bc 69de 093d 818c 1cbd 4544 f43c
00000180: f7fb 05bd ceba ea3c 5be4 163d 3e37 e63b
00000190: f5af 09bd 5aee 30bc bea3 e13a 32eb 963c
000001a0: dfef b3bb 406e 1c3d c28a 0bbd 7a47 aabc
000001b0: 5c50 10bd d66e 1a3b 21fd 13bc bf0c d4bc
000001c0: 94d9 323c 693d 9dbc 344e 47bd 0d5e d4bb
000001d0: 6246 033b caf8 093d 57db 29bd 01a2 ff3b
000001e0: 5281 06bd 0921 5c3c df35 6cbc b26e fa3b
000001f0: 7091 38bd 9a60 19bc d2f0 3fbd 731f c93a
00000200: 02b1 e83c 11eb 9cbc 6638 303b 85ef a2bc
00000210: 7b43 da3c fd08 883c 32df babc 8e88 a6bb
00000220: 4922 bb3b 9d73 02bd 8f08 e1bc 7d9e 943c
00000230: 394d 8dbc 0f5d 0d3c 55e5 4b3c b01f 41bd
00000240: 8975 0e3d 6cf6 883c 37ea a83c a0b8 ec3c
00000250: 0a5f 2bbd 9a87 a5bb 1ede 7e3b f1d7 0cbd
00000260: 77e6 e4bc e09a 623c 31ec 0c3d 27cb 553c
00000270: da08 343c 8e78 f83c 8758 40bd 92ce f6bc
00000280: 733b a13c 7d6c 1bbd 3e8e 313b 47d9 f8bb
00000290: 5b57 96bb e158 473c 2adb f1bc bf34 dabc
000002a0: 99fb 1abd f786 28bd 21f6 10bd 7e03 36bc
000002b0: d2ce 4fbc ca68 7ebc 2960 13bd 90d8 19bd
000002c0: 18db 8cbc 149a 22bd d685 9bbb b2c6 c8bc
000002d0: 1355 5abc f08a 73bc ddf4 3a38 9fc1 d0bc
000002e0: 1ffa d43c df46 21bd 1b09 b33c 4f8f 02bc
000002f0: 3d1e 313c abe4 023d 5be8 233d 6f46 e5bc
00000300: 4d96 19bb 59ad 72bb b408 8c3c 74e3 c2bc
00000310: b0a8 1c3c c6f2 853c 0ad6 743b 1f26 3c3c
00000320: 6a21 e0ba a770 54bd 6e22 cb3c 46c6 5a3c
00000330: f42d 573b e313 ea3c a163 8c3c 31f0 48bc
00000340: eaa0 dc3c d365 b63c efb2 babc ebe6 453c
00000350: a34c 21bb 1f7b 14bd 301d acbc 0f91 c73c
00000360: 4d23 d03c c13e bc3c 4d94 923b c6b1 bd3c
00000370: 02e7 913c a4e8 b23c a4aa 9abc 6dea ba3c
00000380: f9ac 80bc 487e a4bc c5ab d6bc 2137 6dbc
00000390: b410 ff3c 4c0f c93b 7d4d 993c 176e 4d3c
000003a0: 2f29 a3bc 0e63 e43c 5769 3f3c 82d3 e1bc
000003b0: 3313 0bbd eb89 9fbb 5151 f33b 3dd4 ffbb
000003c0: 5366 d0bc 8d98 6dbc 6a2c 46bd 5b4f cebc
000003d0: d234 f73b 8e2f 71bc d121 bd3b d5a6 c139
000003e0: d0ea 6f3c 361b 4abd 3ebe 1cbd 8a0b 3ebd
000003f0: 41ab 033d e2d1 283c 4757 cabc c3c4 adbb
0.003122343 -0.034760986 0.029464753 0.01776323 -0.023048684 0.0108519625 -0.018991375 0.025009241
8.608552e-06 0.0077692126 -0.010613287 0.028447222 0.0015522257 -0.034621943 -0.013402233 0.04349928
-0.0020040844 0.027059557 0.026212858 -0.021339007 0.013992627 -0.04748421 -0.043633386 -0.061301533
-0.0062263887 -0.013532348 -0.013235054 0.032701503 -0.027853845 -0.022836233 -0.02980822 -0.045894194
0.015069161 -0.017204318 -0.014213626 -0.0026870454 -0.00041051116 -0.026991045 -0.017424256 -0.0032222683
-0.049552724 -0.029436372 -0.036332898 0.0056337807 0.020723794 0.012822649 0.034083977 -0.032837607
-0.023541627 -0.03318469 -0.04077694 -0.046261553 -0.016580092 -0.00012357479 -0.00474606 0.01731601
-0.03826212 -0.009239436 0.026905509 0.027992161 -0.03202148 -0.042595692 0.03128088 -0.026731439
0.03211384 0.022199653 0.022163218 0.031134555 0.009057993 0.024077864 -0.00095028983 -0.03757126
-0.006598812 -0.03825662 0.016778355 0.0069304486 -0.0047230558 0.020302594 0.0044985395 0.036157347
-0.02549696 -0.043383084 0.00089003984 0.0316532 -0.0064624697 0.00051641156 -0.0013939114 -0.024724346
0.013043036 0.010782253 -0.030185802 -0.031834874 -0.010840498 0.033659372 -0.038219932 0.02981771
-0.032710996 0.028653529 0.03683887 0.0070256284 -0.03361507 -0.010799015 0.0017214937 0.018422697
-0.0054912413 0.03819108 -0.034067877 -0.020786036 -0.035232887 0.0023564599 -0.009032519 -0.025884984
0.0109161325 -0.019194322 -0.048658565 -0.0064809383 0.0020030965 0.03368453 -0.041468944 0.007801295
-0.032838173 0.013435611 -0.014417141 0.0076425904 -0.045060575 -0.0093614105 -0.046860524 0.0015344456
0.028404716 -0.019155057 0.0026889085 -0.019889602 0.026643505 0.016605848 -0.022811506 -0.0050821966
0.005710874 -0.03184854 -0.027469901 0.01814198 -0.017248737 0.008628144 0.012444814 -0.04714936
0.03478006 0.016719066 0.020619495 0.02889663 -0.041838683 -0.0050515654 0.0038889716 -0.034385625
-0.027941925 0.01383087 0.034404937 0.013048924 0.0109884385 0.030330922 -0.046959426 -0.030127797
0.019681668 -0.03794526 0.002709284 -0.007594261 -0.0045880503 0.0121671865 -0.02952345 -0.02663648
-0.0378376 -0.041144338 -0.035390977 -0.011109231 -0.012683587 -0.015527913 -0.035980377 -0.037560046
-0.017194316 -0.03969772 -0.004746179 -0.024508808 -0.013325947 -0.014864668 4.4573902e-05 -0.02548295
0.025998173 -0.03937423 0.021854928 -0.007968738 0.010810432 0.031956356 0.040016513 -0.027987687
-0.0023435534 -0.0037029593 0.017093994 -0.023790099 0.009561703 0.016351115 0.0037359023 0.011483698
-0.0017099802 -0.051865246 0.02479669 0.013352936 0.0032833787 0.028573936 0.01713735 -0.012264297
0.026932199 0.02226535 -0.0227904 0.012078981 -0.002461233 -0.03625023 -0.021010011 0.024361162
0.025407458 0.022979142 0.0044732452 0.023156058 0.017810348 0.021839447 -0.018880196 0.022816861
-0.01570748 -0.020079747 -0.026204953 -0.014478476 0.031135894 0.0061358567 0.018713707 0.0125384545
-0.019917099 0.027879264 0.01168283 -0.027566675 -0.033953857 -0.004868736 0.007425465 -0.007807283
-0.025439417 -0.014501703 -0.0483822 -0.025184324 0.0075441385 -0.014720811 0.0057718535 0.00036936128
0.014643386 -0.049342357 -0.038267367 -0.046397723 0.032145742 0.010303946 -0.02469982 -0.005302997

global_pool.0.bias f4 [64]
00000000: 6a66 9abb 96c5 b4bc c038 2f3c e194 37bd
00000010: b066 193c c316 bdbc 8f69 3ebc 2efb 09bd
00000020: 058e 183b b1fc 33bd 8162 d23c caa7 cdbc
00000030: 921b a33c c609 463b 5236 273d c63f ddbc
00000040: 8044 dfb9 c6bd 77bc f8d5 c93c bdee 633c
00000050: bfd4 15bd 6ecd 25bd e08b 21bd 5d8a c33c
00000060: 27f9 acbb 22eb 113d 4a21 26bd 8e54 b13c
00000070: eea8 193d 6cd1 f83c 8d80 aa3c 000f 65bc
00000080: 7bfb 57bc f495 e83c 621d 4c3c 44fb 43bc
00000090: b28e a0ba aa33 a03b da73 233d b809 923b
000000a0: 4360 ca3b 49c9 473d 8d19 a13c b74e 81bc
000000b0: 350e 8c3c 9836 5abc d41e 913c 0bce 35bc
000000c0: ed07 3e3d 501b 8dbc fc0d d9bb 3d7f e6bc
000000d0: 96aa 313c ef2e 163d 4684 273d a4b7 263c
000000e0: 2cdc 16bd 483f 3c3b a5db 303b 9218 95bc
000000f0: f79c 8cbb b08c 37bd 7629 2f3b d6e5 8d3b
-0.0047119157 -0.022066873 0.010694683 -0.044819716 0.0093628615 -0.023082143 -0.011621847 -0.03368681
0.002327801 -0.043942157 0.025681736 -0.025104422 0.019910607 0.0030218228 0.04082329 -0.027007949
-0.0004258491 -0.015120929 0.024638161 0.0139119 -0.036579844 -0.040479116 -0.039440036 0.023869688
-0.0052787247 0.03562463 -0.04055909 0.021646764 0.03751462 0.030373298 0.02081325 -0.013980627
-0.013182516 0.028391816 0.012458177 -0.011961762 -0.0012249558 0.0048889713 0.039905407 0.004456725
0.006176026 0.048775945 0.019665504 -0.015784604 0.017096618 -0.01331868 0.017714895 -0.011096488
0.046394277 -0.017224938 -0.0066239815 -0.028136844 0.0108438935 0.036665853 0.04089763 0.010175619
-0.036831066 0.0028724242 0.0026986387 -0.018200193 -0.0042911726 -0.044811904 0.0026727594 0.004330377

head.1.weight f4 [64]
00000000: 6e76 7e3f b593 7e3f 6c76 7e3f 0000 803f
00000010: 9b1c 7f3f a12d 7c3f f7e8 7d3f 0000 803f
00000020: 7dbe 783f 0000 803f c64b 7e3f 8dd7 703f
00000030: 0000 803f 0000 803f 4259 823f 6d76 7e3f
00000040: 2eb5 7f3f 6c76 7e3f 0000 803f b06b 803f
00000050: 0000 803f 0000 803f 3e43 803f e2b3 813f
00000060: b593 7e3f 6c9b 763f b993 7e3f 6c76 7e3f
00000070: 505c 7f3f b051 753f 9de3 7f3f 0000 803f
00000080: e893 7d3f 6216 7f3f 6d76 7e3f ec9a 813f
00000090: 2d77 7e3f b893 7e3f a7ac 7f3f 0000 803f
000000a0: 1475 7e3f f6b7 803f a425 7a3f 981b 803f
000000b0: a1dd 7d3f ce2d 813f eaad 7e3f 3707 813f
000000c0: a5e3 7f3f 6c76 7e3f 4b70 7e3f 6c76 7e3f
000000d0: 0ec2 803f ca67 793f 8e3c 803f 0000 803f
000000e0: d090 773f d979 763f c893 7e3f 904e 7a3f
000000f0: af76 7e3f 0f46 773f 9da6 7e3f 6c76 7e3f
0.9939946 0.99444133 0.9939945 1.0 0.99653023 0.98507124 0.991836 1.0
0.9716566 1.0 0.9933437 0.94078904 1.0 1.0 1.0183489 0.99399453
0.99885833 0.9939945 1.0 1.0032864 1.0 1.0 1.0020521 1.0133021
0.99444133 0.96330905 0.99444157 0.9939945 0.9975023 0.9582777 0.99956685 1.0
0.9905381 0.9964353 0.99399453 1.0125403 0.994006 0.9944415 0.9987282 1.0
0.993974 1.005614 0.97713685 1.0008421 0.99166304 1.0092103 0.9948412 1.0080327
0.99956733 0.9939945 0.99390095 0.9939945 1.0059221 0.97423995 1.001848 1.0
0.9670534 0.96279675 0.99444246 0.97776127 0.99399847 0.96591276 0.9947298 0.9939945

head.1.bias f4 [64]
00000000: 94c9 c4bb 4027 b6bb c7c9 c4bb 0000 0000
00000010: 53ba 713b e60d 743a b37d 48bd 0000 0000
00000020: af94 fabc 0000 0000 138b fbbb 8964 7dbd
00000030: 0000 0000 0000 0000 5596 21bd c9c9 c4bb
00000040: 1ed3 2f3c c9c9 c4bb 0000 0000 3a4d 413b
00000050: 0000 0000 0000 0000 da52 aeba 0cd6 103c
00000060: 3b27 b6bb 0d48 f9bc 7c26 b6bb c9c9 c4bb
00000070: a274 93ba cda2 98bc 54de 923b 0000 0000
00000080: dcc6 2ebc 9a46 c4bb c3c9 c4bb d842 323c
00000090: 4cc9 c4bb 1b27 b6bb 2cf8 bf3b 0000 0000
000000a0: a197 f2bb d565 fc3b 94d3 5cbc 400e f1bb
000000b0: d003 0abc de49 193c f297 803b eebd e33b
000000c0: a95e 05bd c9c9 c4bb 3fe4 c7bb c7c9 c4bb
000000d0: 3213 e8bb e9f3 ebbc dd27 b43b 0000 0000
000000e0: d06c 2ebd bfcd f2bc 1427 b6bb fca5 acbc
000000f0: 57c6 c4bb d5bb 9fbc d02f 8d3b cac9 c4bb
-0.0060054753 -0.005558878 -0.006005499 0.0 0.003688474 0.00093099324 -0.048948 0.0
-0.030588476 0.0 -0.007676491 -0.061863456 0.0 0.0 -0.03945001 -0.0060055
0.010731487 -0.0060055 0.0 0.0029495494 0.0 0.0 -0.0013299838 0.008840095
-0.005558876 -0.030429864 -0.005558787 -0.0060055 -0.0011249969 -0.018632317 0.00448207 0.0
-0.010667529 -0.0059898617 -0.006005497 0.010880195 -0.006005442 -0.005558861 0.005858442 0.0
-0.0074033295 0.007702569 -0.0134781785 -0.007356435 -0.0084237605 0.00935599 0.0039243633 0.0069501316
-0.032560978 -0.0060055 -0.006100207 -0.006005499 -0.0070823664 -0.028802829 0.005497916 0.0
-0.04258424 -0.029639123 -0.0055588577 -0.021075241 -0.0060050893 -0.019498745 0.004308678 -0.0060055004

head.3.weight f4 [64, 64]
00000000: 1a6b 1d3d 8d2a 96bd d708 b3bb d0f6 f2bc
00000010: b5f6 87bd 4683 28bd 6954 f9bd 6427 bc3d
00000020: b766 dabd 1c12 6e3d 35f1 54bd ef0b 1e3e
00000030: acc0 3fbd a2b1 b03d d9c2 09bd e1dd 1fbd
00000040: 9a96 aabd e20d b3bc 8856 63bd cda1 f8bd
00000050: 1054 8fbd 0c5e 63bd 04e0 a33d 3c04 69bd
00000060: 3127 bf3d df7e 413b 8a6f 4ebd 9d41 dd3c
00000070: db5e ffbc b2d3 b0bd 2b55 ab3d 9cae 183d
00000080: 9b77 c8bc 259e 9bbc 420d cc3d 5d25 da3d
00000090: e2dd a43d b056 b2bc 91a0 863d 64a6 203d
000000a0: c98e b9bc 8993 f8bd bc14 78bd f508 9d3d
000000b0: be50 b53d 4417 833d 987a b8bd 34a7 16bd
000000c0: 0e5e 223d 025e 7a3d 056d 88bd 6a54 203d
000000d0: 387f e23d bd47 4cbc 2f18 eabd a862 d8bc
000000e0: 1b32 b23d 5683 29bd 5494 53bb 3b31 8b3d
000000f0: e58e 01be 1f6e 87bd 0209 223d e90b b53d
00000100: 15ac abbb 8ed1 60bc 8b0f d2bc ce82 d2bd
00000110: 4b18 b83d 5cb7 60bd d5f1 b9bc e426 b8bd
00000120: 96e0 d03d ecef 55bd be39 aebd df17 e9bd
00000130: 18aa 29bd 8082 6bbb 64d9 b93d 9817 ca3d
00000140: f0ae e3bd b5fb bb3d 383c a93d 17e4 5e3d
00000150: 3801 5cbd e812 24bd f0d3 a03d 676d e6bd
00000160: 122c c73d e514 a7bd 8f9f ba3d dfd3 d13d
00000170: 0977 2b3d 40f2 463d 2d88 e9bd 84b6 943d
00000180: a2d0 82bd 9b12 9b3d cb06 9c3d 3e0c de3c
00000190: a59e 70bd 80dd 34bd 9d02 043c ec92 bf3d
000001a0: 536d 3d3c 5de4 c13d b736 993c 77bd d33d
000001b0: 6d73 2d3d 3118 013d 411d d5bd 6c1d 55bd
000001c0: 3cd4 543d e10b adbd 06ba 433d 4548 68bc
000001d0: 2ea2 9a3d 3b6f e1bd 7905 19bc f03d ec3c
000001e0: f0f1 61bd d955 c1bd 17ce 013e a048 cb3b
000001f0: 03a6 50bd 001d 08bc b739 e3bd 2ffe 9f3b
00000200: 14ab ae3d 669c 393d 0d75 bdbd a0cd 9fbb
00000210: d341 de3d fa30 afbd 2208 c1bd b48d e63d
00000220: 6ba6 bfbd 0e85 ce3d 9497 253c 86d6 b43d
00000230: 0018 f2bb 5e2d 92bd 12fc 803d 97c5 a83d
00000240: c50f 583d 8496 8fbd 92b3 febd 5b52 83bd
00000250: b0b7 bcbd 4264 a9bd b8fb ef3d 7825 d3bd
00000260: 7529 373d fbc4 acbd 72b9 9cbc faef 413d
00000270: 4a12 1cbd 1f4c cc3d 8a5d 2e3c fcf2 fa3d
00000280: 40fc 3c3c 9441 0cbd 02dd bf3b 5fa5 ba3d
00000290: 09d5 d03c 7325 da3c b8c0 7fbd a062 d43c
000002a0: ca23 863d 54cf 1dbd c1a2 1dbc 31d9 00bc
000002b0: 15ce 643c e433 bc3d 8523 7cbd da8b bf3d
000002c0: 9efc 743d effc 993d 2993 453c 6f9a e43d
000002d0: ede5 613c 72cb c03d 1bf8 be3d 60c5 d9bd
000002e0: 949b 8dbd afe0 733c 32d1 81bb 9fa4 573b
000002f0: bd9f 80bd aed5 1f3d 8d75 113c ad1b ddbc
00000300: f676 8d3d 8c67 1f3d 09e4 b0bd 5225 a2bd
00000310: 8fbf e53d 4139 743d a8f3 8abd 4087 13bd
00000320: a59a af3c c47c 0abd f932 dc3d 5d16 633d
00000330: 160d b53d 267c ba3d 4489 2cbd 4abd 69bc
00000340: 61ac ae3c 8970 e83d 242e 213d c6a7 733d
00000350: 545c 2cbd 02ec babd bac4 943c 348b c1bb
00000360: e522 9abd e59c 83bc 2456 a73d fa7e d13d
00000370: 6a36 583d e6a5 8dbd 5e6e 5bbd 8ce3 71bd
00000380: dc41 663c cc03 d2bd fde3 f23d 0ecc 7bbd
00000390: f28b 5abc 48d7 c3bc 3c12 e33d 7694 e0bd
000003a0: 6b86 713c 532b ee3d c2d0 113e b241 4dbd
000003b0: 9592 103c 1a77 603d 971a dfbd 2452 7b3d
000003c0: 736e 21bd e5f9 54bd ec85 b23d bb3f d2bd
000003d0: 437c d0bd 97b0 9c3d 79cd 85bd 5c8a a1bd
000003e0: ad40 81bd 6cc0 b73b 42d6 f23d 4414 fbbd
000003f0: 6139 d83d 998d 803d cf3c 7f3d 7f89 973d
0.038432218 -0.07332335 -0.0054637003 -0.029658705 -0.066388525 -0.041140817 -0.12174303 0.09187201
-0.106641226 0.05812274 -0.051987845 0.1543424 -0.046814606 0.08627631 -0.033633087 -0.03902996
-0.08329506 -0.021857206 -0.055502445 -0.12140236 -0.069984555 -0.055509612 0.08001712 -0.056888804
0.09333647 0.0029525084 -0.05039934 0.027008826 -0.03117316 -0.08634128 0.08365854 0.037275895
-0.024471095 -0.018996308 0.09963466 0.10651658 0.08050133 -0.021769851 0.06573594 0.039221182
-0.022651093 -0.12137515 -0.06056665 0.07667724 0.08853291 0.06400922 -0.09007758 -0.03678055
0.03964048 0.06112481 -0.06661419 0.039143004 0.11059421 -0.012468276 -0.11430394 -0.02641423
0.08700963 -0.041385017 -0.0032284455 0.06796499 -0.12652166 -0.06612801 0.03955937 0.08840162
-0.0052390196 -0.013721837 -0.025642177 -0.10278855 0.089890085 -0.054862365 -0.022698322 -0.08991793
0.10199086 -0.05223076 -0.08507107 -0.11381506 -0.04142198 -0.0035935938 0.09074667 0.098677814
-0.11117351 0.09178869 0.08263439 0.054416742 -0.0537121 -0.040057093 0.07852924 -0.112513356
0.097252026 -0.08158282 0.09112465 0.10245489 0.041861568 0.04857087 -0.114029266 0.072613746
-0.0638745 0.07571908 0.07618483 0.027105447 -0.058745045 -0.04415655 0.008057264 0.09354195
0.011561709 0.09467385 0.018702848 0.10338872 0.042346407 0.03151721 -0.1040597 -0.052030012
0.051960215 -0.08449531 0.047784828 -0.014177387 0.075504646 -0.11007544 -0.009339684 0.028838128
-0.05516237 -0.09440202 0.12676273 0.006203726 -0.05093957 -0.008307695 -0.110949926 0.004882596
0.08528724 0.04531517 -0.09250841 -0.0048768073 0.10852399 -0.085542634 -0.09425379 0.112574965
-0.093579136 0.10083972 0.01010694 0.088299796 -0.007388115 -0.07137559 0.062980786 0.08240812
0.052749414 -0.070111305 -0.12436594 -0.064121924 -0.09214723 -0.08271076 0.117179334 -0.10309881
0.04471727 -0.084360085 -0.019131396 0.047348 -0.03810338 0.099754564 0.010642419 0.12253377
0.01153475 -0.034242228 0.0058552036 0.09113573 0.025492208 0.026629185 -0.06243965 0.025925934
0.06549795 -0.0385278 -0.009621323 -0.0078642825 0.013965149 0.09189585 -0.06155731 0.093528464
0.059811227 0.075189464 0.0120590115 0.11162268 0.013787729 0.09413804 0.09324666 -0.106333494
-0.0691444 0.014885112 -0.0039617056 0.0032904518 -0.06280468 0.03902214 0.008878124 -0.026990736
0.069074556 0.03891711 -0.08637244 -0.079172745 0.112181775 0.059624914 -0.06784755 -0.036017656
0.021436045 -0.033810392 0.1075191 0.05544125 0.088403866 0.09105711 -0.042123094 -0.014266321
0.021322431 0.113495894 0.039350644 0.059486173 -0.04208024 -0.09127046 0.018160213 -0.005906487
-0.07526187 -0.016066024 0.08170727 0.10229297 0.05278627 -0.06916408 -0.05357205 -0.059054896
0.014053788 -0.102546304 0.118598916 -0.0614739 -0.01333903 -0.023906365 0.11087462 -0.10965817
0.01474152 0.11629357 0.14239791 -0.05011148 0.00882401 0.054801084 -0.108937435 0.061357632
-0.039411973 -0.05199613 0.0871695 -0.10266062 -0.10179951 0.07650869 -0.065333314 -0.07887718
-0.06311164 0.0056076553 0.11857273 -0.12259725 0.10557819 0.062770076 0.06231385 0.07399272

head.3.bias f4 [64]
00000000: 6777 853d 3e65 0cbb 62b6 76bd e484 803b
00000010: 94d5 14bd 7dee 0b3e 53a6 edbd 8c6c 1c3d
00000020: 1cf8 68bd 32e6 3c3d 76b4 9ebd da9e 08bd
00000030: 55e0 6a3d 57d9 c2bd 8c66 59bd 1012 6a3d
00000040: 08ec b93c 8d70 1cbd 5380 223b f448 cf3d
00000050: 2a58 22bd 30ad 203d 5e84 863d 6986 d4bd
00000060: 6dbe c6bd c339 e6bd 70ef abbc bafc abbd
00000070: d08a 043d b608 bc3d 0414 83bd 7881 8c3c
00000080: 1fe5 bcbd aa72 c73d a9d2 253d f98b 92bd
00000090: 8a26 a9bd d636 8dbd 557e 7bbd 45df 8ebd
000000a0: 5e2a e23c d28c 89bd 8cfb 36bd 3d21 0bbd
000000b0: 8ec7 87bd 3e9d ea3c 51d5 d33d 1dfc 52bb
000000c0: fe4e 923b 24a7 ca3c 9dcc 98bd a436 923d
000000d0: 3a9b 70bd 4e66 dfbd 808c 1ebc 7816 9b3d
000000e0: 3998 98bd 5504 583d 885e dd3d 7811 d53d
000000f0: 389d 82bd fcca 023d 6f3c 90bb 4e00 c23d
0.06516915 -0.002142265 -0.060232528 0.003922092 -0.036336496 0.13665195 -0.116039895 0.038189456
-0.05687724 0.04611797 -0.07749264 -0.033354618 0.057342846 -0.095141105 -0.053076312 0.057146132
0.022695556 -0.038193274 0.0024795725 0.101213366 -0.03963486 0.039227664 0.06568216 -0.10377199
-0.097042896 -0.11241486 -0.020988196 -0.08397813 0.032358944 0.09181349 -0.06400302 0.01715158
-0.09223389 0.09738667 0.040484104 -0.07155604 -0.08259304 -0.06895225 -0.061399776 -0.06976179
0.027608093 -0.067163125 -0.044673488 -0.033967245 -0.06629859 0.028639432 0.10343421 -0.0032193728
0.004464983 0.024737902 -0.07460902 0.07139328 -0.058741786 -0.10908185 -0.0096770525 0.07572645
-0.07450909 0.052738506 0.10809046 0.104037225 -0.06377643 0.031931862 -0.0044017355 0.09472714
