outputs/exp_v1/checkpoints/epoch_50.pth (torch, 651919 bytes, 13 tensors)

base.0.weight f4 [64, 3, 7, 7]
00000000: a75e 9cbc 5449 773d b45a 18bd c120 cf3b
00000010: abd2 11bb dddb 83bd d9f3 cc3b 1089 893d
00000020: 1b38 6a3c f2ec 5b3d 47c0 76bd ad4b 8ebd
00000030: 1437 8f3d 842a 933d 7ab0 d23c d2ed a23d
00000040: d083 14bd f82a 86bd 03cf d03c 3980 393c
00000050: c584 fc3c d98b 4f3d 13fc 3cbd 1ae7 e6bc
00000060: 4534 47bd 3913 a3bd e2ac babc 646b 9e3d
00000070: 2e09 8cbd 1d80 403d 0667 3abd c89d 81bd
00000080: a73f 543b 2a72 493d 7423 473b 7905 a13c
00000090: 9b4a 96bd 212b 723d e7e5 77bd 3e33 043d
000000a0: 9ff0 9e3d b1a3 f83b 3333 a8bd 0458 9ebd
000000b0: cde9 e43c 25b1 88bd c110 63bd 06d3 02bd
000000c0: 9c3d 873c f464 c73c 86b6 42bd bda4 8abc
000000d0: 388a 5b3d c0aa 8abd 775e aaba 3917 50bd
000000e0: 8fdd 6bbc df7f 493c 4a6c 653d c1f4 afbd
000000f0: 9afe a33c 2b39 0f3d 5db4 8b3d 3a77 013d
00000100: 6672 383d 28ef 99bd de42 fcbc d7ac 483c
00000110: 1e93 8dbd 7a6b 30bd 168a 0a3d d7c9 1bbd
00000120: 005e 143c 9b3f fe3c e8fe 973d 16a0 973d
00000130: b14f 783c 38b8 86bd 0c19 2abd 0964 803d
00000140: 9bbe 833d 4393 f93c 8000 8dbd ffa3 9d3b
00000150: 4997 8fbb f6c7 9bbc e160 13bd 4107 c63c
00000160: 829b 883d 0725 31bd 9f25 263d a921 7fbd
00000170: 40fd ea3c 29fd afbd 3adf bf3c f3f3 ce3c
00000180: 6da1 91bd 4999 a93c c2eb 693c 9b47 98bd
00000190: 4f07 4fbd 5602 f93b 7b49 4fbc af07 fa3a
000001a0: 0fa3 433d 20ff 573d be1b 70bd 5973 213d
000001b0: e756 d53c 2e50 cdbc a110 bd3c 6f51 f5bc
000001c0: 63ad 1dbc 78b4 893d 9c77 4bbc 546b 96bc
000001d0: 3d46 a4bd cf30 d9bb 6514 a7bd e28d f53b
000001e0: bb63 98bc 4d9a 18bd fa3e 25bc 63f8 113d
000001f0: 2c15 103d 4f46 bbbb 767d a7bd 85f4 df3c
00000200: 71db 51bb 01b8 bcbb b013 aabc 3429 65bd
00000210: 2f5d 4ebd 812f 7dbc f07d 243d 9993 3d3d
00000220: d73e 933d 8f1a 1eba a705 30ba e391 13bd
00000230: 3e1b 00bd 5c4a a03d 2b68 213c bcaa a8bd
00000240: 565a cb3c ef9b 6a3d e3ea 17bd ae07 483d
00000250: 9aff 58bd 98c0 e43b 3783 75bd 4255 98bd
00000260: b0b6 3c3c d129 dd3b a160 4bbd c77d df3c
00000270: 4494 a83a 5811 6a3d b2cb a4bc 5a1c b7bb
00000280: 4839 033d e0df 10bd 51e5 6fbd 5738 5f3c
00000290: 51f2 7cbd bea4 afbc 7299 e23c e402 833d
000002a0: 4f0c 95bc 68d5 273d 9691 5f3c f1db 80bd
000002b0: f97f 343d 3b5b a1bd 9867 b9bd f104 abbd
000002c0: 7031 8bbd e2dc 583d c9df 7cbc d1c7 a7bd
000002d0: 10f2 a7bb 31e5 133d 7b85 6f3d b814 923d
000002e0: e1f4 6fbd 9e91 8fbd bb24 bb3c f20a 56bd
000002f0: d1f1 cbbc 300a ca3b ed05 8a3d b9c3 343d
00000300: 6b41 cf3c e43b 68bd 0b98 14bd d51d b2bd
00000310: 7297 fbb9 a0b5 b63d c80a bb3c 8dbb 393c
00000320: b702 8a3d 27ce 68bb 729d fabb 08cc b43d
00000330: ff5c 6dbd 247a 2a3c bb24 05bd d448 673d
00000340: 1cd6 ab3d ea9d 1e3d f4f7 17bd 7249 1c3d
00000350: 5ba4 bf3c 6304 8a3d e35f 893d 0e8e c33b
00000360: dfb4 28bd 6d24 c33d 8689 393d 3131 993d
00000370: aa30 67bd 7f9b 37bd ef80 e2bc 2100 aa3d
00000380: 1693 88bd 5c16 09bc f19d 863c b934 733d
00000390: 5a0d 673c aac8 013d dedf 443b 3cd5 543d
000003a0: c674 d63c 61b8 5cbd 95b2 1bbb b95d 553d
000003b0: c6c7 353c 4bd6 813c a0cd bb3d 8f53 813d
000003c0: 8fd9 b93d 672d d63b 3f32 813d f3ea 973d
000003d0: 5492 51bd 2c2b 8abd b1d7 7dbd c67e 2fbd
000003e0: 21cc 863d 056a 9bbd e214 9a3d 2991 833d
000003f0: 0895 89bb 9eee 9bbd 0100 823d a6b5 fdba
-0.019088103 0.060372666 -0.037195876 0.0063210432 -0.0022250812 -0.0643842 0.006254655 0.06715596
0.014295603 0.053692766 -0.060241964 -0.06948028 0.06992927 0.071858436 0.025718916 0.07955517
-0.03625852 -0.065511644 0.025489336 0.011322075 0.030825028 0.05067048 -0.046138834 -0.02818637
-0.048633832 -0.07962651 -0.022787515 0.07735327 -0.068376884 0.04699718 -0.045508407 -0.063289225
0.0032386573 0.04918114 0.0030386122 0.01965593 -0.073384486 0.059123162 -0.060521986 0.03227543
0.077607386 0.007587873 -0.082128905 -0.077316314 0.027943516 -0.06674413 -0.0554359 -0.03193953
0.01650887 0.02434013 -0.04753735 -0.016924256 0.053598613 -0.06770849 -0.0012998123 -0.050803397
-0.014396085 0.012298553 0.056011476 -0.08591605 0.020018864 0.03496663 0.06821511 0.031607844
0.045030974 -0.075163186 -0.030793604 0.0122482395 -0.06912826 -0.043071248 0.033823095 -0.038034286
0.0090556145 0.031036189 0.074216664 0.07403581 0.015155719 -0.06578106 -0.041527793 0.0626908
0.064328395 0.030465728 -0.06884861 0.0048108096 -0.0043820483 -0.019016247 -0.035981063 0.02417338
0.06670286 -0.043248203 0.040563222 -0.06228796 0.028685212 -0.08593208 0.023421872 0.025262808
-0.07110868 0.020702975 0.0142774 -0.07435533 -0.05054408 0.0075991554 -0.012651796 0.0019075776
0.047762927 0.05273354 -0.058620207 0.039416645 0.026042415 -0.025062647 0.023079218 -0.029946057
-0.009623858 0.06723875 -0.012418654 -0.018361725 -0.080212094 -0.006628133 -0.08158187 0.0074937204
-0.018602243 -0.037256528 -0.010085816 0.03563727 0.03517644 -0.0057151685 -0.08178227 0.027338276
-0.0032021666 -0.0057592397 -0.02076134 -0.055947497 -0.050381836 -0.01545322 0.040159166 0.04628334
0.0718972 -0.0006031179 -0.00067147095 -0.0360278 -0.03127598 0.07826683 0.009851496 -0.0823569
0.024823349 0.057277616 -0.03708924 0.04883545 -0.052978136 0.006980967 -0.05993959 -0.07438137
0.0115181655 0.0067493697 -0.0496527 0.027281655 0.0012861569 0.057145447 -0.02011666 -0.0055880966
0.03203705 -0.035369754 -0.058568303 0.013624272 -0.06175453 -0.02144086 0.027661059 0.06397036
-0.018194346 0.040975004 0.01364555 -0.062919505 0.044067357 -0.07878729 -0.09052962 -0.08350552
-0.06796539 0.052945025 -0.015434214 -0.08192409 -0.0051252916 0.036107246 0.058476906 0.07132858
-0.058583144 -0.07010196 0.022844663 -0.052256532 -0.02489558 0.006165765 0.067394115 0.04413197
0.025299748 -0.05669774 -0.036277812 -0.08697096 -0.00047987286 0.08921361 0.02283229 0.0113362195
0.06738799 -0.0035523267 -0.0076481635 0.088279784 -0.057950016 0.010405097 -0.032505732 0.05646594
0.083904475 0.038724817 -0.0371017 0.03815598 0.0233938 0.06739118 0.06707742 0.005967862
-0.041188117 0.09528432 0.04529717 0.07480086 -0.056442894 -0.044826027 -0.027649371 0.08300806
-0.066686794 -0.008367147 0.016432734 0.059376452 0.014102304 0.03168551 0.0030040662 0.05196117
0.026178729 -0.053886775 -0.0023757566 0.052091334 0.011094993 0.015849253 0.09170079 0.06314766
0.09074699 0.006536174 0.06308412 0.0741786 -0.05116494 -0.06746516 -0.061973277 -0.04284551
0.06581903 -0.07588581 0.07523514 0.064241715 -0.004198674 -0.07613872 0.06347657 -0.0019356504

base.0.bias f4 [64]
00000000: aefd b2bb 867f e9bc 2fc1 4a3c d279 98bd
00000010: 5235 14bc 2fa1 d33c 69f8 96bc 40e9 813c
00000020: 2cab a7bd abb4 9abc df89 eabc 2f57 c838
00000030: cd4b 2ebb 0495 48bd 70ab a0bb 8530 373d
00000040: 02fa 843d 52c2 e33a 6b45 303d 1640 583d
00000050: 1db9 9fbc 758c 9abd e3b8 99bb 6a77 22bd
00000060: d45d aabd 8c33 6a3d d236 0abd 24f8 353d
00000070: 869f 063c 402c 0d3d 787d ca3c 4f40 8b3d
00000080: ea12 743c 9b9b 0c3d 05a9 8fbd 76f5 ae3c
00000090: 9beb 84bd 0a9d 27bb 0cc9 cf3c 72f0 10bd
000000a0: 6b06 643d 84ff 4bbd 2dcd 9c3d b9b9 aa3d
000000b0: 089a 13ba 3575 41bd 3268 a7bd 38bd 99bd
000000c0: 265a e3bc 4ae1 2cbd 5735 b4bd 8c80 aabc
000000d0: 9391 f4bb 8e4b 53bd 830a 133b 96c7 59bd
000000e0: e025 d23c f5fd 69bc f6f1 733d 30f2 96bd
000000f0: c51f a23c c5a4 423d c5fa 203d fc9e 783d
-0.00546237 -0.02850319 0.01237516 -0.074451104 -0.009045916 0.025833694 -0.018428998 0.015858293
-0.08186945 -0.018884977 -0.028630195 9.5529824e-05 -0.0026595474 -0.048970237 -0.0049032494 0.044724006
0.06492998 0.0017376638 0.043034952 0.052795492 -0.019497449 -0.07546321 -0.0046912297 -0.039664663
-0.083186775 0.057178065 -0.033743687 0.0444261 0.008216744 0.03446603 0.024718031 0.06799375
0.014897088 0.034328084 -0.0701466 0.02135728 -0.06490251 -0.002557578 0.025364421 -0.035385557
0.055670183 -0.049804226 0.07656322 0.08336205 -0.00056305574 -0.047230918 -0.081741706 -0.07506794
-0.027752947 -0.04220704 -0.08799236 -0.020813249 -0.007463643 -0.051585726 0.0022436685 -0.053168856
0.025652826 -0.0142817395 0.059556924 -0.07370412 0.01979054 0.047520418 0.039301652 0.060698494

res_blocks.0.conv.weight f4 [64, 64, 3, 3]
00000000: a481 c8bc b91a 433a 2975 aebc 5500 6cbc
00000010: b171 e6bc 4c33 13b9 222a be3c 726b 82bc
00000020: 3ae9 2d3d 9b01 44bd e173 093c bbf7 14ba
00000030: 0505 d7bc 4fb2 08bd e5c7 e23c 682c c3bc
00000040: b096 8e3b d9cb f93c 2ce1 c4bc 2110 db3c
00000050: f315 3b3d 4f52 103d 285f dd3c be71 0f3d
00000060: 85b8 323c b9f3 4b3c 8aca 133c 1e02 2f3d
00000070: 951e c73a 7a2f 023d 3270 0e3d ac13 3eba
00000080: 26bc 323a 6a19 ae3c e597 70bc 4cdf 223d
00000090: 142e 6c3c 3db3 5dbc 9cc4 1abd 092f fcbc
000000a0: 5300 59bc 5300 ef3c c68e 343d 61c4 153d
000000b0: f7ed 093a 5092 8cbb f663 dcbb 1ecb dbbc
000000c0: 7990 eebc d7bf 473d b79d 063d ae4b 8ebc
000000d0: 7999 3c3b 7881 b93b 7f32 07bd e432 e53b
000000e0: d6df f2bc 71bf 063c 2857 063d b5d5 36bb
000000f0: 7ae9 0c3c 9c59 833b 1769 67bc d950 cc3c
00000100: 813c 0f3c 64a0 54bc deea 993c ac7d 90bc
00000110: 43bc 32bb 2b2f f73c fa32 b23c 4380 ab3c
00000120: 3fb5 a93b 8da0 313d 2a2c d03b 6925 063d
00000130: 0cfb 833c 6369 43bc 7b1e 1c3d b769 9cbb
00000140: 07b4 4c3c 508d 723c 45f7 31bb 69e6 07bc
00000150: 2b1d fabc c549 a53b 705b 34bc c6f8 7bbc
00000160: 4be8 233d 0585 ec3c e61b b0bc ac75 3abd
00000170: db99 ccbc 6e1f 353a 9300 71bb 21d8 babc
00000180: 6510 793c 3c88 90bc 7aa7 a2bc ec63 e2bc
00000190: 73da ebba 5e5e 8b3c 9052 aebc a98b 9b3c
000001a0: bdfe 11bd 68fd 8a3c 8827 f9bc be46 79bc
000001b0: 35bd 04bd 086d 233d 53fb f13c ad86 243d
000001c0: f51b 173b abd7 82bc 938e 07bd cb2c 963b
000001d0: 418c c8bc 50a3 df3b 27e7 3abc a595 233d
000001e0: d593 d1bc 3312 05bd eced debc 5b63 00bd
000001f0: fc4e 443c e924 1abd a635 ed3c fe4d 9dbc
00000200: 4e03 c7bc 1a1d e53c b518 c5bc 63ad 6e3c
00000210: b1fe 103d 6ca6 5a3c 6883 163d 2f97 98bb
00000220: 1162 fbbc 38f3 d83c a439 bcba 024f d639
00000230: 21c0 053d 8d28 343d 96d1 e03c 8d3e 463d
00000240: dd39 31bb fa64 2c3d 9747 303d 1ea8 cabb
00000250: e6c5 0a3c 895f b0bc e03c f2bb 71b7 873c
00000260: 90cb 08bd 6e1e 513c b15f 0c3d e0b7 96bc
00000270: 55c7 d4bc 9448 b9bb c955 c83c 5351 183c
00000280: 276e 2b3d 7cf3 0d3d 7577 be3b 65ab 51bc
00000290: bead 21bd e2f2 2a3c 80c7 c43c 392c d9bc
000002a0: 7723 b03c 9f1e 6cba c9e3 ca3c 1408 d13b
000002b0: 968a c33c dd05 13bd 81c2 633c d35c 093d
000002c0: 8dd3 e13c 7555 cb3c 6884 843c 57fa a53c
000002d0: 9b09 2dbc 9e85 a23b 4c33 3f3d 4b97 4e3c
000002e0: 15ac 263d 674a a43c 4bcd 263d da6f a53c
000002f0: b20c 053c 1992 9a3c 1be0 333d 2475 2fbd
00000300: f7f8 003d a2d8 27bb 14da 56bb f2ff 82bc
00000310: 15a5 cb3b 630c ed3c f2d9 383d bbb3 103d
00000320: ec85 223d 2d88 4c3d 4952 1bbc e4f4 83ba
00000330: b0e4 8b3c 9abd ca3b 5433 d83c 2f43 c3bb
00000340: d448 583d ee36 99bc 3ea0 8bbb c338 e3ba
00000350: 107b e03c b34d 7dbc 4389 433d 0560 873b
00000360: 8845 b53b 7e81 a83b ab99 793b ceab 853c
00000370: 4619 1ebd 0d35 a0bc 538b f2bc 470b 333d
00000380: 3ed3 8ebc 9210 8f3c 2bba 0b3d 4ba6 a3bc
00000390: 93f9 0f3d 797d 06bd 4f8b 513b 20f8 903c
000003a0: 11f6 ecbc d5ae dcbc 1555 023d 04f0 e43b
000003b0: d70f 233d 492b 073b 1bbb 383c c108 823c
000003c0: 519f aa3c bc3d 4b3c ad9a 9e3c 7b93 84ba
000003d0: d658 a2bc 26ff 633c cd77 963c 8c76 58bb
000003e0: adfe 433c 8f0a 293d 9081 3a3d 27fd 5e3c
000003f0: 498b 02bd a9a8 b23c 8b45 533c c57c a13b
-0.02447588 0.00074426417 -0.0212961 -0.014404376 -0.028130384 -0.00014038122 0.02321345 -0.015920375
0.04245875 -0.047853094 0.008389444 -0.00056826667 -0.02624751 -0.033373173 0.027683208 -0.023824885
0.0043514594 0.03049271 -0.024033152 0.02674109 0.04567523 0.035234746 0.027022913 0.035020582
0.010908251 0.012448245 0.009020457 0.04272663 0.0015191609 0.03178356 0.034774967 -0.0007250856
0.00068181974 0.021252353 -0.014684652 0.039763734 0.014415283 -0.013531503 -0.037785158 -0.030784147
-0.013244706 0.02917496 0.04408147 0.036564235 0.0005261595 -0.0042899027 -0.0067257835 -0.026830252
-0.029121624 0.048766937 0.032865252 -0.017370071 0.0028778 0.005661186 -0.03300714 0.006994592
-0.029647749 0.008224354 0.032797962 -0.0027898375 0.008600587 0.004008485 -0.014124176 0.024940895
0.008742453 -0.012977693 0.018788751 -0.01763805 -0.0027272857 0.030173859 0.021752823 0.020935183
0.005179077 0.043366004 0.006352921 0.03275052 0.01611092 -0.011926982 0.038115006 -0.0047733444
0.012494094 0.014804199 -0.002715544 -0.00829468 -0.030531486 0.0050441944 -0.0110081285 -0.015379136
0.040016454 0.028872022 -0.021497678 -0.045522377 -0.024975708 0.00069092854 -0.0036774024 -0.022808136
0.015201663 -0.017643087 -0.01985525 -0.027635537 -0.001799418 0.017012771 -0.021279603 0.018987494
-0.035643328 0.016966537 -0.030414358 -0.01521462 -0.032407004 0.039898902 0.029538786 0.0401675
0.0023057435 -0.01597198 -0.033094954 0.0045829765 -0.02448094 0.0068248883 -0.01140765 0.039937634
-0.025583187 -0.03248806 -0.02721306 -0.031344753 0.011981722 -0.037632857 0.028956246 -0.019202229
-0.024293568 0.027967978 -0.024059633 0.014567706 0.035399143 0.013345342 0.036746413 -0.0046566944
-0.03068641 0.026483163 -0.001436044 0.00040876126 0.03265393 0.043983985 0.027443688 0.048399497
-0.0027042546 0.042088486 0.043037023 -0.006184592 0.008470034 -0.02152993 -0.007392511 0.016566964
-0.033397257 0.012763603 0.034270946 -0.018398225 -0.025973955 -0.005654404 0.024454968 0.009296733
0.041853096 0.034656033 0.00581258 -0.012797211 -0.039472334 0.010433884 0.02402091 -0.026510345
0.021501286 -0.00090072484 0.02476682 0.006379137 0.023869794 -0.035894264 0.013901354 0.03353579
0.027566696 0.024821023 0.016176417 0.020260973 -0.010561372 0.004959776 0.04667978 0.012609313
0.040691454 0.020055009 0.040723126 0.020194937 0.008120703 0.018868493 0.043914896 -0.042836323
0.03148743 -0.00256113 -0.0032783793 -0.015991185 0.0062147477 0.02893657 0.045129724 0.035327654
0.0396785 0.049934555 -0.0094800675 -0.001006749 0.01707682 0.006187153 0.026391663 -0.0059589366
0.05280383 -0.01870295 -0.0042610457 -0.0017335642 0.02740243 -0.0154604195 0.047738325 0.0041313195
0.0055319704 0.00514239 0.0038085978 0.016317274 -0.03859832 -0.019556547 -0.02960745 0.043711927
-0.017434712 0.017463956 0.03411309 -0.019976756 0.035150122 -0.032834504 0.0031973904 0.01769644
-0.028925927 -0.026938835 0.03181942 0.00698662 0.039810028 0.0020625165 0.011275078 0.015873315
0.020827921 0.012404855 0.019360865 -0.0010114753 -0.01981775 0.013915813 0.018367672 -0.0033029644
0.011962575 0.041269835 0.045533717 0.013610161 -0.031871114 0.021808939 0.012894998 0.0049282038

res_blocks.1.conv.weight f4 [64, 64, 3, 3]
00000000: 9223 15bd 1c12 24bd e443 11bd 1eb0 3fbd
00000010: 15af 033d 1a9c 5dbc 873c c0bc 51d1 06bd
00000020: 73f7 96bc d694 ea3c 0437 973c 3a7f 2e3d
00000030: f217 d0bc 88fe 043d 8d2d cb3c 3f42 8ebc
00000040: 9640 0abd 88e9 ef3b 706c f3bc 9bd9 633c
00000050: 06bd c7bb 0294 89ba 6fc4 d23b bfcc 273d
00000060: d316 0b3c bdb2 ecbc f8fc 9d3c 6779 a2bb
00000070: e0aa f53c 7553 253d 88cd 193c 53fc cebc
00000080: 6702 a5bc 14a2 213d 50f0 9c3c f38f bd3c
00000090: c011 4cbc e221 3d3d b18f 133d 6f19 603d
000000a0: e43c ddbc 581c 96bc 628c ca3c e2ee 5b3c
000000b0: 42ef adbb c007 f83b aea7 f3bc 0564 143d
000000c0: c2f7 2bbc 2ab6 183d 6815 80bc 2e0e a639
000000d0: 9983 babc e988 e63c 6b14 9ebc 72ca 3c3d
000000e0: c847 673c 062c 9ebc d1f1 e3bc 7352 e83c
000000f0: a2a7 133d bfce 753c 5a6d c13c 6686 cbbc
00000100: db76 473c 2450 193d 9253 253c dd60 883b
00000110: cfb3 dc3c 749a 6ebb dcaa c63b ae7c 57bc
00000120: ab3e 483b fcd7 10bd ca77 1ebd ab72 dcbc
00000130: 55f7 14bd dc4b dbbc 98a1 803c 7f45 e93b
00000140: a46c 633c c6d2 333d 7445 a5bc 314e a6bc
00000150: 7021 093d d183 af3c 77d1 0c3d f7b2 313d
00000160: 5dcc 113c 3ff8 08bd 3e09 9abc acfa c63b
00000170: d6f5 823c b9e2 ecbc 655e ecbc 8747 653c
00000180: fff6 05bb 2c51 35bc c749 b2bc 2c2e bebc
00000190: 814b b5bc d16b 0b3d 6d4e cabb 05d7 b6bc
000001a0: 4efb fcbb c9a6 283d 39f3 b2bb 7286 82bc
000001b0: e6fa 4c3c 160b 12bc a8d7 3ebc 9cb3 dcbc
000001c0: e7bc 54bb 5135 e43c 3f4d 163d cea5 74bc
000001d0: 4cc3 3b3d 82e5 0e3d c978 b6bc 4ece 3a3d
000001e0: e4fb 203d 6a79 c3b9 2ad6 c13c a33c 553b
000001f0: 8019 1c3d 06f9 363d b53f 4abb 0c0c 95bc
00000200: 146d fb3c b6e2 613b 2d59 323d f5fe 8ebb
00000210: f0c6 fb3b 14d2 8d3c 3155 af3c 3294 a1bb
00000220: 87e1 20bc 866c 1b3b 3821 523d 043c 283d
00000230: 11a4 a5bc 4c10 b1b9 4a02 3a3d 252b 5c3c
00000240: 513e 143d c9b8 c03c 9ee9 373d f6cd a9bc
00000250: 06ff a23c 4cb4 ff3c 5003 423d 53d6 b33b
00000260: b7ec a23c 6f75 acbc cf18 343d 810d 023d
00000270: cd07 213d bcd6 363d 67e4 8bbc 9250 9c3c
00000280: 1554 01bc 8de6 1e3d 5007 213d 4fff 0e3d
00000290: 8d09 5a3c 44af 2c3d e183 7bbc 0712 0ebc
000002a0: f38d 8d3c 52a3 e33b 5055 813c 5506 a63c
000002b0: 6650 c43c 6e82 463d 2aac 4e3c e222 1ebb
000002c0: ad6b 863c 4603 c3bc ee48 fe3c bf77 283c
000002d0: c427 0e3d 246e cb3c d996 b53c 3836 4a3c
000002e0: 890b e3bc f152 a0bc c933 f6bc 8a81 debc
000002f0: b074 8e3c dc10 973c a961 f13c 652b 523d
00000300: c285 d53c 73ac a3bc 8587 c4bc 5c67 bbbc
00000310: 8567 003d 7e72 0a3d 5c4f 30bc 712e 80bc
00000320: 76e4 3f3d a778 75bc ee33 2d3d 4539 ee3c
00000330: 17a8 00bc bc84 a7bb c780 2b3d 1998 18bd
00000340: 68bf febc 5c09 c5bc 13c5 253d 712a 083d
00000350: a440 513c c9fe 643c 9218 96bc 9822 773c
00000360: bb9f ddbc 849a 8f3c 50b6 e13c fe9f a53b
00000370: 3e59 973c 49ef 27bc 9812 353d 179e 4b3c
00000380: dfce 533d 345c a43c 88e2 923c fa81 bebc
00000390: 19b0 fb3c a247 14bc 785b 50bb 7fad 233d
000003a0: 73a1 563c 54f3 4b3d ffac 66bc b135 403d
000003b0: 6d80 32bc 3d43 29bc be9e 553d 39ab fbbb
000003c0: ca09 333d fe55 c33c 5143 813c 2ac3 563d
000003d0: db8f d23c d3b7 bb3b c29c bfbb e50f f53a
000003e0: 52e4 473c aba2 ae3c bfc4 173d 08c8 5abc
000003f0: f2ff 213c d642 11bc d711 08bd 1a41 303d
-0.036410876 -0.040056333 -0.035465136 -0.046798818 0.032149393 -0.013525987 -0.023466362 -0.032914463
-0.01842854 0.028635424 0.01845885 0.0426018 -0.025402043 0.032469302 0.024801994 -0.017365573
-0.033753 0.0073215403 -0.029714793 0.013906862 -0.0060955314 -0.001049638 0.006432108 0.040966745
0.008489328 -0.028893823 0.019285664 -0.00495832 0.029988706 0.040362794 0.009387381 -0.025266802
-0.020142747 0.03946121 0.019157559 0.02313993 -0.012455404 0.04617489 0.036025707 0.054711755
-0.027006574 -0.018324062 0.024725143 0.013423653 -0.005308063 0.0075692832 -0.029743042 0.0362282
-0.010496082 0.0372831 -0.015635207 0.00031672552 -0.022767829 0.028141456 -0.019296845 0.046091504
0.014116235 -0.019308101 -0.027825268 0.028359627 0.03604854 0.015002905 0.023611713 -0.02484436
0.012174333 0.037429944 0.0100907255 0.0041619376 0.026941208 -0.003640798 0.0060628485 -0.013152285
0.003055493 -0.03536223 -0.03868846 -0.026910147 -0.036368687 -0.026769571 0.015702054 0.0071188803
0.013880882 0.04390218 -0.02017472 -0.020300956 0.033479154 0.02142516 0.03437945 0.043383565
0.008898822 -0.03343987 -0.018803235 0.006072363 0.015986364 -0.028916704 -0.028853605 0.013994104
-0.002044141 -0.011066716 -0.021763695 -0.023215376 -0.02213073 0.03403837 -0.0061739 -0.022319326
-0.0077203875 0.041174684 -0.0054611233 -0.01593325 0.012510991 -0.008913776 -0.011648096 -0.026941113
-0.0032461227 0.027857454 0.03669476 -0.014932109 0.045840546 0.034886844 -0.022274392 0.045606904
0.03930272 -0.0003728376 0.023661692 0.0032537363 0.038110256 0.04467108 -0.0030860726 -0.018194221
0.030691661 0.0034467406 0.043542076 -0.0043638893 0.0076836273 0.017312087 0.021402927 -0.0049309963
-0.009819395 0.0023715808 0.05130121 0.04107286 -0.020219835 -0.00033772213 0.04541234 0.013438021
0.036192242 0.023525612 0.04490053 -0.020728093 0.019896995 0.031213902 0.04736644 0.005488196
0.019888265 -0.02105209 0.04396897 0.03175116 0.03931408 0.04463838 -0.017076684 0.019081388
-0.007893582 0.03879409 0.039313614 0.03491145 0.013307941 0.042159334 -0.015351267 -0.00867129
0.0172796 0.0069469595 0.01578775 0.020266691 0.023964118 0.04846423 0.012614289 -0.0024129678
0.016408766 -0.023805272 0.031040635 0.010282456 0.034705892 0.024832793 0.022166656 0.012342028
-0.027715461 -0.0195708 -0.03005399 -0.027161378 0.017389625 0.018440656 0.029465513 0.051310915
0.026064757 -0.019979691 -0.023990402 -0.022876434 0.031348724 0.033800595 -0.010761108 -0.015647145
0.046848737 -0.014982379 0.042285852 0.029080043 -0.007852576 -0.0051122587 0.04187086 -0.037254427
-0.031097129 -0.024052314 0.040471148 0.0332436 0.012771759 0.013976761 -0.018322263 0.015083931
-0.027053704 0.017529733 0.027552754 0.005054473 0.018475171 -0.010249921 0.044207186 0.012427828
0.05171096 0.020063497 0.017930284 -0.023255337 0.030723618 -0.009050282 -0.00317928 0.03996038
0.013100016 0.049792603 -0.014079331 0.046926204 -0.010894877 -0.010330972 0.05215334 -0.0076803234
0.043710507 0.023844715 0.01577917 0.052432217 0.025703361 0.0057287007 -0.0058475444 0.0018696754
0.012200432 0.0213178 0.037052866 -0.013353355 0.009887682 -0.008866033 -0.03322014 0.043030836

res_blocks.2.conv.weight f4 [64, 64, 3, 3]
00000000: d2be 4dbc aec8 043d bd23 0bbd c23e e1bb
00000010: 9553 023d 674a b8bc f555 69bb 50ec 383d
00000020: ce8c 4c3d 9b87 60bc 086c 133c 1d39 c6bc
00000030: 9d64 00bd 3256 0ebc 9aa1 b9bc 8935 f63b
00000040: 8cc3 94bb cd00 213d 3c8d 9a3b dbba 093c
00000050: 3b4b dbbc c52b 94bb c9cd 02bd eac3 c53c
00000060: e597 1d3d 2c46 8ebc faec d0bc 5105 a6bc
00000070: b512 ff3c acec 183d 68c6 a3bb f347 c4bb
00000080: c38d 493d 1467 fbbc 4065 ba3c 7190 513c
00000090: dc54 07bd 82ea 8c3c 19dd 12bd 7369 473a
000000a0: b778 8d3c 71d2 d6bb d75a e93b 55c8 bb3c
000000b0: d32d c93c 34ad 1b3c edaa 693b 5cf1 9bbc
000000c0: 502a 2d3d f344 353d 022b ac3b 2b45 383d
000000d0: 27bb 223d 67f4 0c3c c9b4 aebc ba12 8dbc
000000e0: 2828 4d3b 3bb2 363d 6167 2f3d 8dfb c1bb
000000f0: 9c2b 203d 130b a13c d7e5 68bc ff70 8dbc
00000100: 3814 a23c 998c 023d 4f3a 413a 5ef5 143d
00000110: eb64 c53b 7dc7 053d 6b28 c6bc 3d7c 743c
00000120: 7784 a63c f72f 633c 0a11 28bd 80f0 0abd
00000130: 86a4 ecbc fca9 afbc 45c5 8fb9 fc95 0dbd
00000140: 7fae 04bd aa57 f2bb d265 8bbc 4b3a 3c3d
00000150: 3ed6 303c 9d2d 143d e678 a1bb eccf efbc
00000160: c133 85bc 4cc4 9ebc 93b1 e5ba 1334 0abd
00000170: aaff cdbb 60f2 3e3c 2d7a 0cbd 4640 883c
00000180: 9121 4a3b feb8 1d3d c55e 8f3c 056b cdbc
00000190: 83bb 6c3c fdab 813c f024 ad3c ccf9 a13c
000001a0: 3526 133d acb4 463d 36bd 6c3c 1c09 4a3d
000001b0: 08d2 003d 21f1 383d 7d9e c8bc 3b3e cc3c
000001c0: 243b 8e3b acd2 49bb 13f7 6a3b 7090 eebc
000001d0: f506 123c a041 0bbb 89f9 fd3c 2f6a 243d
000001e0: 4bb3 013d 02df 7f3c 4ffb bfbc f323 8abc
000001f0: 6ca9 12bd a02e 2b3d 3214 373d 65ce d63c
00000200: dceb 3bbc be8f 0d3c 635b c83b 5b07 d83a
00000210: 80cf 0b3d a60a ddbc a252 f1bc bd3b d8bc
00000220: 4ec9 5b3d 5568 103d 9c21 843c 2ea1 01bc
00000230: 8357 8abc d01d abbc 7175 3bbc 8501 4c3d
00000240: 1eaf 013d da35 663c 545b 323c 0cea 303d
00000250: 150d 1c3d 207c d53c fa76 f93c d86d 4a3c
00000260: d356 74bc cb65 c93c 20de e5bc 0136 053c
00000270: 054e 35bc 449d 06bc be34 e5bc 700a 343b
00000280: dafe debb a37f ce3c b48e 2cbb 602c 1e3d
00000290: 4f8c 973b 021c 223d 47b4 023c c063 433d
000002a0: a34b 8bbc 92a0 31bc b5d7 363d 0f76 febc
000002b0: 3d2b 913b 838a 0dbb f9e3 b03c 1b96 94bc
000002c0: fde7 2f3d 9501 9b3b 220e a4bc bdf7 bc3b
000002d0: b67b 4f3d 014b be3c f428 a43c 3f1f d23c
000002e0: 1e70 7b3a 8f9e 583b fb1a bd3c cf7f 0c3c
000002f0: 13d6 be3c 942c 173d 63ae dbbc c17c 193d
00000300: 26f5 133d 90fe 8dbc b9e9 313d 67fc 823b
00000310: 245e fc3b 12e3 deb9 71b1 1e3d d043 523d
00000320: 5df2 8c3c 80e7 333d acc3 2a3d 5f94 3b3d
00000330: 8b79 f93c 8a85 463d 1780 dd3c e40e 30bc
00000340: ab8f ae3b b420 11bc e409 8fbb 6cb4 f83c
00000350: ed6c 47ba 7b72 9dbc a354 3c3d 55f0 07bd
00000360: d788 b43c afcb 243d f72c 34bc 6440 e63b
00000370: 41f8 533c 509c f8b9 112b 05bd a5a3 adbc
00000380: cb91 f93c 8abf 8b3b 61d1 c13b 71fd 8d3c
00000390: 1f04 4e3d 7ddc cabc d3e3 5839 f23c fe3c
000003a0: 1c82 aebc c036 f7bc 299e 1a3d 2b16 353c
000003b0: ab9e c4bc 54e9 b0bc 0b89 2b3d 9c79 3a3b
000003c0: 9ce4 d63c 2229 acbc 0d19 cebc 6954 c13c
000003d0: 1dde e6bc 07e3 293c ed57 81bc 5834 c2bb
000003e0: ebdc f63b fdc9 753c 796c bd3b 2fd6 0a3c
000003f0: aa45 95bc 7f63 0f3d cbce 393c a395 033d
-0.012557702 0.032417946 -0.03396963 -0.0068739364 0.03181799 -0.022496415 -0.0035604213 0.04514724
0.04993897 -0.013704206 0.008997925 -0.024197156 -0.031345952 -0.008687543 -0.022660065 0.007513706
-0.0045399126 0.039307404 0.0047165435 0.008406366 -0.026769271 -0.0045218193 -0.031934533 0.02414127
0.038474936 -0.017367445 -0.025503624 -0.020266207 0.03113685 0.037335083 -0.004998017 -0.0059900223
0.04920746 -0.0306888 0.022753358 0.012790785 -0.033039913 0.017201666 -0.035855386 0.0007606961
0.017269475 -0.0065558483 0.0071214247 0.022922674 0.024557984 0.009501744 0.0035654858 -0.019035988
0.04227668 0.04425521 0.0052541504 0.04498784 0.039729264 0.008603192 -0.02132644 -0.017220844
0.0031304453 0.044603568 0.0428232 -0.00591988 0.03910409 0.0196586 -0.014214954 -0.017265795
0.019785032 0.031872366 0.00073710544 0.036366813 0.0060239932 0.03266095 -0.024189195 0.014922199
0.020326836 0.013866416 -0.041031875 -0.033920765 -0.028887045 -0.02144336 -0.00027422063 -0.034566864
-0.032392975 -0.0073957043 -0.017016325 0.04595403 0.010793267 0.036176313 -0.0049277423 -0.02927395
-0.01626003 -0.019380711 -0.0017524235 -0.033741068 -0.006286581 0.011654466 -0.034296203 0.01663221
0.003084276 0.0385065 0.017501244 -0.025075445 0.014449003 0.01582908 0.021135777 0.019772433
0.03592511 0.048512146 0.014449408 0.049325094 0.0314503 0.045151833 -0.024489636 0.024932018
0.004340546 -0.0030795736 0.0035852834 -0.029121608 0.0089127915 -0.0021248832 0.031002777 0.040140327
0.031665128 0.015617134 -0.023435263 -0.016862845 -0.035806105 0.041792512 0.044696994 0.026221463
-0.0114698075 0.008640228 0.00611441 0.0016481684 0.034133434 -0.026982617 -0.029458348 -0.026395673
0.053658776 0.03525575 0.016129307 -0.007911963 -0.016887432 -0.02088824 -0.011441574 0.049806137
0.031661145 0.014050925 0.010886032 0.043191954 0.038098413 0.026060164 0.03045224 0.01235529
-0.014913279 0.024584671 -0.028060019 0.008130551 -0.011065965 -0.008216206 -0.027979251 0.0027472042
-0.006805283 0.025207346 -0.0026330175 0.038616538 0.0046248804 0.03957749 0.007977552 0.04770255
-0.01700384 -0.010841506 0.044639308 -0.031062154 0.0044302032 -0.0021597452 0.02159308 -0.018137982
0.04294585 0.004730413 -0.02002627 0.0057668374 0.05065509 0.023229124 0.02003906 0.025649665
0.0009591597 0.0033053493 0.023084154 0.008575394 0.023295438 0.036907747 -0.026816553 0.03747249
0.036122464 -0.017333299 0.043435786 0.003997374 0.007701652 -0.0004251232 0.03874344 0.051334202
0.017205412 0.043921947 0.041690513 0.045795795 0.030453464 0.048467197 0.027038617 -0.010745738
0.005327185 -0.008857895 -0.0043651927 0.03035947 -0.0007607479 -0.019219628 0.045979153 -0.033188183
0.022037907 0.04023331 -0.010997049 0.007026719 0.012937606 -0.00047418708 -0.032511774 -0.021196196
0.030465027 0.0042647766 0.0059148525 0.017332764 0.0502969 -0.02476334 0.00020684236 0.03103492
-0.021302275 -0.030177474 0.03774849 0.011052649 -0.02400144 -0.021595635 0.04187874 0.0028453832
0.026232056 -0.021015707 -0.02515843 0.02359982 -0.028182084 0.010369069 -0.015788997 -0.00592665
0.0075336597 0.015001771 0.005780753 0.008473917 -0.018221695 0.035006996 0.011340807 0.032125127

global_pool.0.weight f4 [64, 64, 3, 3]
00000000: e002 8b3b 2a70 08bd b1d9 f83c 4abe 983c
00000010: e3bd b4bc 48d1 423c 992d 36bc cc20 f43c
00000020: 3a74 873b 8085 1a3c 7613 14bc ba49 f83c
00000030: 5ec4 413b 23f5 08bd c2ca 46bc 8409 353d
00000040: cb77 b3ba 3db1 e23c f453 023d a20d 88bc
00000050: bb1d e13c e776 38bd 3b42 25bd 3692 4abd
00000060: 5f12 b8bb 626d 54bc 4f14 4fbc d435 053d
00000070: 29c4 e5bc 400d bdbc c7df f4bc 4197 3cbd
00000080: 922a 743c 80ac 8dbc 5555 6cbc d02e 40bb
00000090: 309d 2c3b e0b6 bbbc de67 6abc 7438 39b7
000000a0: ce38 3ebd e9a1 d2bc 736e 03bd 1608 2f3c
000000b0: 4099 cc3c 3edb 533c aa1b 0c3d f554 06bd
000000c0: 458a bfbc 2a41 07bd 8f6b 26bd ccf0 3bbd
000000d0: a3dc 85bc c3d7 1039 771d 96bb ea77 8f3c
000000e0: efe6 1bbd 81b1 14bc 4eef dd3c ede6 e63c
000000f0: 3254 02bd 377a 2dbd 0a22 013d 379b d6bc
00000100: 9af2 053d 4a67 ba3c a215 ba3c 00e8 013d
00000110: c292 1f3c fb35 cc3c 9a01 02b7 22d5 14bd
00000120: 551c 17bb ec41 14bd b8ee a63c 3d42 fa3b
00000130: 01b0 72bb f471 b13c a37a a73b ba46 173d
00000140: f31f ccbc 1f30 2fbd e905 d83a 3b73 043d
00000150: 1aa2 bfbb 69da a13a af4a 1dba 713b c1bc
00000160: 11d0 713c 6d79 4b3c f923 f6bc 08b4 01bd
00000170: d8b2 2bbc b397 0c3d 4a6a 19bd ad10 fd3c
00000180: 5acd febc 2df6 f43c ce95 193d 3366 0b3c
00000190: 8350 04bd c1d3 20bc 30aa 2a3b cf29 9f3c
000001a0: 9582 92bb 7d1a 253d 3016 06bd e327 a0bc
000001b0: 6cbd 0abd 8b46 863b c6da f5bb cf03 c6bc
000001c0: 7d92 503c 3065 87bc 5e80 2fbd 330b 983a
000001d0: 2618 193c d4f5 0a3d 74ae 28bd 1186 043c
000001e0: 5f86 05bd ea9f 603c f675 67bc aead 023c
000001f0: 2ed9 36bd c584 12bc 2ad7 3abd da6b 453b
00000200: 88f2 f03c c04e 94bc a811 7d3b bd5f 98bc
00000210: fd24 f83c d32e b53c 57fb 89bc f5de 9abb
00000220: 99d4 c63b c6d8 01bd 815c ddbc 1f2d 983c
00000230: 2d04 8abc bad2 183c daa6 553c b8a2 3ebd
00000240: 287e 103d cd95 8d3c 29c2 ac3c afd8 f03c
00000250: 5cf2 28bd 7167 92bb 5b39 9e3b 3e6d 08bd
00000260: d23d dcbc 4728 663c 53fb 0d3d b2c3 593c
00000270: ee78 373c 5976 fa3c 2236 3fbd 33a9 f3bc
00000280: c6ff a43c d834 19bd 75f2 3f3b 8894 f0bb
00000290: e865 90bb 68ab 4b3c f9a9 efbc eeed d7bc
000002a0: 7d2a 19bd bbe0 26bd c539 0fbd 20ea 36bc
000002b0: d765 50bc 6e49 7fbc cf7c 13bd cff3 19bd
000002c0: 4d1a 8dbc 41e8 22bd f0f1 9dbb 0d13 c9bc
000002d0: f67f 2ebc 4ba8 4abc 94e0 233b c1fb c1bc
000002e0: 568f e43c 84b3 18bd 2600 f23c bf21 b53a
000002f0: 81cf b13c 568a 0a3d ce21 243d d9e8 ebbc
00000300: 6b02 deba c133 56bb 0034 913c ebac afbc
00000310: 17cc 233c 19f4 883c 6024 203c ccec b43c
00000320: d659 973b 5da6 35bd ae77 0c3d dea4 b63c
00000330: 6078 ba3b 32e8 f63c af8f 993c 2d30 3fbc
00000340: 115b e23c 69b1 ba3c 1ae3 b5bc 94d7 4f3c
00000350: 97eb f1ba c2d1 11bd 37ef a5bc 33b1 cd3c
00000360: 0b74 d33c c021 c03c b98b a23b 3220 c13c
00000370: 5db4 953c 2332 b73c a976 95bc 6b1e c13c
00000380: a132 73bc 80a3 a6bc 1b28 d9bc b7bb 72bc
00000390: eedd fd3c 4009 c23b e368 973c 8be2 493c
000003a0: 4aea a5bc 0788 e13c 7478 3f3c 72d8 e1bc
000003b0: 4889 0bbd 8a8e 9dbb be14 f53b d3e8 ffbb
000003c0: f43a cebc 0c01 6bbc fcbb 43bd dac3 cabc
000003d0: 69e9 013c b8c0 6dbc 327b cd3b b9b0 5c3a
000003e0: 8f38 773c 566c 44bd b75e 19bd f6f7 37bd
000003f0: e43d 043d f586 2b3c 7109 c9bc e609 aabb
0.004242286 -0.033310093 0.03037724 0.018645424 -0.022063201 0.011890717 -0.01111927 0.029800795
0.0041337283 0.009431243 -0.009037843 0.030308593 0.0029566507 -0.033436906 -0.012133302 0.044198528
-0.0013692317 0.027672404 0.031818345 -0.016608063 0.027479997 -0.04503527 -0.040346365 -0.049455844
-0.0056174244 -0.012965532 -0.012639119 0.032522038 -0.028047638 -0.023077607 -0.029891862 -0.046042684
0.014902728 -0.017294168 -0.014424642 -0.0029324777 0.0026338808 -0.02291435 -0.01430699 -1.1040003e-05
-0.046440892 -0.02571197 -0.032087754 0.01068308 0.024975419 0.012930689 0.03420607 -0.032795865
-0.023381362 -0.03302113 -0.04062992 -0.04588394 -0.01634056 0.00013813288 -0.004581149 0.017513234
-0.038062032 -0.009075523 0.027091648 0.028186286 -0.031818576 -0.04235288 0.031526603 -0.02619706
0.032702066 0.02275433 0.022715393 0.031715393 0.00973958 0.024928084 -7.748977e-06 -0.03633607
-0.0023057659 -0.03619568 0.020377502 0.0076372907 -0.0037031176 0.021660782 0.005111055 0.036932684
-0.024917578 -0.0427705 0.0016481254 0.032336455 -0.0058481814 0.0012348416 -0.00060002034 -0.023587914
0.01475908 0.012419087 -0.03004645 -0.03166583 -0.010479651 0.03432436 -0.03745488 0.03089174
-0.031103779 0.029902542 0.03749638 0.008508253 -0.032303344 -0.009816111 0.002604138 0.019429116
-0.004471133 0.040308464 -0.032736003 -0.01955027 -0.033872053 0.004097765 -0.0075028865 -0.024171738
0.012730238 -0.016527742 -0.04284703 0.0011600017 0.009344136 0.033925846 -0.041181996 0.008088605
-0.03259885 0.0137100015 -0.014127245 0.007975979 -0.044640712 -0.008942788 -0.045615353 0.00301241
0.029412523 -0.018103957 0.003861526 -0.01860034 0.030291075 0.022117054 -0.016843481 -0.0047262856
0.006067824 -0.031700872 -0.027021648 0.018576203 -0.016847694 0.009327585 0.013040269 -0.0465419
0.035276562 0.017283345 0.021088677 0.029400198 -0.041246757 -0.0044678976 0.0048286146 -0.033307306
-0.026884947 0.014047689 0.03466351 0.013291286 0.0111982655 0.03057401 -0.046682484 -0.029743766
0.020141494 -0.03740391 0.0029288803 -0.007341925 -0.0044066794 0.012431003 -0.029255854 -0.02635857
-0.037394036 -0.040741663 -0.034967203 -0.011164218 -0.012719593 -0.015581472 -0.0360077 -0.03758603
-0.017224455 -0.039772276 -0.004820101 -0.024545217 -0.010650625 -0.012369226 0.0025005685 -0.023679616
0.02790038 -0.037280574 0.029541086 0.0013819261 0.02170539 0.033823334 0.0400713 -0.028797554
-0.0016937976 -0.0032684656 0.01772499 -0.021444758 0.009997389 0.016717957 0.0097742975 0.02208557
0.0046188636 -0.04434811 0.034293823 0.022295412 0.0056906193 0.030140016 0.018745271 -0.011669201
0.027631314 0.022789674 -0.022203017 0.012685675 -0.0018457052 -0.03560043 -0.020255668 0.02510891
0.02581217 0.023453593 0.004960504 0.023574922 0.01827448 0.022362774 -0.018245058 0.023574075
-0.014843614 -0.020341635 -0.026508382 -0.0148152625 0.030989613 0.005921513 0.018482631 0.012322078
-0.02025332 0.027530683 0.011686433 -0.02756903 -0.03406647 -0.0048082517 0.0074792793 -0.007809737
-0.025174595 -0.014343511 -0.047786698 -0.024751592 0.0079291845 -0.01451128 0.0062707895 0.0008418668
0.015089168 -0.04795488 -0.037443843 -0.04491421 0.032285586 0.010469188 -0.024540635 -0.0051891683

global_pool.0.bias f4 [64]
00000000: d46f c0bb 8acd b5bc 5951 2b3c abce 35bd
00000010: 147c 183c a6ca b5bc 7c2e 59bc a523 0abd
00000020: 28b2 e43a 4b59 33bd a785 d23c a809 d9bc
00000030: 24c0 953c 03ce 113b 33de 273d 884a ddbc
00000040: b7f6 61ba 4108 79bc 69c5 d63c 472a 613c
00000050: 712e 1dbd a93f 24bd efb7 21bd a32d c63c
00000060: b1a7 adbb 28d2 0d3d d618 26bd 0209 b13c
00000070: a05e 193d 2915 ef3c 5156 aa3c 22bb 74bc
00000080: 44cb 57bc 2260 df3c 17b6 4b3c f370 3ebc
00000090: 61c6 edba 4d9d 983b c967 233d 58ba 983b
000000a0: ac9c c93b 9da9 463d 2b3e a13c 5dde 89bc
000000b0: 8c8b 8b3c 6cfe 4bbc 9d59 903c a5ad 29bc
000000c0: e8dc 3d3d 5495 8dbc c12d dcbb b9e8 e7bc
000000d0: e4ad 2b3c 5bc2 183d 6da4 253d a6c1 213c
000000e0: 003a 11bd 0d3a 9b3b b92e 273b 8a79 95bc
000000f0: 33dc 8cbb fbd3 38bd f9a3 543b 9b6f 8d3b
-0.005872706 -0.022192735 0.0104564065 -0.044386547 0.009306926 -0.022191357 -0.013255712 -0.0337254
0.0017448114 -0.04378633 0.025698496 -0.026493862 0.018280096 0.0022248037 0.04098339 -0.027013078
-0.0008619832 -0.015199722 0.02621718 0.01374299 -0.038374368 -0.040099774 -0.039482053 0.024191683
-0.0052995314 0.03462425 -0.04055103 0.02161074 0.037443757 0.029184895 0.020793112 -0.014937194
-0.013171021 0.02726752 0.01243355 -0.011623609 -0.0018140787 0.0046574236 0.0398939 0.004660886
0.00615271 0.0485016 0.019682964 -0.016829664 0.017034315 -0.012450796 0.017620856 -0.0103563415
0.04635325 -0.01728312 -0.0067193215 -0.028309213 0.0104784705 0.037294727 0.04044001 0.00987283
-0.035455704 0.004737145 0.0025510027 -0.01824643 -0.0042987107 -0.045124035 0.0032446368 0.004316283

head.1.weight f4 [64]
00000000: 6e76 7e3f b593 7e3f 6c76 7e3f 0000 803f
00000010: 9b1c 7f3f 920e 7b3f d4bf 7a3f 0000 803f
00000020: ef58 783f 0000 803f c64b 7e3f 3746 6f3f
00000030: 0000 803f 0000 803f 5d35 803f 6d76 7e3f
00000040: 2eb5 7f3f 6c76 7e3f 0000 803f b06b 803f
00000050: 0000 803f 0000 803f 5344 803f 1eab 813f
00000060: b593 7e3f f55f 763f b993 7e3f 6c76 7e3f
00000070: 505c 7f3f 8cfa 743f 9de3 7f3f 0000 803f
00000080: e893 7d3f 8776 7e3f 6d76 7e3f 6097 813f
00000090: 2d77 7e3f b893 7e3f a7ac 7f3f 0000 803f
000000a0: 1475 7e3f 80c0 803f a425 7a3f 50da 7f3f
000000b0: a1dd 7d3f 042e 813f eaad 7e3f f7eb 803f
000000c0: a0b6 7f3f 6c76 7e3f 4b70 7e3f 6c76 7e3f
000000d0: 0ec2 803f 9f1c 793f a451 803f 0000 803f
000000e0: 100a 733f 011d 763f c893 7e3f 904e 7a3f
000000f0: af76 7e3f 0f46 773f c1ca 7e3f 6c76 7e3f
0.9939946 0.99444133 0.9939945 1.0 0.99653023 0.9806911 0.97948956 1.0
0.970107 1.0 0.9933437 0.93466514 1.0 1.0 1.0016285 0.99399453
0.99885833 0.9939945 1.0 1.0032864 1.0 1.0 1.0020851 1.0130346
0.99444133 0.9624017 0.99444157 0.9939945 0.9975023 0.95694804 0.99956685 1.0
0.9905381 0.9939961 0.99399453 1.0124321 0.994006 0.9944415 0.9987282 1.0
0.993974 1.0058746 0.97713685 0.99942493 0.99166304 1.0092168 0.9948412 1.0072011
0.9988804 0.9939945 0.99390095 0.9939945 1.0059221 0.973093 1.0024915 1.0
0.9493723 0.96138006 0.99444246 0.97776127 0.99399847 0.96591276 0.9952813 0.9939945

head.1.bias f4 [64]
00000000: 94c9 c4bb 4027 b6bb c7c9 c4bb 0000 0000
00000010: 53ba 713b 0a80 8b3a c820 2ebd 0000 0000
00000020: 2d04 ebbc 0000 0000 138b fbbb b2b3 6cbd
00000030: 0000 0000 0000 0000 cc68 0cbd c9c9 c4bb
00000040: 1ed3 2f3c c9c9 c4bb 0000 0000 3a4d 413b
00000050: 0000 0000 0000 0000 4af9 993a 879a 113c
00000060: 3b27 b6bb 55a8 eebc 7c26 b6bb c9c9 c4bb
00000070: a274 93ba 184e 91bc 54de 923b 0000 0000
00000080: dcc6 2ebc 6dc9 c4bb c3c9 c4bb 93a6 323c
00000090: 4cc9 c4bb 1b27 b6bb 2cf8 bf3b 0000 0000
000000a0: a197 f2bb fb64 013c 94d3 5cbc 3b54 07bc
000000b0: d003 0abc 8fc0 1b3c f297 803b aed0 dd3b
000000c0: 2cfc 03bd c9c9 c4bb 3fe4 c7bb c7c9 c4bb
000000d0: 3213 e8bb 96c5 d8bc cf5e bf3b 0000 0000
000000e0: fa59 0abd d04a edbc 1427 b6bb fca5 acbc
000000f0: 57c6 c4bb d5bb 9fbc a08f 983b cac9 c4bb
-0.0060054753 -0.005558878 -0.006005499 0.0 0.003688474 0.0010643017 -0.04251173 0.0
-0.028688515 0.0 -0.007676491 -0.05778856 0.0 0.0 -0.03427963 -0.0060055
0.010731487 -0.0060055 0.0 0.0029495494 0.0 0.0 0.0011747268 0.00888694
-0.005558876 -0.029133001 -0.005558787 -0.0060055 -0.0011249969 -0.017737433 0.00448207 0.0
-0.010667529 -0.006005457 -0.006005497 0.010903972 -0.006005442 -0.005558861 0.005858442 0.0
-0.0074033295 0.007897611 -0.0134781785 -0.008259828 -0.0084237605 0.009506359 0.0039243633 0.0067692613
-0.03222291 -0.0060055 -0.006100207 -0.006005499 -0.0070823664 -0.026461404 0.0058401595 0.0
-0.033777215 -0.028966337 -0.0055588577 -0.021075241 -0.0060050893 -0.019498745 0.0046557933 -0.0060055004

head.3.weight f4 [64, 64]
00000000: 1a6b 1d3d 8d2a 96bd d708 b3bb d0f6 f2bc
00000010: b5f6 87bd 97b8 30bd 75b6 ddbd 6427 bc3d
00000020: 7d5b d5bd 1c12 6e3d 35f1 54bd 9e2d 093e
00000030: acc0 3fbd a2b1 b03d 29b8 1bbd e1dd 1fbd
00000040: 9a96 aabd e20d b3bc 8856 63bd cda1 f8bd
00000050: 1054 8fbd 0c5e 63bd f3e2 a33d 62c0 68bd
00000060: 3127 bf3d 536a 003c 8a6f 4ebd 9d41 dd3c
00000070: db5e ffbc 4726 acbd 2b55 ab3d 9cae 183d
00000080: 9b77 c8bc 4a4e c6bc 420d cc3d 200b da3d
00000090: e2dd a43d b056 b2bc 91a0 863d 64a6 203d
000000a0: c98e b9bc ecb1 f7bd bc14 78bd 8a63 9d3d
000000b0: be50 b53d c3e2 823d 987a b8bd 5610 15bd
000000c0: 80e1 213d 025e 7a3d 056d 88bd 6a54 203d
000000d0: 387f e23d 4cfc 63bc af7c e9bd a862 d8bc
000000e0: d36f a33d d6c2 30bd 5494 53bb 3b31 8b3d
000000f0: e58e 01be 1f6e 87bd acfe 223d e90b b53d
00000100: 15ac abbb 8ed1 60bc 8b0f d2bc ce82 d2bd
00000110: 4b18 b83d 5cb7 60bd d5f1 b9bc e426 b8bd
00000120: 96e0 d03d ecef 55bd be39 aebd df17 e9bd
00000130: 18aa 29bd 8082 6bbb 64d9 b93d 9817 ca3d
00000140: f0ae e3bd b5fb bb3d 383c a93d 17e4 5e3d
00000150: 3801 5cbd e812 24bd f0d3 a03d 676d e6bd
00000160: 122c c73d e514 a7bd 8f9f ba3d dfd3 d13d
00000170: 0977 2b3d 40f2 463d 2d88 e9bd 84b6 943d
00000180: a2d0 82bd 9b12 9b3d cb06 9c3d 3e0c de3c
00000190: a59e 70bd 80dd 34bd 9d02 043c ec92 bf3d
000001a0: 536d 3d3c 5de4 c13d b736 993c 77bd d33d
000001b0: 6d73 2d3d 3118 013d 411d d5bd 6c1d 55bd
000001c0: 3cd4 543d e10b adbd 06ba 433d 4548 68bc
000001d0: 2ea2 9a3d 3b6f e1bd 7905 19bc f03d ec3c
000001e0: f0f1 61bd d955 c1bd 17ce 013e a048 cb3b
000001f0: 03a6 50bd 001d 08bc b739 e3bd 2ffe 9f3b
00000200: 14ab ae3d 669c 393d 0d75 bdbd a0cd 9fbb
00000210: d341 de3d bbfd b9bd ae74 acbd b48d e63d
00000220: b466 c5bd 0e85 ce3d 9497 253c 89f0 9a3d
00000230: 0018 f2bb 5e2d 92bd 950d 9b3d 97c5 a83d
00000240: c50f 583d 8496 8fbd 92b3 febd 5b52 83bd
00000250: b0b7 bcbd 4264 a9bd 3f09 f03d 0ce9 d3bd
00000260: 7529 373d e91c a4bd 72b9 9cbc faef 413d
00000270: 4a12 1cbd 596f cc3d 8a5d 2e3c fcf2 fa3d
00000280: 40fc 3c3c e381 84bd 02dd bf3b 5d1c ba3d
00000290: 09d5 d03c 7325 da3c b8c0 7fbd a062 d43c
000002a0: ca23 863d b38a 1cbd c1a2 1dbc 634f c1bb
000002b0: 15ce 643c 979a bb3d 8523 7cbd a595 be3d
000002c0: bd09 7a3d effc 993d 2993 453c 6f9a e43d
000002d0: ede5 613c 4829 c03d 03b4 c03d 60c5 d9bd
000002e0: 14f1 64bd 7893 403c 32d1 81bb 9fa4 573b
000002f0: bd9f 80bd aed5 1f3d 51da 163c ad1b ddbc
00000300: f676 8d3d 8c67 1f3d 09e4 b0bd 5225 a2bd
00000310: 8fbf e53d ec79 5b3d c05b 65bd 4087 13bd
00000320: 48ca 973c c47c 0abd f932 dc3d 03ee 313d
00000330: 160d b53d 267c ba3d 19ae d6bc 4abd 69bc
00000340: 61ac ae3c 8970 e83d 242e 213d c6a7 733d
00000350: 545c 2cbd 02ec babd 1cf5 943c e48f d0bb
00000360: e522 9abd 3ba5 35bc 2456 a73d fa7e d13d
00000370: 6a36 583d 477f 8dbd 5e6e 5bbd 8ce3 71bd
00000380: dc41 663c 1ce7 f0bd fde3 f23d 0e37 7dbd
00000390: f28b 5abc 48d7 c3bc 3c12 e33d 7694 e0bd
000003a0: 6b86 713c 78c5 ee3d c2d0 113e 3c17 44bd
000003b0: 9592 103c 26e4 5e3d 971a dfbd 3117 793d
000003c0: f406 1cbd e5f9 54bd ec85 b23d bb3f d2bd
000003d0: 437c d0bd 7363 9c3d 820a 84bd 5c8a a1bd
000003e0: ce37 3dbd 8972 a43a 42d6 f23d 4414 fbbd
000003f0: 6139 d83d 998d 803d 5d37 803d 7f89 973d
0.038432218 -0.07332335 -0.0054637003 -0.029658705 -0.066388525 -0.04314479 -0.108258165 0.09187201
-0.10417841 0.05812274 -0.051987845 0.13396308 -0.046814606 0.08627631 -0.038017426 -0.03902996
-0.08329506 -0.021857206 -0.055502445 -0.12140236 -0.069984555 -0.055509612 0.080022715 -0.056824096
0.09333647 0.00783785 -0.05039934 0.027008826 -0.03117316 -0.08405738 0.08365854 0.037275895
-0.024471095 -0.024207253 0.09963466 0.10646653 0.08050133 -0.021769851 0.06573594 0.039221182
-0.022651093 -0.12094483 -0.06056665 0.07685001 0.08853291 0.063909076 -0.09007758 -0.036392532
0.039521694 0.06112481 -0.06661419 0.039143004 0.11059421 -0.013915133 -0.11400735 -0.02641423
0.07980313 -0.04315456 -0.0032284455 0.06796499 -0.12652166 -0.06612801 0.039793655 0.08840162
-0.0052390196 -0.013721837 -0.025642177 -0.10278855 0.089890085 -0.054862365 -0.022698322 -0.08991793
0.10199086 -0.05223076 -0.08507107 -0.11381506 -0.04142198 -0.0035935938 0.09074667 0.098677814
-0.11117351 0.09178869 0.08263439 0.054416742 -0.0537121 -0.040057093 0.07852924 -0.112513356
0.097252026 -0.08158282 0.09112465 0.10245489 0.041861568 0.04857087 -0.114029266 0.072613746
-0.0638745 0.07571908 0.07618483 0.027105447 -0.058745045 -0.04415655 0.008057264 0.09354195
0.011561709 0.09467385 0.018702848 0.10338872 0.042346407 0.03151721 -0.1040597 -0.052030012
0.051960215 -0.08449531 0.047784828 -0.014177387 0.075504646 -0.11007544 -0.009339684 0.028838128
-0.05516237 -0.09440202 0.12676273 0.006203726 -0.05093957 -0.008307695 -0.110949926 0.004882596
0.08528724 0.04531517 -0.09250841 -0.0048768073 0.10852399 -0.09081598 -0.084206924 0.112574965
-0.0963873 0.10083972 0.01010694 0.0756541 -0.007388115 -0.07137559 0.0757095 0.08240812
0.052749414 -0.070111305 -0.12436594 -0.064121924 -0.09214723 -0.08271076 0.117205136 -0.103471845
0.04471727 -0.08013327 -0.019131396 0.047348 -0.03810338 0.099821754 0.010642419 0.12253377
0.01153475 -0.064700864 0.0058552036 0.09087441 0.025492208 0.026629185 -0.06243965 0.025925934
0.06549795 -0.03821821 -0.009621323 -0.005899356 0.013965149 0.09160345 -0.06155731 0.09305886
0.061044443 0.075189464 0.0120590115 0.11162268 0.013787729 0.09382874 0.094093345 -0.106333494
-0.055893973 0.011753909 -0.0039617056 0.0032904518 -0.06280468 0.03902214 0.009207324 -0.026990736
0.069074556 0.03891711 -0.08637244 -0.079172745 0.112181775 0.05358307 -0.055995703 -0.036017656
0.018529072 -0.033810392 0.1075191 0.043439876 0.088403866 0.09105711 -0.026206063 -0.014266321
0.021322431 0.113495894 0.039350644 0.059486173 -0.04208024 -0.09127046 0.018183284 -0.0063648093
-0.07526187 -0.011086757 0.08170727 0.10229297 0.05278627 -0.06909042 -0.05357205 -0.059054896
0.014053788 -0.117628306 0.118598916 -0.061820082 -0.01333903 -0.023906365 0.11087462 -0.10965817
0.01474152 0.11658758 0.14239791 -0.04787372 0.00882401 0.054416798 -0.108937435 0.060813133
-0.03809257 -0.05199613 0.0871695 -0.10266062 -0.10179951 0.07636156 -0.06447317 -0.07887718
-0.046195798 0.0012546341 0.11857273 -0.12259725 0.10557819 0.062770076 0.0626056 0.07399272

head.3.bias f4 [64]
00000000: f8a0 853d 3e65 0cbb dfec 76bd 6061 7a3b
00000010: 94d5 14bd c600 0c3e 53a6 edbd 221b 1c3d
00000020: 0490 68bd 32e6 3c3d 76b4 9ebd da9e 08bd
00000030: c495 6a3d 57d9 c2bd 8c66 59bd 1012 6a3d
00000040: 08ec b93c 9968 1cbd 5380 223b f448 cf3d
00000050: 3150 22bd 30ad 203d 209a 863d 6bdb d4bd
00000060: 6dbe c6bd c339 e6bd 70ef abbc bafc abbd
00000070: d08a 043d b608 bc3d ed49 83bd 7881 8c3c
00000080: 3634 bcbd 94bd c73d 49b1 263d f98b 92bd
00000090: 8a26 a9bd d636 8dbd 557e 7bbd 45df 8ebd
000000a0: 5e2a e23c ed71 89bd 8cfb 36bd de6d 0bbd
000000b0: d1be 87bd ca62 ea3c 40af d33d 1dfc 52bb
000000c0: 57a4 913b 37dd c03c 9dcc 98bd f21d 923d
000000d0: 3a9b 70bd 5e47 dfbd 808c 1ebc 7816 9b3d
000000e0: 017e 9abd 5504 583d 44a1 dd3d 7811 d53d
000000f0: 8915 83bd fcca 023d 4338 8dbb 4e00 c23d
0.06524843 -0.002142265 -0.06028449 0.0038205013 -0.036336496 0.1367217 -0.116039895 0.038111813
-0.05677797 0.04611797 -0.07749264 -0.033354618 0.057271734 -0.095141105 -0.053076312 0.057146132
0.022695556 -0.03818569 0.0024795725 0.101213366 -0.039627258 0.039227664 0.06572366 -0.10393413
-0.097042896 -0.11241486 -0.020988196 -0.08397813 0.032358944 0.09181349 -0.064105846 0.01715158
-0.09189646 0.09752956 0.040696416 -0.07155604 -0.08259304 -0.06895225 -0.061399776 -0.06976179
0.027608093 -0.06711183 -0.044673488 -0.034040324 -0.06628192 0.02861156 0.10336161 -0.0032193728
0.0044446397 0.023542983 -0.07460902 0.07134618 -0.058741786 -0.10902284 -0.0096770525 0.07572645
-0.075435646 0.052738506 0.108217746 0.104037225 -0.06400592 0.031931862 -0.0043096854 0.09472714
