outputs/exp_v1/checkpoints/epoch_100.pth (torch, 651938 bytes, 13 tensors)

base.0.weight f4 [64, 3, 7, 7]
-0.017917147 0.06164713 -0.035910178 0.007548933 -0.0009782192 -0.0630552 0.00766066 0.06804681
0.015287986 0.05474183 -0.059070542 -0.06820054 0.071258985 0.07325251 0.02664509 0.08062273
-0.035150126 -0.06430999 0.026778145 0.0125878975 0.032118637 0.052047774 -0.04464919 -0.026725536
-0.047208384 -0.07820716 -0.021411838 0.07870126 -0.06671023 0.048626076 -0.04393273 -0.061750233
0.0047864686 0.05077997 0.0045236037 0.021305883 -0.07179079 0.060711693 -0.058852963 0.033988874
0.07935078 0.009194224 -0.080601856 -0.07578149 0.029475374 -0.06514712 -0.05373176 -0.030178038
0.018216193 0.024389552 -0.047355562 -0.016695114 0.053853873 -0.06739911 -0.00083761656 -0.050213486
-0.014630046 0.012195531 0.05600093 -0.08562351 0.020490637 0.035501674 0.0688343 0.031568576
0.04516201 -0.07493863 -0.030311702 0.012863519 -0.06857073 -0.042484567 0.0345894 -0.03712878
0.009955454 0.0319864 0.07515404 0.07488029 0.015946113 -0.06441074 -0.040271427 0.06389313
0.06553818 0.031686142 -0.0675767 0.0059271697 -0.0029166406 -0.01772497 -0.03472087 0.025632607
0.06823487 -0.041662898 0.041972924 -0.060925204 0.029970866 -0.084682755 0.024893675 0.026875036
-0.0693555 0.02238434 0.013228966 -0.075275786 -0.051417295 0.0066883876 -0.0135773495 0.00096526224
0.04685523 0.05150336 -0.05971502 0.038411584 0.025154373 -0.02589809 0.02216106 -0.030869298
-0.010744352 0.06628582 -0.013310268 -0.019167129 -0.08100807 -0.007554688 -0.0825699 0.006840637
-0.019126583 -0.03781383 -0.010705727 0.034946356 0.034330226 -0.0066746506 -0.08213314 0.026969919
-0.0036406473 -0.0062841643 -0.02133948 -0.05659449 -0.051215302 -0.01578269 0.039784256 0.045859035
0.071478434 -0.0010540301 -0.0011919874 -0.036745522 -0.031757224 0.07778872 0.009340666 -0.08289335
0.024329456 0.056716576 -0.037765704 0.04684081 -0.055110715 0.004970685 -0.061779495 -0.07623008
0.009583707 0.004682216 -0.05159478 0.025161086 -0.0007111644 0.05521928 -0.022000195 -0.0074470704
0.030038916 -0.03659265 -0.059891883 0.012371572 -0.06307833 -0.022905733 0.026140044 0.062347647
-0.018604979 0.040540736 0.013191678 -0.063481554 0.04313877 -0.07999381 -0.0918801 -0.0840706
-0.06852169 0.052332472 -0.01628222 -0.08321219 -0.0068642506 0.034221042 0.05692598 0.06980631
-0.060381386 -0.07210853 0.020608094 -0.054875486 -0.027801659 0.0034471496 0.06472794 0.041235093
0.022393452 -0.059758082 -0.039635714 -0.09076904 0.0044525475 0.09403441 0.027871972 0.01639129
0.07231514 0.0009343066 -0.0034220193 0.0934855 -0.052903492 0.015691824 -0.027408352 0.061525557
0.08866282 0.043203052 -0.030792687 0.044559393 0.030096462 0.07382989 0.07316671 0.011583809
-0.035908654 0.10260926 0.052909628 0.08264371 -0.04884299 -0.03794753 -0.021572934 0.08871901
-0.060118154 -0.0015608772 0.023327405 0.06579585 0.019802287 0.03651116 0.0075536165 0.056750678
0.031014826 -0.04926897 0.0019115919 0.056066282 0.014463824 0.018870465 0.09498844 0.06644147
0.09383806 0.009527107 0.06590753 0.07658718 -0.049200077 -0.068140894 -0.06280941 -0.043657564
0.065113515 -0.07657873 0.07454973 0.06350672 -0.0048712213 -0.07700061 0.06264767 -0.0027298126
00000000: fbc6 92bc b381 7c3d 8d16 13bd 0a5d f73b
00000010: 9737 80ba 1623 81bd 4606 fb3b 205c 8b3d
00000020: 767a 7a3c f838 603d f4f3 71bd baac 8bbd
00000030: 3bf0 913d 6905 963d ce46 da3c 881d a53d
00000040: 94f9 0fbd f5b4 83bd d75d db3c 783d 4e3c
00000050: d58e 033d 0c30 553d 12e2 36bd 83ef dabc
00000060: 945d 41bd 132b a0bd e167 afbc 202e a13d
00000070: 609f 88bd 232c 473d cef2 33bd d0ed 7cbd
00000080: cfd7 9c3b a8fe 4f3d bd3a 943b ad89 ae3c
00000090: 0d07 93bd d3ac 783d ce0f 71bd eb37 0b3d
000000a0: a982 a23d 5fa3 163c 9612 a5bd 5333 9bbd
000000b0: 5776 f13c da6b 85bd d515 5cbd ef37 f7bc
000000c0: 203a 953c 99cc c73c e8f7 41bd 31c4 88bc
000000d0: e195 5c3d 8b08 8abd 7f93 5bba a8ac 4dbd
000000e0: dcb2 6fbc c4cf 473c 3b61 653d 615b afbd
000000f0: fbdb a73c 346a 113d fff8 8c3d 0d4e 013d
00000100: cdfb 383d 6d79 99bd 3f50 f8bc 82c1 523c
00000110: d06e 8cbd 4c04 2ebd 9dad 0d3d 5914 18bd
00000120: 331c 233c 2c04 033d 5cea 993d d65a 993d
00000130: 6ca1 823c c7e9 83bd a7f3 24bd 67da 823d
00000140: e238 863d 54c9 013d a765 8abd b438 c23b
00000150: 1c25 3fbb f533 91bc 7937 0ebd 79fb d13c
00000160: b9be 8b3d b7a6 2abd cdeb 2b3d b58c 79bd
00000170: 7685 f53c 276e adbd d2ed cb3c 0929 dc3c
00000180: 420a 8ebd 5d5f b73c 4ebe 583c 312a 9abd
00000190: f19a 52bd 432a db3b 8873 5ebc a709 7d3a
000001a0: 45eb 3f3d 30f5 523d bd97 74bd 7755 1d3d
000001b0: 8b10 ce3c 3b28 d4bc 1c8b b53c 9ce1 fcbc
000001c0: 1409 30bc dcc0 873d 4f13 5abc 6204 9dbc
000001d0: 8fe7 a5bd 518d f7bb 681a a9bd 6c27 e03b
000001e0: 5aaf 9cbc ade2 1abd 1367 2fbc e923 0f3d
000001f0: da9d 0c3d 07b7 dabb 6b35 a8bd 05f0 dc3c
00000200: ed97 6ebb 64eb cdbb 22d0 aebc a0cf 67bd
00000210: 23c7 51bd b34a 81bc d1f4 223d afd6 3b3d
00000220: 4963 923d 6227 8aba 763c 9cba 7982 16bd
00000230: dd13 02bd b14f 9f3d 9809 193c fdc3 a9bd
00000240: 914e c73c a44f 683d 36b0 1abd 26dc 3f3d
00000250: c6bb 61bd 21e1 a23b 7f0c 7dbd 841e 9cbd
00000260: fb04 1d3c 466d 993b 0c55 53bd 9f1e ce3c
00000270: 6f6d 3aba 9d2d 623d c139 b4bc 8e06 f4bb
00000280: 2c14 f63c 2de2 15bd 3151 75bd 22b2 4a3c
00000290: 362f 81bd cea4 bbbc a523 d63c 3f60 7f3d
000002a0: 7869 98bc 0b0e 263d e821 583c 9e02 82bd
000002b0: 47b2 303d cbd3 a3bd a22b bcbd 352d acbd
000002c0: 1a55 8cbd 935a 563d 4a62 85bc 276b aabd
000002d0: 82ed e0bb 5d2b 0c3d 372b 693d 9cf6 8e3d
000002e0: 7952 77bd a3ad 93bd 4ed2 a83c 1ec5 60bd
000002f0: 4ec0 e3bc 93e9 613b 1590 843d 21e6 283d
00000300: 7972 b73c e4c4 74bd 0f59 22bd 1ee5 b9bd
00000310: ade6 913b 1d95 c03d c353 e43c 0747 863c
00000320: f619 943d 41ec 743a f543 60bb 5375 bf3d
00000330: 55b1 58bd 248c 803c 7b87 e0bc 3902 7c3d
00000340: da94 b53d aff5 303d f240 fcbc e983 363d
00000350: db8c f63c 2034 973d 6ed8 953d 04ca 3d3c
00000360: f414 13bd ce24 d23d c4b7 583d 1b41 a93d
00000370: 960f 48bd df6e 1bbd b9b9 b0bc 50b2 b53d
00000380: 743e 76bd 5996 ccba 1d19 bf3c f9bf 863d
00000390: 6838 a23c ba8c 153d 5484 f73b 6673 683d
000003a0: ce12 fe3c 42ce 49bd 618e fa3a c2a5 653d
000003b0: adf9 6c3c 3c96 9a3c 4d89 c23d 7712 883d
000003c0: 2b2e c03d 9517 1c3c 87fa 863d bdd9 9c3d
000003d0: 0586 49bd 748d 8bbd 38a2 80bd 46d2 32bd
000003e0: 3c5a 853d 4fd5 9cbd 87ad 983d d00f 823d
000003f0: c49e 9fbb 7fb2 9dbd 6c4d 803d a8e6 32bb

base.0.bias f4 [64]
-0.005844726 -0.028551124 0.010811972 -0.07590174 -0.011434074 0.02053231 -0.022259388 0.01429189
-0.08372076 -0.019215899 -0.028934903 -0.0029212977 -0.008140998 -0.055743285 -0.015083896 0.039588924
0.060406066 0.0019188523 0.03652144 0.0510584 -0.020047264 -0.08391036 -0.012443598 -0.039991304
-0.090123154 0.05539233 -0.037447453 0.03908509 0.0056039635 0.03143341 0.021935279 0.0624585
0.01287442 0.029388685 -0.07517263 0.01478922 -0.06942762 -0.008758814 0.023824017 -0.037249632
0.055526905 -0.052342433 0.06906239 0.08178739 -0.0012617423 -0.0497892 -0.08451412 -0.07582011
-0.0331331 -0.04386708 -0.09188671 -0.024222108 -0.0093091605 -0.053079173 0.0023828691 -0.05273738
0.025890071 -0.014957955 0.056126717 -0.07588001 0.017676556 0.045233898 0.037867643 0.05695206
00000000: 1e85 bfbb 0ce4 e9bc b324 313c 5f72 9bbd
00000010: fb55 3bbc 6033 a83c 5259 b6bc 8828 6a3c
00000020: ca75 abbd a96a 9dbc e408 edbc 3e73 3fbb
00000030: d261 05bc 1253 64bd 7222 77bc ff27 223d
00000040: 5a6c 773d 0082 fb3a 8197 153d 9d22 513d
00000050: 293a a4bc 32d9 abbd 3ce0 4bbc eccd 23bd
00000060: 7d92 b8bd 11e3 623d 8062 19bd b017 203d
00000070: 74a1 b73b 52c0 003d 9db1 b33c 7cd4 7f3d
00000080: 3bef 523c 8ac0 f03c 1cf4 99bd 7c4e 723c
00000090: 1130 8ebd 2181 0fbc 962a c33c 1293 18bd
000000a0: 2e70 633d 0565 56bd 9570 8d3d 2680 a73d
000000b0: 0c61 a5ba c3ef 4bbd bd15 adbd 9347 9bbd
000000c0: 93b6 07bd f8ad 33bd 192f bcbd 716d c6bc
000000d0: 7385 18bc 8c69 59bd e929 1c3b 2703 58bd
000000e0: 6a17 d43c 3612 75bc 21e5 653d fb66 9bbd
000000f0: 6dce 903c 2e47 393d 1a1b 1b3d 9046 693d

res_blocks.0.conv.weight f4 [64, 64, 3, 3]
-0.022864593 0.0027113724 -0.019209249 -0.012257199 -0.025775608 0.0017139233 0.025451524 -0.013515203
0.0450792 -0.048222292 0.00808768 -0.00046107624 -0.027120763 -0.033777382 0.027601374 -0.023951864
0.003916767 0.030130142 -0.021300199 0.029597973 0.04855619 0.03771208 0.029351827 0.037787806
0.014047988 0.015309117 0.011669558 0.044556577 0.0039689317 0.03381948 0.036860865 0.0008957581
0.0022128543 0.023451366 -0.013531305 0.041315857 0.016222686 -0.014612833 -0.038933784 -0.030715937
-0.013638506 0.031105487 0.043936692 0.03763319 0.0030027279 -0.003545529 -0.00867033 -0.0281743
-0.027452769 0.049528766 0.032471664 -0.017511182 0.0034752775 0.0069499197 -0.027359381 0.013690456
-0.025395837 0.012793922 0.037058 0.0005452106 0.012617676 0.00755834 -0.009676637 0.023801155
0.00708795 -0.013607692 0.017823543 -0.01786874 -0.002278732 0.02953953 0.022913879 0.022398328
0.010280954 0.04849114 0.011317575 0.03738197 0.020296125 -0.007428282 0.043157738 -0.000370859
0.017434658 0.019377831 0.0018852324 -0.003955316 -0.027242236 0.008687205 -0.0070177033 -0.012383909
0.043170985 0.032581903 -0.033945728 -0.060294382 -0.04348853 -0.0069970293 -0.01818689 -0.033656497
0.0050765215 -0.028461814 -0.027384246 -0.028513193 -0.002918735 0.015783135 -0.020890836 0.019607315
-0.03589389 0.017029202 -0.030810772 -0.015114084 -0.031353675 0.038540635 0.028629806 0.040156066
0.0029068983 -0.014563507 -0.034385838 0.006429698 -0.022823822 0.015343729 -0.0026060974 0.046866495
-0.018629175 -0.027254533 -0.021522062 -0.027338592 0.015382656 -0.034619793 0.02847917 -0.020333987
-0.024923993 0.02755487 -0.023921717 0.015238073 0.03410858 0.0138386935 0.03754086 -0.0029037965
-0.032966636 0.026329154 0.00049368665 0.00045148376 0.036029592 0.04423106 0.029443737 0.05062252
-0.0005715753 0.040272817 0.042376652 -0.005354875 0.008811595 -0.019593282 -0.008602014 0.017782481
-0.031891014 0.016697418 0.03866336 -0.014472807 -0.023007272 -0.0027186372 0.027735526 0.012824435
0.04473369 0.03815334 0.006148831 -0.01572143 -0.04075656 0.010773203 0.022666568 -0.025146103
0.020865764 0.0007415849 0.026349356 0.009598948 0.027092678 -0.03237943 0.016984124 0.03663368
0.031240202 0.028189858 0.019636407 0.0241375 -0.0072031855 0.008392511 0.050258864 0.015135018
0.043294203 0.022774857 0.043292046 0.022555163 0.011235606 0.020265898 0.043915715 -0.04507878
0.034148917 -0.0031289342 -0.0014296211 -0.015323436 0.0061827167 0.031032868 0.062796116 0.049078576
0.047862154 0.06118032 0.0017745625 0.0040270584 0.02171656 0.010891404 0.03079192 -0.0011021055
0.05845773 -0.013024363 -0.00013596917 0.0022691125 0.030997219 -0.011615259 0.050590906 0.00703855
0.006094427 0.0013495773 0.0005304619 0.01703631 -0.039953236 -0.019773874 -0.030343095 0.043645903
-0.015638176 0.019846458 0.03650513 -0.017403865 0.037493445 -0.030207977 0.006195622 0.020013312
-0.02674166 -0.02387728 0.03349233 0.008605662 0.041358218 0.0035789635 0.012553037 0.016341265
0.021874255 0.0123956045 0.019638494 -0.00063001696 -0.02176765 0.012254138 0.018080903 -0.00339051
0.01276025 0.04091407 0.046299785 0.014636228 -0.028316218 0.025289398 0.01669225 0.008260594
00000000: 874e bbbc 48b1 313b b75c 9dbc 6bd2 48bc
00000010: 5e27 d3bc b9a5 e03a b77f d03c df6e 5dbc
00000020: f8a4 383d bd84 45bd 3082 043c 9bbc f1b9
00000030: 5d2c debc 275a 0abd 471c e23c b336 c4bc
00000040: 3958 803b 7dd3 f63c c17d aebc 7377 f23c
00000050: dbe2 463d fb77 1a3d 3e73 f03c 63c7 1a3d
00000060: 8829 663c 17d3 7a3c ac31 3f3c f580 363d
00000070: d00d 823b 4c86 0a3d 6bfb 163d 4fd1 6a3a
00000080: 8905 113b 141d c03c 68b2 5dbc d13a 293d
00000090: 70e5 843c aa6a 6fbc 0879 1fbd fd9f fbbc
000000a0: 0a74 5fbc efd0 fe3c f6f6 333d 4325 1a3d
000000b0: 6ac9 443b 1b5c 68bb 000e 0ebc cacd e6bc
000000c0: a1e4 e0bc adde 4a3d 0201 053d 9c73 8fbc
000000d0: 7bc1 633b 27bc e33b c820 e0bc ef4d 603c
000000e0: ee0a d0bc 999d 513c 21ca 173d 77ec 0e3a
000000f0: 5eba 4e3c f4ab f73b c28a 1ebc a4fa c23c
00000100: 0942 e83b ccf2 5ebc ae02 923c 7761 92bc
00000110: c756 15bb e2fc f13c e3b5 bb3c b37c b73c
00000120: 7271 283c a59e 463d 5a6d 393c d61d 193d
00000130: 0f44 a63c f268 f3bb 2bc6 303d da6f c2b9
00000140: 21d3 8e3c 42be 9e3c e719 f73a 989b 81bb
00000150: 1c2b dfbc c754 0e3c c3f4 e5bb e1e5 4abc
00000160: 0fd4 303d 9a74 053d ad0a 0bbd 3ef7 76bd
00000170: 0721 32bd 5647 e5bb acfc 94bc 65db 09bd
00000180: f358 a63b c028 e9bc ed54 e0bc 8094 e9bc
00000190: 3f48 3fbb a24b 813c 4223 abbc 859f a03c
000001a0: 7905 13bd d380 8b3c df66 fcbc 10a1 77bc
000001b0: b66c 00bd c9dc 1d3d 0e89 ea3c b07a 243d
000001c0: a981 3e3b c79b 6ebc 2ad8 0cbd 37b0 d23b
000001d0: 06f9 babc 4464 7b3c 0fcb 2abb 15f7 3f3d
000001e0: 369c 98bc e644 dfbc 094f b0bc 2ff5 dfbc
000001f0: 8907 7c3c 7ccd 0dbd 264d e93c 7693 a6bc
00000200: 672d ccbc c0ba e13c 7af7 c3bc 1ca9 793c
00000210: 70b5 0b3d b0bb 623c 72c4 193d 9f4d 3ebb
00000220: 0608 07bd 3db0 d73c c06a 013a 20b5 ec39
00000230: c493 133d a12b 353d fe33 f13c 8f59 4f3d
00000240: c5d5 15ba 1cf5 243d 2493 2d3d f277 afbb
00000250: 825e 103c 1782 a0bc 76ef 0cbc 91ac 913c
00000260: 27a0 02bd 06c9 883c 795d 1e3d 5a1f 6dbc
00000270: bf79 bcbc 2a2b 32bb 9d35 e33c 941d 523c
00000280: ac3a 373d ad46 1c3d 227c c93b 3aca 80bc
00000290: 5af0 26bd 1782 303c 3daf b93c 33ff cdbc
000002a0: aeee aa3c ec66 423a 9bda d73c e844 1d3c
000002b0: 77f1 dd3c 4ba0 04bd 4a22 8b3c 330d 163d
000002c0: 74eb ff3c 6bee e63c 88dc a03c 02bc c53c
000002d0: b308 ecbb be80 093c 3ddc 4d3d def8 773c
000002e0: 4355 313d 5692 ba3c 0053 313d 9bc5 b83c
000002f0: 8c15 383c ab04 a63c f7e0 333d 87a4 38bd
00000300: bcdf 0b3d ce0e 4dbb 2062 bbba 260f 7bbc
00000310: 6398 ca3b a438 fe3c 409b 803d 9e06 493d
00000320: 1b0b 443d 3798 7a3d 7098 e83a 6af5 833b
00000330: ede6 b13c dc71 323c 563f fc3c 8674 90ba
00000340: 5f71 6f3d 2364 55bc f292 0eb9 64b5 143b
00000350: e1ed fd3c ed4d 3ebc 6938 4f3d a3a3 e63b
00000360: c2b3 c73b 4de4 b03a b20e 0b3a bb8f 8b3c
00000370: 01a6 23bd d2fc a1bc 1592 f8bc 0cc6 323d
00000380: a21b 80bc 0a95 a23c 6786 153d 8d92 8ebc
00000390: ba92 193d b876 f7bc a504 cb3b f5f2 a33c
000003a0: 5311 dbbc 499a c3bc 412f 093d c3fe 0c3c
000003b0: 3c67 293d 0b8d 6a3b 41ab 4d3c 1ede 853c
000003c0: a331 b33c ef16 4b3c e8e0 a03c b927 25ba
000003d0: 1252 b2bc 94c5 483c 671e 943c 5233 5ebb
000003e0: 5e10 513c 8395 273d d8a4 3d3d cacc 6f3c
000003f0: 6af7 e7bc b62b cf3c 2fbe 883c 7157 073c

res_blocks.1.conv.weight f4 [64, 64, 3, 3]
-0.034529783 -0.037146553 -0.032970715 -0.04370397 0.0378961 -0.0097289225 -0.021457672 -0.029489934
-0.015002942 0.03841553 0.025524508 0.049417008 -0.01859834 0.039212763 0.0321551 -0.008870106
-0.02491935 0.015808009 -0.029311111 0.014506915 -0.005669034 -0.00023868382 0.007449498 0.041517835
0.009092312 -0.028201604 0.020147135 -0.0051460504 0.029860418 0.039793245 0.009011254 -0.02534118
-0.020725239 0.03920651 0.01912114 0.022924073 -0.010187382 0.04739277 0.036896013 0.056492995
-0.025091931 -0.016584806 0.026642283 0.016726697 -0.0024104943 0.007874886 -0.029792933 0.035825044
-0.01082697 0.037070718 -0.016108142 0.00043233842 -0.021905825 0.028581336 -0.018064233 0.047667272
0.014955382 -0.01803775 -0.026177317 0.029211264 0.03679824 0.015945008 0.024612188 -0.024380753
0.012466423 0.037721 0.010402879 0.004457182 0.027301868 -0.0032906688 0.0065716603 -0.012807107
0.0034635076 -0.03349592 -0.037709713 -0.025859967 -0.034144465 -0.025815476 0.015968854 0.007255184
0.015127588 0.04465546 -0.019242078 -0.019829253 0.034321625 0.022410017 0.034972064 0.04412114
0.009638621 -0.032608733 -0.02193625 0.0016320699 0.010976562 -0.033434555 -0.03411824 0.009397406
-0.006011782 -0.014450959 -0.026233308 -0.022647293 -0.021912098 0.033742357 -0.006102299 -0.022342034
-0.0080883885 0.04132962 -0.005100647 -0.015634993 0.014178842 -0.008040726 -0.011067428 -0.0264113
-0.0023065533 0.028546775 0.038161147 -0.012098895 0.047546312 0.03636519 -0.020281445 0.047012318
0.04058509 0.0011284872 0.024884481 0.004499205 0.039385386 0.045858074 -0.0019445898 -0.017818179
0.029830495 0.0034700083 0.043656938 -0.004382314 0.00875461 0.019839143 0.022549877 -0.005361062
-0.011469468 0.00024124578 0.05082144 0.04044284 -0.02147055 0.00025693912 0.04668136 0.012954977
0.03660673 0.02326676 0.04454639 -0.021009848 0.019665116 0.031106468 0.047973763 0.0065431274
0.02044143 -0.020311072 0.045808744 0.032137506 0.040051572 0.046096895 -0.017015038 0.019110322
-0.007890876 0.039234467 0.03946654 0.034356043 0.012553802 0.041747067 -0.01569469 -0.009009038
0.017476898 0.007845589 0.016121317 0.020103583 0.023889143 0.048292514 0.01251709 -0.0023269055
0.0163162 -0.023848478 0.031166533 0.010410355 0.034815576 0.025507815 0.022275997 0.012913521
-0.026288226 -0.019365815 -0.029810883 -0.027139544 0.017757395 0.020290889 0.030670274 0.05111151
0.027080065 -0.018981539 -0.022888886 -0.021884596 0.0333123 0.035138767 -0.00565353 -0.010928612
0.04986171 -0.010709225 0.0471217 0.031606417 -0.0032022824 0.0014546758 0.04640992 -0.034707762
-0.027870703 -0.021427546 0.043093067 0.037014186 0.015249104 0.016136508 -0.015975492 0.017155344
-0.024299556 0.018638568 0.028419344 0.0065079443 0.019304771 -0.009358693 0.04557458 0.015439681
0.05385148 0.02011583 0.017697725 -0.023840852 0.030611252 -0.009213466 -0.003530574 0.040212113
0.013372724 0.049944032 -0.013807008 0.04732068 -0.011187443 -0.010200644 0.052706983 -0.007888004
0.043592874 0.024205793 0.015987879 0.053795338 0.026682455 0.006153087 -0.005073655 0.002847648
0.012858186 0.022290668 0.038787737 -0.012072452 0.009869938 -0.008683543 -0.033173483 0.04307014
00000000: 1a6f 0dbd fc26 18bd 4d0c 07bd ef02 33bd
00000010: f138 1b3d 0f66 1fbc 00c8 afbc e094 f1bc
00000020: e6ce 75bc 9a59 1d3d c618 d13c 7d69 4a3d
00000030: 8c5b 98bc 909d 203d 11b5 033d ec53 11bc
00000040: aa23 ccbc cc7f 813c db1d f0bc 69ae 6d3c
00000050: 4ec3 b9bb 3347 7ab9 eb1a f43b 9b0e 2a3d
00000060: ecf7 143c 0d07 e7bc 9b0b a53c 33a0 a8bb
00000070: d69d f43c 3efe 223d f0a3 133c 4e98 cfbc
00000080: fac7 a9bc 0197 203d f0a3 9c3c 44cb bb3c
00000090: fae8 26bc ec1e 423d 4620 173d 3365 673d
000000a0: 988d cdbc dcdc 87bc eb40 da3c 6d06 893c
000000b0: 62f9 1dbb aa05 013c 4f10 f4bc 48bd 123d
000000c0: 9b63 31bc 77d7 173d 39f5 83bc 7bab e239
000000d0: d873 b3bc 6823 ea3c 71fb 93bc c23e 433d
000000e0: 6b07 753c e7c3 93bc d071 d6bc 764c ef3c
000000f0: c0b9 163d 1b9f 823c 809f c93c 25ba c7bc
00000100: f83f 4c3c 5681 1a3d d670 2a3c 8d0d 923b
00000110: 2ba8 df3c 43a8 57bb 1557 d73b e6d4 51bc
00000120: 04fc 623b 0533 09bd 8075 1abd 48d8 d3bc
00000130: 11db 0bbd fa7a d3bc 1dd1 823c e5bc ed3b
00000140: b4d9 773c a5e8 363d 90a1 9dbc f570 a2bc
00000150: d594 0c3d 3695 b73c de3e 0f3d 5eb8 343d
00000160: 4eeb 1d3c bc90 05bd a7b3 b3bc 2eeb d53a
00000170: 0ad7 333c acf2 08bd 91bf 0bbd 94f7 193c
00000180: 7cfe c4bb b7c3 6cbc 3ce7 d6bc d186 b9bc
00000190: 0081 b3bc 6d35 0a3d cbf5 c7bb a406 b7bc
000001a0: 2985 04bc 3f49 293d 5423 a7bb f514 80bc
000001b0: 604e 683c 40bd 03bc 2854 35bc 835c d8bc
000001c0: 8b29 17bb edda e93c dd4e 1c3d 723a 46bc
000001d0: ecbf 423d aaf3 143d 4625 a6bc fd8f 403d
000001e0: 8d3c 263d bfe9 933a 8ada cb3c 116e 933b
000001f0: 9252 213d add5 3b3d 9be1 feba 6ef7 91bc
00000200: 155f f43c 1469 633b 9ed1 323d 8499 8fbb
00000210: 7f6f 0f3c b385 a23c 85ba b83c d9ab afbb
00000220: 6fea 3bbc ecf6 7c39 242a 503d 64a7 253d
00000230: 02e3 afbc c9b5 8639 f434 3f3d 1d41 543c
00000240: f0f0 153d ef99 be3c 4776 363d d81c acbc
00000250: bd18 a13c fed2 fe3c 2380 443d bb67 d63b
00000260: c974 a73c 6863 a6bc f3a1 3b3d 9ea2 033d
00000270: 1e0d 243d 19d0 3c3d 1f63 8bbc 408d 9c3c
00000280: bc48 01bc 52b4 203d aba7 213d ecb8 0c3d
00000290: 76ae 4d3c f9fe 2a3d 2792 80bc a59a 13bc
000002a0: b62b 8f3c c98a 003c da10 843c 45b0 a43c
000002b0: 2ab3 c33c 5fce 453d 7b14 4d3c ff7e 18bb
000002c0: 8da9 853c e25d c3bc f550 ff3c 3290 2a3c
000002d0: c79a 0e3d c4f5 d03c 277c b63c 3c93 533c
000002e0: 685a d7bc 0fa5 9ebc f435 f4bc c053 debc
000002f0: f577 913c 1439 a63c 3a40 fb3c 4d5a 513d
00000300: 03d7 dd3c 2c7f 9bbc 7981 bbbc 5347 b3bc
00000310: 7a72 083d abed 0f3d 3f41 b9bb ec0d 33bc
00000320: cb3b 4c3d bf75 2fbc af02 413d bb75 013d
00000330: 62dd 51bb d2aa be3a 5418 3e3d ba29 0ebd
00000340: 1a51 e4bc d288 afbc 5b82 303d 309c 173d
00000350: 61d7 793c b630 843c 09df 82bc 5d89 8c3c
00000360: dd0f c7bc e9af 983c afcf e83c 9840 d53b
00000370: 0a25 9e3c 3455 19bc 69ac 3a3d b7f6 7c3c
00000380: 5f93 5c3d f4c9 a43c d2fa 903c e44d c3bc
00000390: 73c4 fa3c 14f4 16bc 3461 67bb 75b5 243d
000003a0: 4519 5b3c 1d92 4c3d ca36 62bc 54d3 413d
000003b0: 894b 37bc 9a20 27bc 47e3 573d b03c 01bc
000003c0: 718e 323d 3a4b c63c 03f9 823c 8058 5c3d
000003d0: 2a95 da3c d69f c93b e740 a6bb 9b9f 3a3b
000003e0: 24ab 523c eb9a b63c e4df 1e3d 89cb 45bc
000003f0: 85b5 213c 6b45 0ebc ebe0 07bd 516a 303d

res_blocks.2.conv.weight f4 [64, 64, 3, 3]
-0.014269411 0.031617038 -0.034095034 -0.006905481 0.033532333 -0.019295903 -0.005481319 0.04657343
0.054424297 -0.0109349545 0.011733496 -0.021322222 -0.02841042 -0.0056961244 -0.019676203 0.010721109
-0.0012941026 0.042433444 0.0047786105 0.008662973 -0.026699929 -0.004047357 -0.031186046 0.024584262
0.038860694 -0.01676618 -0.024996605 -0.022015758 0.02939431 0.03550221 -0.0065918234 -0.007536535
0.04785642 -0.032358266 0.021486344 0.011761286 -0.03179337 0.018217256 -0.03491737 0.0016894441
0.018214367 -0.0054408098 0.0077753267 0.02411278 0.02568165 0.009200299 0.0030946613 -0.019177668
0.041455388 0.043537814 0.005226788 0.04376186 0.0394447 0.0089611905 -0.021011561 -0.01680703
0.003181431 0.04508985 0.04344677 -0.005688003 0.03925728 0.02002247 -0.01411187 -0.016700903
0.020254567 0.03234927 0.0011754723 0.036835324 0.0065836464 0.033013813 -0.023577692 0.015502335
0.019056266 0.013005344 -0.042119548 -0.0344852 -0.0289243 -0.021874959 -0.0010446453 -0.03502917
-0.032832697 -0.0069668186 -0.016483268 0.046042252 0.011641105 0.037353672 -0.004355587 -0.028784847
-0.015273999 -0.018808031 -0.0040045213 -0.037103165 -0.0102675585 0.008240123 -0.038464893 0.012630307
-0.0005961103 0.03458988 0.013058369 -0.025345938 0.014265427 0.015648618 0.020355461 0.019102719
0.035896767 0.04758957 0.014542696 0.050313067 0.032109883 0.045552537 -0.023991808 0.025108093
0.0045484793 -0.0025569433 0.0034427769 -0.028558517 0.009522523 -0.0008816074 0.032325234 0.041096497
0.03298182 0.017066255 -0.0223249 -0.015873771 -0.03473881 0.04255598 0.044790067 0.026338156
-0.011163535 0.008143076 0.0058527123 0.002112357 0.03323416 -0.026833158 -0.028623164 -0.02686737
0.053033102 0.03478217 0.015172224 -0.008767226 -0.017075093 -0.021731183 -0.011392309 0.05043449
0.03167325 0.013888921 0.010838273 0.042577542 0.037672564 0.026088929 0.029420426 0.012099598
-0.0147660235 0.024030324 -0.028453995 0.0073863203 -0.011242877 -0.008028695 -0.028277585 0.0019615109
-0.0071124285 0.024760881 -0.0030020168 0.03805536 0.0042925426 0.038059566 0.00668435 0.047557242
-0.019403165 -0.011238149 0.045423206 -0.031565472 0.0039463667 -0.0026200179 0.021375807 -0.018299742
0.042805146 0.0044399397 -0.020101633 0.0058191195 0.05011765 0.022802489 0.019628607 0.025534898
0.0012468799 0.0038032401 0.022391768 0.008772757 0.024056165 0.037554514 -0.02605088 0.03816661
0.036547408 -0.017016776 0.044586357 0.004689057 0.00901455 0.0014355634 0.039284255 0.051947046
0.017808734 0.043755874 0.041791715 0.04641656 0.028879605 0.048253752 0.027484117 -0.012848715
0.0037904852 -0.010273396 -0.004946853 0.031197468 0.00055096345 -0.020504197 0.046175264 -0.03244919
0.023999216 0.04182376 -0.009673543 0.008293103 0.01412382 0.00092308025 -0.031624965 -0.01931022
0.032410756 0.004088641 0.00560072 0.017026206 0.050093323 -0.024963632 0.0004581434 0.030974124
-0.020995244 -0.029446902 0.03733759 0.010672467 -0.024403606 -0.021935638 0.041728362 0.0028709625
0.02579373 -0.020955518 -0.024772087 0.023601916 -0.028226845 0.010563527 -0.015987037 -0.0060026012
0.008092609 0.014476983 0.0063259345 0.009492362 -0.018763298 0.03464444 0.010908991 0.031812545
00000000: 3fca 69bc de80 013d 3ca7 0bbd 6047 e2bb
00000010: 3359 093d 7112 9ebc a39c b3bb c8c3 3e3d
00000020: 03ec 5e3d 8628 33bc d93d 403c f1ab aebc
00000030: f8bc e8bc 8ea6 babb fd2f a1bc 97a7 2f3c
00000040: e19e a9ba b1ce 2d3d e495 9c3b 24ef 0d3c
00000050: cfb9 dabc b19f 84bb e179 ffbc ef64 c93c
00000060: 642c 1f3d 3a59 89bc aec5 ccbc 645a b4bc
00000070: 56cc f03c c46a 113d 3900 d8bb 0af5 f6bb
00000080: 1805 443d 1a8a 04bd 2104 b03c 69b2 403c
00000090: c439 02bd 5b3c 953c 8405 0fbd 5670 dd3a
000000a0: 4c36 953c d248 b2bb 2bc8 fe3b 2a88 c53c
000000b0: 5362 d23c dabc 163c cdcf 4a3b 7c1a 9dbc
000000c0: 20cd 293d b554 323d 7a45 ab3b a33f 333d
000000d0: c490 213d f5d1 123c 7020 acbc e6ae 89bc
000000e0: 8e7f 503b 22b0 383d 3ef5 313d 6d62 babb
000000f0: 3ecc 203d 2a06 a43c 7935 67bc 55d0 88bc
00000100: e8ec a53c ab80 043d 4e12 9a3a a3e0 163d
00000110: a1bb d73b 7e39 073d 0126 c1bc 81fd 7d3c
00000120: e31b 9c3c 5e14 553c 8c85 2cbd 5a40 0dbd
00000130: a7f2 ecbc 1d33 b3bc 7bec 88ba bf7a 0fbd
00000140: 947b 06bd e949 e4bb eb07 87bc cd96 3c3d
00000150: 55ba 3e3c 2a00 193d 50b9 8ebb 33ce ebbc
00000160: cc3f 7abc 4d13 9abc 5c38 83bb 7df9 17bd
00000170: 4339 28bc 9501 073c 5d8d 1dbd 59ef 4e3c
00000180: 4944 1cba 1eae 0d3d c5f2 553c 49a2 cfbc
00000190: 8ab9 693c 8831 803c 7fc0 a63c 4e7d 9c3c
000001a0: 7d08 133d 48ed 423d 7d44 6e3c 1315 4e3d
000001b0: a785 033d 4c95 3a3d 788a c4bc 7daf cd3c
000001c0: 690b 953b 6492 27bb 36a0 613b 8df3 e9bc
000001d0: 5b04 1c3c ac1b 67ba 7767 043d cd54 283d
000001e0: f217 073d 88ce 8b3c b5e2 b6bc b609 82bc
000001f0: 484a 0ebd 2e4f 2e3d ca75 373d 1ec3 d73c
00000200: 42e7 36bc 896a 053c 1cc8 bf3b 786f 0a3b
00000210: 8b20 083d 36d1 dbbc 207b eabc f518 dcbc
00000220: 3d39 593d c077 0e3d eb94 783c 69a4 0fbc
00000230: 11e1 8bbc 9805 b2bc cfa6 3abc 6594 4e3d
00000240: cfbb 013d 5b8e 633c 0393 313c ca65 2e3d
00000250: 8c4e 1a3d 73b8 d53c 1b03 f13c 643d 463c
00000260: 31ed 71bc 3edb c43c 5a18 e9bc f208 f23b
00000270: 0b34 38bc ca8a 03bc 65a6 e7bc b18c 003b
00000280: 600f e9bb 55d7 ca3c 7cbd 44bb f0df 1b3d
00000290: 75a8 8c3b 59e4 1b3d 6408 db3b 62cb 423d
000002a0: 63f3 9ebc 3720 38bc af0d 3a3d cc4a 01bd
000002b0: 8650 813b 9bb4 2bbb 511c af3c 57e9 95bc
000002c0: 7354 2f3d ea7c 913b 2eac a4bc 50ae be3b
000002d0: 2a48 4d3d 49cc ba3c 2ccc a03c 902e d13c
000002e0: 596e a33a c83f 793b f16e b73c 9cbb 0f3c
000002f0: 6f11 c53c c3d2 193d a868 d5bc 9754 1c3d
00000300: bcb2 153d c466 8bbc 2fa0 363d a9a6 993b
00000310: c3b1 133c 8429 bc3a 87e8 203d 6dc6 543d
00000320: 9fe3 913c 5c39 333d ca2d 2b3d 4a1f 3e3d
00000330: ec94 ec3c baa5 453d 5f26 e13c 6b83 52bc
00000340: ca69 783b bf51 28bc 3619 a2bb d591 ff3c
00000350: 886e 103a 6bf8 a7bc 4622 3d3d 71e9 04bd
00000360: 019a c43c 644f 2b3d c87d 1ebc ccdf 073c
00000370: 9867 673c defa 713a 2e89 01bd 7730 9ebc
00000380: 24c1 043d 02fa 853b 3f86 b73b 8b7a 8b3c
00000390: a82e 4d3d 8880 ccbc f732 f039 72bd fd3c
000003a0: 38fe abbc a13a f1bc 4def 183d 92db 2e3c
000003b0: 12ea c7bc 5eb2 b3bc 5ceb 2a3d c226 3c3b
000003c0: 5f4d d33c e8aa abbc d5ee cabc ce58 c13c
000003d0: fc3b e7bc a512 2d3c 3ff7 82bc 78b1 c4bb
000003e0: dd96 043c de30 6d3c c949 cf3b da85 1b3c
000003f0: 7db5 99bc 54e7 0d3d a0bb 323c df4d 023d

global_pool.0.weight f4 [64, 64, 3, 3]
0.002570991 -0.03556529 0.028993867 0.017337343 -0.023571461 0.010340314 -0.021268776 0.023146166
-0.001636019 0.0070376983 -0.011317587 0.027632842 0.00092618883 -0.035156753 -0.013950009 0.043180816
-0.0023032445 0.026794508 0.024384493 -0.022830112 0.010159255 -0.048384182 -0.04477167 -0.064970635
-0.006462443 -0.013745377 -0.013460692 0.032869484 -0.027686523 -0.02264029 -0.029689712 -0.04575644
0.015226086 -0.017071491 -0.014038933 -0.0024701185 -0.0015615622 -0.028467918 -0.018620132 -0.004423584
-0.050729804 -0.030824749 -0.03785593 0.0038811432 0.019149007 0.012816871 0.034057833 -0.032815542
-0.023572735 -0.033233877 -0.04080193 -0.046374656 -0.016672255 -0.0002151363 -0.0048308205 0.017219959
-0.038360495 -0.009319781 0.026814573 0.02789516 -0.032116942 -0.0427102 0.031162977 -0.026983399
0.03184275 0.021943545 0.021905331 0.0308696 0.00874326 0.023682695 -0.0013847562 -0.038144387
-0.0078043495 -0.03887239 0.015679747 0.0067424993 -0.004989939 0.01990767 0.0043801605 0.035980973
-0.025639575 -0.043737087 0.00046409547 0.031271655 -0.0068066246 0.00011839765 -0.0018292185 -0.025330829
0.012149398 0.009921533 -0.029604206 -0.03117511 -0.010205051 0.033891253 -0.037937876 0.030155532
-0.03268988 0.02880496 0.036979835 0.0064487495 -0.03419631 -0.011157636 0.0013609111 0.01798271
-0.005890628 0.037346233 -0.03469212 -0.021338418 -0.035965823 0.0014611204 -0.009811432 -0.026740404
0.010003299 -0.020466985 -0.05073613 -0.008881658 -0.00037816295 0.033560757 -0.041608937 0.0076605813
-0.032962617 0.013298671 -0.014563866 0.0074717477 -0.04526851 -0.009571323 -0.047486633 0.00076069636
0.02788564 -0.019671531 0.0020902934 -0.020508638 0.024999259 0.0142989205 -0.025167072 -0.0051546055
0.0056189643 -0.031789932 -0.027573878 0.018016666 -0.017297179 0.008399821 0.012219853 -0.047320753
0.03452662 0.016428297 0.020391094 0.028652318 -0.04213637 -0.0053315894 0.0034367472 -0.034947973
-0.02848831 0.01370444 0.034257203 0.0129040945 0.010871123 0.03019574 -0.047116265 -0.03032612
0.019439653 -0.03822882 0.0026228644 -0.007702137 -0.0046495623 0.012066584 -0.029637296 -0.026741672
-0.038019363 -0.041333012 -0.035589922 -0.011058413 -0.012645338 -0.015476313 -0.03593873 -0.037525456
-0.017149782 -0.03962208 -0.0046769422 -0.024443205 -0.014694451 -0.016181726 -0.0012629194 -0.026395187
0.024991127 -0.040447727 0.019023355 -0.011201568 0.007410198 0.033619612 0.042081144 -0.025552135
-0.0016177713 -0.0030533979 0.018438786 -0.022910481 0.010585799 0.017330065 0.0016243448 0.00861163
-0.003946306 -0.054198273 0.022097427 0.010700779 0.00217984 0.027776511 0.016288029 -0.012565072
0.026562147 0.021999396 -0.023077868 0.011773947 -0.002751504 -0.036552723 -0.02137473 0.02402314
0.025192918 0.02274258 0.004231919 0.022944912 0.0175786 0.02157684 -0.01920065 0.02243331
-0.01615332 -0.019872745 -0.025980027 -0.014222581 0.031279657 0.006306402 0.018908072 0.012732371
-0.01966831 0.028157191 0.011780295 -0.027488125 -0.03380731 -0.0048103314 0.0074763843 -0.0077077565
-0.02531951 -0.014291366 -0.048095524 -0.025338698 0.0073510665 -0.014774581 0.0055934465 0.00016461618
0.014491666 -0.04986419 -0.038627863 -0.04699075 0.032067068 0.010214639 -0.024788443 -0.005368169
00000000: 127e 283b e9ac 11bd 8c84 ed3c 0b07 8e3c
00000010: f018 c1bc 6c6a 293c db3b aebc 079d bd3c
00000020: b06f d6ba 7e9c e63b 676d 39bc 455e e23c
00000030: 7bcb 723a 8700 10bd 948e 64bc 5ede 303d
00000040: 08f2 16bb 2880 db3c fdc1 c73c 3706 bbbc
00000050: 0173 263c 7e2e 46bd 8062 37bd 530f 85bd
00000060: e7c2 d3bb 4a34 61bc 3c8a 5cbc 27a2 063d
00000070: d9ce e2bc 2178 b9bc d737 f3bc 1b6b 3bbd
00000080: d576 793c 83d9 8bbc 8e03 66bc b6e1 21bb
00000090: 55ad ccba 8d35 e9bc 3f89 98bc b6f3 90bb
000000a0: 0eca 4fbd 2f84 fcbc d20e 1bbd c75a 7e3b
000000b0: 61de 9c3c dafd 513c 3a80 0b3d 9769 06bd
000000c0: 9c1b c1bc 3f20 08bd ed1f 27bd 5af3 3dbd
000000d0: 4194 88bc 3696 61b9 dc4b 9ebb df10 8d3c
000000e0: e51f 1dbd ffb1 18bc 3caa db3c 6484 e43c
000000f0: 0e8d 03bd e4f0 2ebd 8049 ff3c 4a0c ddbc
00000100: 8b6d 023d f3c2 b33c cf72 b33c 3ee2 fc3c
00000110: e43f 0f3c 3602 c23c b580 b5ba 4a3d 1cbd
00000120: a1bb ffbb a838 1fbd d072 803c 2ff0 dc3b
00000130: a482 a3bb 6915 a33c 7387 8f3b c960 133d
00000140: 160a d2bc a925 33bd d751 f339 b516 003d
00000150: 1b0a dfbb 414c f838 63c2 efba 9982 cfbc
00000160: 450e 473c ed8d 223c 8584 f2bc f262 ffbc
00000170: 1633 27bc 8ed1 0a3d bf64 1bbd bc08 f73c
00000180: d3e5 05bd 61f8 eb3c 2b78 173d 0850 d33b
00000190: 6e11 0cbd 84ce 36bc 9960 b23a 7a50 933c
000001a0: 2b06 c1bb 5df8 183d 5319 0ebd e8cd aebc
000001b0: e650 13bd 1183 bf3a 21c0 20bc b10e dbbc
000001c0: e1e4 233c 61aa a7bc b0d0 4fbd 6084 11bc
000001d0: 2c44 c6b9 0177 093d 226e 2abd 9d05 fb3b
000001e0: cf03 07bd abe2 593c 489d 6ebc 90d5 f43b
000001f0: 796b 39bd 0ad1 1cbc 5881 42bd 7869 473a
00000200: 6d70 e43c 3126 a1bc 4efd 083b bb01 a8bc
00000210: 3fcb cc3c 0546 6a3c 2d2b cebc f7e7 a8bb
00000220: 4a1f b83b 2936 02bd 9de2 e1bc b097 933c
00000230: d0b2 8dbc 679f 093c c735 483c 68d3 41bd
00000240: c96b 0d3d a394 863c 390b a73c 44b8 ea3c
00000250: 3097 2cbd 9db4 aebb 0d3b 613b 9b25 0fbd
00000260: 5160 e9bc 9688 603c 4851 0c3d b26b 533c
00000270: cb1c 323c 0e5d f73c fcfc 40bd 7c6e f8bc
00000280: e83f 9f3c d395 1cbd 5de4 2b3b 3562 fcbb
00000290: 5b5b 98bb ecb2 453c eac9 f2bc 5a11 dbbc
000002a0: 31ba 1bbd ce4c 29bd bdc6 11bd 592e 35bc
000002b0: 642e 4fbc 5d90 7dbc 7d34 13bd 4bb4 19bd
000002c0: b37d 8cbc c34a 22bd 0941 99bb 1e3d c8bc
000002d0: ffc0 70bc 8a8f 84bc 8b88 a5ba b83a d8bc
000002e0: 31ba cc3c 84ac 25bd ded6 9b3c c886 37bc
000002f0: 3fd1 f23b b8b4 093d 475d 2c3d b652 d1bc
00000300: 660b d4ba 841b 48bb f00c 973c c3ae bbbc
00000310: 0f70 2d3c c8f7 8d3c f8e7 d43a cb17 0d3c
00000320: 0450 81bb 02ff 5dbd aa05 b53c 5252 2f3c
00000330: a6db 0e3b 918b e33c 796e 853c bbdd 4dbc
00000340: dc98 d93c 1438 b43c cc0d bdbc 83e7 403c
00000350: 9452 34bb 4fb8 15bd 0f1a afbc 2dcc c43c
00000360: 6161 ce3c a64e ba3c e9ab 8a3b f8f6 bb3c
00000370: ff00 903c eac1 b03c ae4a 9dbc 10c6 b73c
00000380: f853 84bc 2bcc a2bc 11d4 d4bc d405 69bc
00000390: 191f 003d efa5 ce3b 1ae5 9a3c 6f9b 503c
000003a0: 701f a1bc e9a9 e63c 2302 413c c72e e1bc
000003b0: 8979 0abd fc9f 9dbb 75fc f43b 5991 fcbb
000003c0: dc6a cfbc 5526 6abc d0ff 44bd 1a93 cfbc
000003d0: 37e1 f03b 1611 72bc 3b49 b73b d29c 2c39
000003e0: 746e 6d3c 653e 4cbd 4038 1ebd 5f79 40bd
000003f0: c258 033d 4d5b 273c 2211 cbbc 77e7 afbb

global_pool.0.bias f4 [64]
-0.004060682 -0.021999527 0.010790524 -0.04482401 0.0093900105 -0.023168443 -0.011443747 -0.03367557
0.0028646695 -0.044048693 0.0256866 -0.025382545 0.020550335 0.0044725337 0.040262505 -0.026996689
-0.00027828314 -0.015093684 0.02414134 0.014042939 -0.036051918 -0.040572252 -0.039339866 0.023724953
-0.005274281 0.035988484 -0.040564742 0.021658452 0.037539434 0.031055436 0.020846926 -0.013604712
-0.01309766 0.02928907 0.012505998 -0.012097413 -0.0007965197 0.0049809334 0.039926693 0.004374176
0.006185122 0.04868499 0.019650739 -0.015595686 0.017138869 -0.0136258155 0.017813606 -0.011447502
0.04610521 -0.017193887 -0.0065896413 -0.028055916 0.011253083 0.036632415 0.04109707 0.01060638
-0.037566826 0.002568695 0.0027213932 -0.018163934 -0.004264943 -0.044549327 0.0024789025 0.004343948
00000000: 780f 85bb 5a38 b4bc bdca 303c 6299 37bd
00000010: 8fd8 193c bfcb bdbc 8e7e 3bbc 65ef 09bd
00000020: 2ebd 3b3b 676c 34bd b46c d23c 0eef cfbc
00000030: 2d59 a83c 558e 923b 4cea 243d 2928 ddbc
00000040: 88e6 91b9 804b 77bc 0fc4 c53c 5b14 663c
00000050: 2dab 13bd 172f 26bd d722 21bd d55a c23c
00000060: e0d3 acbb a968 133d 3727 26bd 116d b13c
00000070: f3c2 193d f867 fe3c 2cc7 aa3c 4ce6 5ebc
00000080: 9197 56bc a2ef ef3c f5e5 4c3c 3a34 46bc
00000090: 88cd 50ba 1937 a33b 2c8a 233d 3f55 8f3b
000000a0: 90ac ca3b e969 473d 96fa a03c 0c85 7fbc
000000b0: d066 8c3c d03e 5fbc d7ed 913c 4e8e 3bbc
000000c0: d1d8 3c3d 32da 8cbc ebed d7bb 85d5 e5bc
000000d0: da5e 383c df0b 163d 6755 283d 62c6 2d3c
000000e0: acdf 19bd 8d57 283b 6759 323b 88cc 94bc
000000f0: efc0 8bbb 5b79 36bd 1575 223b ad57 8e3b

head.1.weight f4 [64]
0.9939946 0.99444133 0.9939945 1.0 0.99653023 0.9875441 0.99490166 1.0
0.97241884 1.0 0.9933437 0.9425527 1.0 1.0 1.0234151 0.99399453
0.99885833 0.9939945 1.0 1.0032864 1.0 1.0 1.0020431 1.0132948
0.99444133 0.96393794 0.99444157 0.9939945 0.9975023 0.9588363 0.99956685 1.0
0.9905381 1.0046479 0.99399453 1.0124737 0.994006 0.9944415 0.9987282 1.0
0.993974 1.0053338 0.97713685 1.0011452 0.99166304 1.0091909 0.9948412 1.0083398
0.99953514 0.9939945 0.99390095 0.9939945 1.0061494 0.97478956 1.0015516 1.0
0.97303194 0.9652772 0.99444246 0.97776127 0.99399847 0.96591276 0.994417 0.9939945
00000000: 6e76 7e3f b593 7e3f 6c76 7e3f 0000 803f
00000010: 9b1c 7f3f b1cf 7c3f e0b1 7e3f 0000 803f
00000020: 71f0 783f 0000 803f c64b 7e3f 224b 713f
00000030: 0000 803f 0000 803f 44ff 823f 6d76 7e3f
00000040: 2eb5 7f3f 6c76 7e3f 0000 803f b06b 803f
00000050: 0000 803f 0000 803f f342 803f a5b3 813f
00000060: b593 7e3f a3c4 763f b993 7e3f 6c76 7e3f
00000070: 505c 7f3f 4c76 753f 9de3 7f3f 0000 803f
00000080: e893 7d3f 4d98 803f 6d76 7e3f bd98 813f
00000090: 2d77 7e3f b893 7e3f a7ac 7f3f 0000 803f
000000a0: 1475 7e3f c7ae 803f a425 7a3f 8725 803f
000000b0: a1dd 7d3f 2b2d 813f eaad 7e3f 4711 813f
000000c0: 89e1 7f3f 6c76 7e3f 4b70 7e3f 6c76 7e3f
000000d0: 81c9 803f cf8b 793f d832 803f 0000 803f
000000e0: 9f18 793f 681c 773f c893 7e3f 904e 7a3f
000000f0: af76 7e3f 0f46 773f 1d92 7e3f 6c76 7e3f

head.1.bias f4 [64]
-0.0060054753 -0.005558878 -0.006005499 0.0 0.003688474 0.00094149745 -0.049838834 0.0
-0.03064847 0.0 -0.007676491 -0.06392082 0.0 0.0 -0.040808763 -0.0060055
0.010731487 -0.0060055 0.0 0.0029495494 0.0 0.0 -0.002392419 0.008768006
-0.005558876 -0.0307823 -0.005558787 -0.0060055 -0.0011249969 -0.018538514 0.00448207 0.0
-0.010667529 -0.0060279323 -0.006005497 0.010807969 -0.006005442 -0.005558861 0.005858442 0.0
-0.0074033295 0.007473423 -0.0134781785 -0.0069372305 -0.0084237605 0.00929929 0.0039243633 0.006928099
-0.032660548 -0.0060055 -0.006100207 -0.006005499 -0.004698425 -0.028835976 0.0052891797 0.0
-0.044592205 -0.029809082 -0.0055588577 -0.021075241 -0.0060050893 -0.019498745 0.0040974906 -0.0060055004
00000000: 94c9 c4bb 4027 b6bb c7c9 c4bb 0000 0000
00000010: 53ba 713b d3ce 763a ce23 4cbd 0000 0000
00000020: 8012 fbbc 0000 0000 138b fbbb ebe8 82bd
00000030: 0000 0000 0000 0000 1727 27bd c9c9 c4bb
00000040: 1ed3 2f3c c9c9 c4bb 0000 0000 3a4d 413b
00000050: 0000 0000 0000 0000 21ca 1cbb afa7 0f3c
00000060: 3b27 b6bb 292b fcbc 7c26 b6bb c9c9 c4bb
00000070: a274 93ba 15de 97bc 54de 923b 0000 0000
00000080: dcc6 2ebc f685 c5bb c3c9 c4bb e813 313c
00000090: 4cc9 c4bb 1b27 b6bb 2cf8 bf3b 0000 0000
000000a0: a197 f2bb 9ee3 f43b 94d3 5cbc b551 e3bb
000000b0: d003 0abc 0d5c 183c f297 803b 1b05 e33b
000000c0: 11c7 05bd c9c9 c4bb 3fe4 c7bb c7c9 c4bb
000000d0: 3ff5 99bb 6d39 ecbc db50 ad3b 0000 0000
000000e0: 51a6 36bd 2d32 f4bc 1427 b6bb fca5 acbc
000000f0: 57c6 c4bb d5bb 9fbc 3e44 863b cac9 c4bb

head.3.weight f4 [64, 64]
0.038432218 -0.07332335 -0.0054637003 -0.029658705 -0.066388525 -0.04069789 -0.12507145 0.09187201
-0.10722164 0.05812274 -0.051987845 0.15889582 -0.046814606 0.08627631 -0.031830426 -0.03902996
-0.08329506 -0.021857206 -0.055502445 -0.12140236 -0.069984555 -0.055509612 0.080015816 -0.05669642
0.09333647 0.0010805445 -0.05039934 0.027008826 -0.03117316 -0.08715808 0.08365854 0.037275895
-0.024471095 -0.012747248 0.09963466 0.10672475 0.08050133 -0.021769851 0.06573594 0.039221182
-0.022651093 -0.12131065 -0.06056665 0.07659364 0.08853291 0.06421378 -0.09007758 -0.036765136
0.03961748 0.06112481 -0.06661419 0.039143004 0.11060514 -0.012066395 -0.11423185 -0.02641423
0.08937544 -0.04137236 -0.0032284455 0.06796499 -0.12652166 -0.06612801 0.039631102 0.08840162
-0.0052390196 -0.013721837 -0.025642177 -0.10278855 0.089890085 -0.054862365 -0.022698322 -0.08991793
0.10199086 -0.05223076 -0.08507107 -0.11381506 -0.04142198 -0.0035935938 0.09074667 0.098677814
-0.11117351 0.09178869 0.08263439 0.054416742 -0.0537121 -0.040057093 0.07852924 -0.112513356
0.097252026 -0.08158282 0.09112465 0.10245489 0.041861568 0.04857087 -0.114029266 0.072613746
-0.0638745 0.07571908 0.07618483 0.027105447 -0.058745045 -0.04415655 0.008057264 0.09354195
0.011561709 0.09467385 0.018702848 0.10338872 0.042346407 0.03151721 -0.1040597 -0.052030012
0.051960215 -0.08449531 0.047784828 -0.014177387 0.075504646 -0.11007544 -0.009339684 0.028838128
-0.05516237 -0.09440202 0.12676273 0.006203726 -0.05093957 -0.008307695 -0.110949926 0.004882596
0.08528724 0.04531517 -0.09250841 -0.0048768073 0.10852399 -0.08336962 -0.096680366 0.112574965
-0.09230408 0.10083972 0.01010694 0.088933766 -0.007388115 -0.07137559 0.058902025 0.08240812
0.052749414 -0.070111305 -0.12436594 -0.064121924 -0.09214723 -0.08271076 0.11717258 -0.10302958
0.04471727 -0.08624057 -0.019131396 0.047348 -0.03810338 0.09993734 0.010642419 0.12253377
0.01153475 -0.026938478 0.0058552036 0.09115861 0.025492208 0.026629185 -0.06243965 0.025925934
0.06549795 -0.038680278 -0.009621323 -0.008231204 0.013965149 0.09194951 -0.06155731 0.09374551
0.059648514 0.075189464 0.0120590115 0.11162268 0.01369868 0.09452626 0.092822224 -0.106333494
-0.07362752 0.017106907 -0.0039617056 0.0032904518 -0.06280468 0.03902214 0.008675946 -0.026990736
0.069074556 0.03891711 -0.08637244 -0.079172745 0.112181775 0.062117677 -0.07068204 -0.036017656
0.022776887 -0.033810392 0.1075191 0.055931203 0.088403866 0.09105711 -0.046997648 -0.014266321
0.021322431 0.113495894 0.039350644 0.059486173 -0.04208024 -0.09127046 0.018154012 -0.005780257
-0.07526187 -0.018282108 0.08170727 0.10229297 0.05278627 -0.06896815 -0.05357205 -0.059054896
0.014053788 -0.095989585 0.118598916 -0.061392665 -0.01333903 -0.023906365 0.11087462 -0.10965817
0.01474152 0.11617577 0.14239791 -0.05052985 0.00882401 0.054915085 -0.108937435 0.06162677
-0.03956555 -0.05199613 0.0871695 -0.10266062 -0.102061085 0.07689473 -0.06573492 -0.07887718
-0.06838784 0.008224981 0.11857273 -0.12259725 0.10557819 0.062770076 0.06214661 0.07399272
00000000: 1a6b 1d3d 8d2a 96bd d708 b3bb d0f6 f2bc
00000010: b5f6 87bd d5b2 26bd bb12 00be 6427 bc3d
00000020: 0597 dbbd 1c12 6e3d 35f1 54bd 96b5 223e
00000030: acc0 3fbd a2b1 b03d 9f60 02bd e1dd 1fbd
00000040: 9a96 aabd e20d b3bc 8856 63bd cda1 f8bd
00000050: 1054 8fbd 0c5e 63bd 55df a33d 813a 68bd
00000060: 3127 bf3d 0fa1 8d3a 8a6f 4ebd 9d41 dd3c
00000070: db5e ffbc ef7f b2bd 2b55 ab3d 9cae 183d
00000080: 9b77 c8bc d5d9 50bc 420d cc3d 8192 da3d
00000090: e2dd a43d b056 b2bc 91a0 863d 64a6 203d
000000a0: c98e b9bc b871 f8bd bc14 78bd 20dd 9c3d
000000b0: be50 b53d 8482 833d 987a b8bd 0a97 16bd
000000c0: f045 223d 025e 7a3d 056d 88bd 6a54 203d
000000d0: f384 e23d 21b2 45bc 63f2 e9bd a862 d8bc
000000e0: 780a b73d 1076 29bd 5494 53bb 3b31 8b3d
000000f0: e58e 01be 1f6e 87bd 3954 223d e90b b53d
00000100: 15ac abbb 8ed1 60bc 8b0f d2bc ce82 d2bd
00000110: 4b18 b83d 5cb7 60bd d5f1 b9bc e426 b8bd
00000120: 96e0 d03d ecef 55bd be39 aebd df17 e9bd
00000130: 18aa 29bd 8082 6bbb 64d9 b93d 9817 ca3d
00000140: f0ae e3bd b5fb bb3d 383c a93d 17e4 5e3d
00000150: 3801 5cbd e812 24bd f0d3 a03d 676d e6bd
00000160: 122c c73d e514 a7bd 8f9f ba3d dfd3 d13d
00000170: 0977 2b3d 40f2 463d 2d88 e9bd 84b6 943d
00000180: a2d0 82bd 9b12 9b3d cb06 9c3d 3e0c de3c
00000190: a59e 70bd 80dd 34bd 9d02 043c ec92 bf3d
000001a0: 536d 3d3c 5de4 c13d b736 993c 77bd d33d
000001b0: 6d73 2d3d 3118 013d 411d d5bd 6c1d 55bd
000001c0: 3cd4 543d e10b adbd 06ba 433d 4548 68bc
000001d0: 2ea2 9a3d 3b6f e1bd 7905 19bc f03d ec3c
000001e0: f0f1 61bd d955 c1bd 17ce 013e a048 cb3b
000001f0: 03a6 50bd 001d 08bc b739 e3bd 2ffe 9f3b
00000200: 14ab ae3d 669c 393d 0d75 bdbd a0cd 9fbb
00000210: d341 de3d b1bd aabd 5b00 c6bd b48d e63d
00000220: ec09 bdbd 0e85 ce3d 9497 253c e822 b63d
00000230: 0018 f2bb 5e2d 92bd 4043 713d 97c5 a83d
00000240: c50f 583d 8496 8fbd 92b3 febd 5b52 83bd
00000250: b0b7 bcbd 4264 a9bd 2df8 ef3d 2c01 d3bd
00000260: 7529 373d e59e b0bd 72b9 9cbc faef 413d
00000270: 4a12 1cbd f3ab cc3d 8a5d 2e3c fcf2 fa3d
00000280: 40fc 3c3c 15ae dcbc 02dd bf3b 5eb1 ba3d
00000290: 09d5 d03c 7325 da3c b8c0 7fbd a062 d43c
000002a0: ca23 863d 366f 1ebd c1a2 1dbc 2cdc 06bc
000002b0: 15ce 643c 0650 bc3d 8523 7cbd a5fd bf3d
000002c0: 0052 743d effc 993d 2993 453c 6f9a e43d
000002d0: 6e70 603c fc96 c13d 9419 be3d 60c5 d9bd
000002e0: 06ca 96bd c923 8c3c 32d1 81bb 9fa4 573b
000002f0: bd9f 80bd aed5 1f3d 8e25 0e3c ad1b ddbc
00000300: f676 8d3d 8c67 1f3d 09e4 b0bd 5225 a2bd
00000310: 8fbf e53d 1b6f 7e3d bfc1 90bd 4087 13bd
00000320: 9896 ba3c c47c 0abd f932 dc3d 1e18 653d
00000330: 160d b53d 267c ba3d 9b80 40bd 4abd 69bc
00000340: 61ac ae3c 8970 e83d 242e 213d c6a7 733d
00000350: 545c 2cbd 02ec babd b9b7 943c 4f68 bdbb
00000360: e522 9abd 5cc4 95bc 2456 a73d fa7e d13d
00000370: 6a36 583d 2c3f 8dbd 5e6e 5bbd 8ce3 71bd
00000380: dc41 663c 3096 c4bd fde3 f23d e076 7bbd
00000390: f28b 5abc 48d7 c3bc 3c12 e33d 7694 e0bd
000003a0: 6b86 713c 90ed ed3d c2d0 113e 63f8 4ebd
000003b0: 9592 103c a4ee 603d 971a dfbd 5a6c 7c3d
000003c0: 7c0f 22bd e5f9 54bd ec85 b23d bb3f d2bd
000003d0: 6705 d1bd fc7a 9d3d 08a0 86bd 5c8a a1bd
000003e0: ed0e 8cbd 12c2 063c 42d6 f23d 4414 fbbd
000003f0: 6139 d83d 998d 803d 728d 7e3d 7f89 973d

head.3.bias f4 [64]
0.065304756 -0.002142265 -0.060250487 0.003950729 -0.036336496 0.13652496 -0.116039895 0.038106587
-0.05687005 0.04611797 -0.07749264 -0.033354618 0.05724891 -0.095141105 -0.053076312 0.057146132
0.022695556 -0.038175285 0.0024795725 0.101213366 -0.039586246 0.039227664 0.06554845 -0.1038422
-0.097042896 -0.11241486 -0.020988196 -0.08397813 0.032358944 0.09181349 -0.06396608 0.01715158
-0.09223389 0.097704664 0.04047458 -0.07155604 -0.08259304 -0.06895225 -0.061399776 -0.06976179
0.027608093 -0.06714371 -0.044673488 -0.034014832 -0.066480406 0.028499847 0.103379115 -0.0032193728
0.0044310824 0.024791043 -0.07460902 0.07133784 -0.058741786 -0.10927534 -0.0096770525 0.07572645
-0.07408899 0.052738506 0.10801857 0.104037225 -0.06376429 0.031931862 -0.004574081 0.09472714
00000000: 80be 853d 3e65 0cbb 37c9 76bd 1e75 813b
00000010: 94d5 14bd 33cd 0b3e 53a6 edbd a715 1c3d
00000020: 92f0 68bd 32e6 3c3d 76b4 9ebd da9e 08bd
00000030: d57d 6a3d 57d9 c2bd 8c66 59bd 1012 6a3d
00000040: 08ec b93c b05d 1cbd 5380 223b f448 cf3d
00000050: 3025 22bd 30ad 203d 443e 863d 38ab d4bd
00000060: 6dbe c6bd c339 e6bd 70ef abbc bafc abbd
00000070: d08a 043d b608 bc3d a600 83bd 7881 8c3c
00000080: 1fe5 bcbd 6219 c83d acc8 253d f98b 92bd
00000090: 8a26 a9bd d636 8dbd 557e 7bbd 45df 8ebd
000000a0: 5e2a e23c a482 89bd 8cfb 36bd 2353 0bbd
000000b0: e126 88bd 8378 e93c 6eb8 d33d 1dfc 52bb
000000c0: 9d32 913b 9616 cb3c 9dcc 98bd 9319 923d
000000d0: 3a9b 70bd c0cb dfbd 808c 1ebc 7816 9b3d
000000e0: f8bb 97bd 5504 583d d738 dd3d 7811 d53d
000000f0: da96 82bd fcca 023d 2ce2 95bb 4e00 c23d
