outputs/exp_v1/checkpoints/epoch_70.pth (torch, 651919 bytes, 13 tensors)

base.0.weight f4 [64, 3, 7, 7]
00000000: d370 97bc 72ea 793d d6c6 15bd 2c23 e23b
00000010: 7e68 d5ba 0d7c 82bd 85fd e43b 4576 8a3d
00000020: 7c25 723c eff1 5d3d b789 74bd 0e0a 8dbd
00000030: 5293 903d 83a2 943d 04a0 d63c 0e05 a43d
00000040: 0154 12bd 7200 85bd b1f4 d53c abd8 433c
00000050: acfe 003d 8580 523d 03d7 39bd dadb e0bc
00000060: 044c 44bd 299d a1bd 79eb b4bc fcda 9f3d
00000070: 8142 8abd 67e9 433d 121e 37bd e305 80bd
00000080: 1bef 833b 49d8 4c3d fa6a 7a3b 95f6 a73c
00000090: 44a4 94bd cd79 753d 5162 74bd 83da 073d
000000a0: b6d0 a03d 5739 0a3c 799d a6bd 1bc0 9cbd
000000b0: 9047 eb3c ef02 87bd fd6e 5fbd 001e febc
000000c0: 8196 8e3c a4e4 c53c cd46 43bd 56e3 8bbc
000000d0: e3da 5a3d fef0 8abd 1db5 a9ba b3a6 4fbd
000000e0: 0ddb 70bc 6b1b 453c b956 643d 7540 b0bd
000000f0: 91b0 a33c 3466 0f3d 67f0 8b3d 89b6 003d
00000100: 1feb 373d cf2e 9abd ee6a fcbc d0b6 493c
00000110: 6371 8dbd 3cf8 2fbd 1c76 0b3d 5aa8 1abd
00000120: 1962 183c 472a 003d b186 983d d61b 983d
00000130: def4 7b3c a7ac 85bd a556 28bd c133 813d
00000140: 748f 843d 6bf8 fc3c d30a 8cbd 42c4 aa3b
00000150: 73ab 7cbb 575e 98bc 07b6 11bd fa5b ca3c
00000160: 25ce 893d 5a90 2ebd 3e5e 283d 184e 7dbd
00000170: 6744 ee3c bd34 afbd f817 c43c f8e7 d33c
00000180: e038 90bd a2f8 ae3c 7157 613c 103a 99bd
00000190: fbe3 50bd e8e6 e83b e569 57bc 7e50 bb3a
000001a0: 03d6 413d 4d7a 553d b664 72bd 1f47 1f3d
000001b0: 5e61 d13c 91ef d0bc bd3d b93c 9206 f9bc
000001c0: 0f98 26bc dcbd 883d fff7 52bc dde3 99bc
000001d0: e01c a5bd bb82 e8bb 5b12 a8bd ee1b ec3b
000001e0: 1c3f 9abc 2faa 19bd 8c30 2abc 099a 103d
000001f0: 0066 0e3d de8e cabb 42c3 a7bd 35b6 de3c
00000200: e881 5ebb 7da4 c4bb c942 acbc 165e 66bd
00000210: 9cf6 4fbd e35d 7fbc 9bcf 233d 92cc 3c3d
00000220: b2e1 923d cb2d 4fba 2c20 6aba deeb 14bd
00000230: 9208 01bd c2d4 9f3d 7a73 1d3c da2c a9bd
00000240: 6691 c93c 3e8d 693d bc39 19bd b86b 433d
00000250: 4dc2 5dbd 11a7 c13b 9b79 79bd 9958 9abd
00000260: f082 2b3c 70f7 b73b 13dc 4fbd 3003 d63c
00000270: 8062 6239 a7de 653d f1fc acbc 9d60 d7bb
00000280: a7b9 fd3c dd9c 13bd f3ce 72bd 306b 543c
00000290: f9c1 7fbd cddb b5bc 4234 dc3c 0d4b 813d
000002a0: 45a5 96bc 22fb 263d ce44 5c3c f057 81bd
000002b0: 7bb5 323d 3c92 a2bd 04cc babd 8697 abbd
000002c0: b7c3 8bbd e0a6 573d e1c3 81bc 881e a9bd
000002d0: e9fc c5bb 6cbf 0f3d 44c5 6b3d 1b3f 903d
000002e0: ff3d 74bd 7aed 91bd e49c b03c b737 5cbd
000002f0: 75b5 d9bc 9f7d 933b 2cb3 863d 79a8 2d3d
00000300: 4830 c13c 639d 6fbd c2ac 1cbd 32b2 b6bd
00000310: d12d 163b ec6e bc3d e177 d33c 7afd 6a3c
00000320: 06f5 8f3d 14f5 7bba 5282 abbb 9ec6 ba3d
00000330: 9670 61bd b44b 5d3c dabb f1bc 4376 733d
00000340: ef89 b13d 6849 293d 3358 09bd cc6c 2b3d
00000350: e7c7 df3c eacd 913d 1cbd 903d 1215 183c
00000360: 4d02 1cbd 57a6 cb3d fc76 4b3d e68a a23d
00000370: 86e2 54bd 4c10 27bd 9c55 c5bc 4ad5 b03d
00000380: b00a 81bd 2741 94bb a1cc a63c b624 813d
00000390: 9d40 8e3c 1606 0d3d 07ad b63b 9b68 5f3d
000003a0: c2e8 eb3c 3672 52bd 1d20 23b8 5035 5e3d
000003b0: 7351 533c bceb 8e3c 7744 bf3d 78d3 843d
000003c0: 4226 bd3d 17d8 043c 5f3d 843d ae7a 9a3d
000003d0: f67b 4dbd 13c6 8abd 125d 7fbd beee 30bd
000003e0: c233 863d 4f04 9cbd 8c75 993d a6e0 823d
000003f0: 1a3a 93bb 42ba 9cbd 6840 813d 37c9 15bb
-0.018486416 0.0610146 -0.036566578 0.0069011655 -0.0016281751 -0.06371317 0.0069882297 0.067608394
0.014779445 0.054185804 -0.059701648 -0.068866834 0.07059349 0.07257559 0.026199348 0.080087766
-0.035724644 -0.064942256 0.026117655 0.011953513 0.031492874 0.051392097 -0.045371067 -0.027448583
-0.047924057 -0.07891304 -0.022084938 0.0780544 -0.06750966 0.04783001 -0.04470641 -0.06251123
0.0040263063 0.050010953 0.0038210736 0.020503322 -0.07257894 0.05993061 -0.059664074 0.033167373
0.078523085 0.008436522 -0.08135504 -0.07653829 0.028720647 -0.065923564 -0.054549206 -0.031020164
0.01740575 0.024156876 -0.047674943 -0.017076176 0.053431403 -0.06784247 -0.0012947653 -0.050696086
-0.014700663 0.012030463 0.055746768 -0.08606044 0.019981654 0.035009578 0.068329625 0.03142408
0.044901963 -0.07528459 -0.030812707 0.012311652 -0.069063924 -0.042961344 0.034048185 -0.03775821
0.009300732 0.03129032 0.07447565 0.07427184 0.015378205 -0.065270714 -0.041098256 0.063086994
0.06472674 0.030880174 -0.06838002 0.005211384 -0.003855434 -0.018599672 -0.035573985 0.024702061
0.06728772 -0.042618133 0.0411055 -0.061842054 0.029085351 -0.08554981 0.02393721 0.025867447
-0.07042098 0.021358792 0.013753758 -0.07481778 -0.05099867 0.0071076043 -0.013147806 0.0014290956
0.047323238 0.05211859 -0.059178077 0.038886186 0.025559124 -0.02550486 0.022612447 -0.03039864
-0.0101680895 0.06676838 -0.01287651 -0.018785411 -0.08062148 -0.0070956624 -0.08206626 0.007205478
-0.018828921 -0.037515815 -0.010387551 0.03530315 0.034765244 -0.006181582 -0.08191539 0.027186492
-0.0033951942 -0.006001054 -0.02102794 -0.05624207 -0.050772294 -0.015586349 0.03999291 0.04609353
0.07171954 -0.0007903247 -0.00089311856 -0.036357753 -0.031502314 0.07804252 0.009610051 -0.08260508
0.024605464 0.057019465 -0.037408575 0.04771015 -0.054140378 0.0059098084 -0.060906988 -0.0753643
0.01046823 0.0056142136 -0.05074699 0.026124567 0.00021589734 0.05612054 -0.021116706 -0.0065727965
0.030972315 -0.03603827 -0.059279393 0.012965009 -0.062440846 -0.022199536 0.026880387 0.06313143
-0.018389354 0.040766843 0.013444139 -0.06315601 0.043630105 -0.07938048 -0.09120944 -0.0837851
-0.06824439 0.05264938 -0.015840473 -0.082577765 -0.006042112 0.035094664 0.057561174 0.070432864
-0.059629437 -0.07125373 0.021559186 -0.05376407 -0.026575783 0.004501059 0.06577143 0.042396996
0.023582593 -0.058499705 -0.038250692 -0.08920707 0.0022915492 0.09200844 0.025813999 0.01434266
0.070291564 -0.00096114096 -0.0052340413 0.091199145 -0.05503901 0.013506819 -0.02950852 0.059438955
0.08668887 0.04132977 -0.03353138 0.041851804 0.027317 0.07119353 0.0706732 0.009282367
-0.03808813 0.09943836 0.04967402 0.07936649 -0.051973842 -0.040787026 -0.024088673 0.08634432
-0.063008666 -0.0045243683 0.020361247 0.0630583 0.017364794 0.034429632 0.0055748257 0.05454312
0.028797511 -0.05137845 -3.8892136e-05 0.05425006 0.012897837 0.017446391 0.093392305 0.06485647
0.09235813 0.00810816 0.06457018 0.075429305 -0.050167046 -0.06776061 -0.06234462 -0.043196432
0.06552841 -0.07618009 0.074931234 0.063905045 -0.00449301 -0.07652713 0.06311113 -0.002285553

base.0.bias f4 [64]
00000000: 99d9 c0bb 7a8f ebbc bb06 3c3c ed87 9abd
00000010: 2ba0 28bc b37a bc3c 3f97 abbc b059 763c
00000020: 6308 aabd 4e04 9cbc 77a4 f2bc b126 e5ba
00000030: 1b56 b7bb 9774 5bbd dcde 29bc d371 2c3d
00000040: 6628 803d 2ec0 e03a 089b 213d a4b6 533d
00000050: 7cd1 a2bc c45d a5bd 3f75 19bc f500 23bd
00000060: bd62 b2bd 6905 663d 8b34 14bd 9e32 2a3d
00000070: 5100 dc3b 4a07 063d ef91 bd3c 4aa6 843d
00000080: e7cf 603c 17dc 013d b536 95bd 4c07 903c
00000090: eb08 8abd a5be c9bb c09a c83c c736 15bd
000000a0: 5a54 633d aaf9 51bd daf4 933d d215 a93d
000000b0: 6c11 91ba b7ac 47bd 7408 aabd 9a79 9abd
000000c0: 88e8 fbbc c5f6 2fbd 1985 b9bd f951 b8bc
000000d0: 0429 0dbc 2693 56bd ad0a 153b 3e45 59bd
000000e0: 554b d53c e532 6fbc 3b85 6b3d ea75 99bd
000000f0: 6fc2 983c a49f 3d3d 86ab 1d3d 96f2 6e3d
-0.0058853147 -0.028754938 0.011476214 -0.07545457 -0.010292093 0.023007726 -0.020946143 0.015036032
-0.08302381 -0.019045021 -0.029619439 -0.0017482844 -0.0055949814 -0.053577986 -0.010368075 0.04210074
0.062577054 0.0017147118 0.03945449 0.05168785 -0.01987528 -0.08074525 -0.009366333 -0.039795835
-0.08710239 0.056157503 -0.03618292 0.04155218 0.006713905 0.032721795 0.023140876 0.064770296
0.013721443 0.031704035 -0.07285825 0.017581604 -0.06739982 -0.00615676 0.024487853 -0.036429193
0.055500366 -0.05126349 0.07224436 0.08256115 -0.0011067814 -0.048748698 -0.083023936 -0.07542725
-0.030750528 -0.042959947 -0.090585895 -0.022500025 -0.008615736 -0.052386425 0.002274196 -0.05304455
0.026036898 -0.014599537 0.057500105 -0.074931934 0.0186474 0.046294823 0.038493656 0.058336817

res_blocks.0.conv.weight f4 [64, 64, 3, 3]
00000000: ea0a c0bc d3f8 023b 3db6 a3bc 826c 55bc
00000010: bafd d9bc 01e2 8b3a d9de c93c 57ba 6bbc
00000020: 95e4 343d afe4 43bd ea48 0a3c dc34 89b9
00000030: 853e dabc d602 09bd d035 e43c 9985 c1bc
00000040: 98a6 8d3b 31ba f93c 7918 b7bc 97c3 e93c
00000050: 1280 423d 67ce 163d 3e89 e93c eda8 163d
00000060: 86e8 533c 7895 6a3c 6ea2 2f3c d5cd 333d
00000070: ec6f 4b3b 60b0 073d 4e05 143d 7e68 c539
00000080: acc7 e53a 4b5b ba3c 3132 62bc 30a1 273d
00000090: 6c0a 793c d519 6cbc 4803 1ebd c73a febc
000000a0: 6a42 60bc e2dc f73c 3296 333d 715d 183d
000000b0: 62bc 023b 2371 84bb 7881 04bc a8c5 e3bc
000000c0: 11bd e7bc 726f 493d d14b 053d 7e22 90bc
000000d0: 50c9 573b 410a d53b ff15 f7bc d4aa 2b3c
000000e0: cd84 e2bc eb13 2e3c 867f 0f3d 9690 97ba
000000f0: df1e 2f3c 6ae7 bd3b f8cf 42bc d588 c63c
00000100: e5ee fe3b 922e 5abc 0688 953c 0dd3 90bc
00000110: f4b1 1dbb 0799 f43c c9e3 b83c b4f8 b33c
00000120: a8e3 093c 0d04 3f3d 7900 1c3c d55c 123d
00000130: c91d 9a3c e2d0 13bc c085 293d a9c5 f9ba
00000140: f78b 803c 2276 8e3c f824 c7b8 a781 bfbb
00000150: 2ed4 eabc db0b ea3b 8010 0fbc 5098 60bc
00000160: d436 2b3d 7f78 fd3c 64f6 ebbc 8e04 5fbd
00000170: ba90 14bd 81cf 55bb 9897 3fbc 7cc3 ebbc
00000180: 07cf 213c 8779 bebc ea3b c0bc 841a e5bc
00000190: b337 10bb fdbb 863c 8f34 acbc 97fa 9e3c
000001a0: d742 11bd b33f 8c3c 16dc f8bc 19a5 72bc
000001b0: 06dd 02bd 85fe 1e3d 614c ec3c 1e9f 233d
000001c0: bf08 263b 9e53 78bc 85e5 0abd e46c b93b
000001d0: 9356 bfbc 8c15 2f3c 9b5e f1bb f811 303d
000001e0: 1526 b8bc 950b f9bc b0b7 cbbc 003a f4bc
000001f0: deff 583c e908 16bd cc4b ed3c c915 a1bc
00000200: 675d c8bc 04b5 e43c 7dff c2bc b8da 783c
00000210: 6b61 0e3d ac24 643c df83 193d cebc 72bb
00000220: effc 03bd bcb9 d83c 9335 97b9 9e96 ba39
00000230: 8196 0d3d 5bea 333d 3da6 ea3c 2fdf 4b3d
00000240: 888c bfba 6c46 273d cd65 2e3d 2bd9 bdbb
00000250: 7a2f 0f3c ec6d a6bc 8418 05bc e557 8e3c
00000260: a954 04bd f348 773c 9431 173d d3b1 83bc
00000270: e055 c6bc 6938 7ebb 5b55 d83c 0481 3b3c
00000280: 3494 323d 6d86 163d 9a5f bd3b 678d 74bc
00000290: e6b3 25bd 6e01 293c 3cac bc3c 8d98 d3bc
000002a0: 00db ab3c 81e0 cb38 c140 d33c 392d 0b3c
000002b0: 0ed7 d43c 218a 09bd fc95 823c 96b5 113d
000002c0: d299 f53c fe9a dd3c 8b42 973c 05dd ba3c
000002d0: 9b94 0bbc 17e5 e63b f114 483d 8226 683c
000002e0: d45c 2d3d ba33 b23c 0681 2d3d 5fc5 b13c
000002f0: 8410 253c 96e6 a33c aa8c 343d 0c23 34bd
00000300: dfa7 083d 966e 34bb ec12 00bb 60c0 7fbc
00000310: 870b d53b 300d fa3c f9f2 603d 04f0 2d3d
00000320: 0168 343d 9a58 643d 246d 5dbb e921 003b
00000330: 3357 a03c a710 0e3c 8f1c ed3c 987c 58bb
00000340: 1066 653d a0cb 7ebc 2160 05bb 31d7 f439
00000350: c0b1 f03c 8642 59bc 8306 4a3d 5618 bc3b
00000360: 4cda b33b 18e0 153b bede af3a d235 853c
00000370: 2672 23bd 3540 a5bc f11d fabc 3fe1 313d
00000380: d570 86bc 00c9 9c3c 5f92 123d be1c 95bc
00000390: 6696 163d ba65 febc 801b ac3b cf40 9e3c
000003a0: 9e8e e0bc caae cbbc 2651 053d 8b7e fd3b
000003b0: c798 253d 1122 313b 0166 423c cf14 833c
000003c0: b69a ae3c ae99 493c 0243 9f3c 0848 7cba
000003d0: c436 aebc 8384 503c 015a 933c b083 61bb
000003e0: 34d5 4a3c d8bb 273d 458f 3c3d 122f 6c3c
000003f0: f0d1 f2bc b1c0 c43c b5c9 7a3c c132 e73b
-0.023442704 0.0019984737 -0.019984359 -0.013026359 -0.026610244 0.0010672213 0.024642395 -0.014387689
0.044163305 -0.04782551 0.008440236 -0.0002617006 -0.02664114 -0.03344997 0.027857691 -0.023623275
0.004322838 0.03048429 -0.022350537 0.028535647 0.04748542 0.036817934 0.028507825 0.036782194
0.012933856 0.014317863 0.010719879 0.04389747 0.0031042052 0.03312719 0.03613787 0.0003765262
0.001753082 0.02274861 -0.013805912 0.040925205 0.015200239 -0.014410456 -0.038577348 -0.031033887
-0.013687709 0.030256692 0.04384441 0.037198488 0.001994871 -0.0040418073 -0.008087508 -0.02780421
-0.028288396 0.04917855 0.032543007 -0.017594572 0.0032926388 0.0065014665 -0.030161856 0.01047774
-0.027651215 0.010624866 0.035033725 -0.0011563476 0.010688513 0.005795409 -0.011890404 0.024235168
0.0077799433 -0.013316767 0.018253338 -0.017678762 -0.0024062367 0.029858125 0.022569554 0.021969177
0.008416094 0.046634723 0.009521597 0.035733063 0.01881303 -0.0090219695 0.04138732 -0.00190561
0.01569174 0.017390314 -9.4959454e-05 -0.005844313 -0.028665628 0.0071425266 -0.008731961 -0.013708189
0.041800335 0.030941246 -0.028804012 -0.054447703 -0.036270835 -0.0032624903 -0.011693858 -0.028779738
0.009876019 -0.023251308 -0.02346607 -0.027966745 -0.0022005856 0.016447062 -0.021021156 0.0194066
-0.035464134 0.017120218 -0.030378383 -0.01480987 -0.031949066 0.038816947 0.028845014 0.039946668
0.0025334803 -0.015156655 -0.033910293 0.0056587327 -0.023356711 0.0106862895 -0.007366014 0.042985886
-0.022479096 -0.03040103 -0.024867862 -0.029812813 0.013244597 -0.03662959 0.028966807 -0.019663708
-0.0244586 0.027918346 -0.023803467 0.015188865 0.034760874 0.013924759 0.037479278 -0.0037038806
-0.03222364 0.026455753 -0.0002884088 0.00035588903 0.03456736 0.04392467 0.028643722 0.04977339
-0.0014614025 0.040838644 0.042577554 -0.0057937107 0.008739347 -0.020316087 -0.008123521 0.017375896
-0.0323073 0.015093076 0.036912516 -0.016076004 -0.02421087 -0.0038790947 0.026407888 0.011444334
0.04359837 0.036749292 0.005779219 -0.014926291 -0.040454768 0.010315282 0.023031346 -0.025829578
0.02097845 9.7216114e-05 0.025787713 0.008494669 0.025981452 -0.033578996 0.015940659 0.035573564
0.029980574 0.027051445 0.018464347 0.022810468 -0.008519317 0.0070463526 0.048848096 0.014169337
0.042324856 0.02175318 0.042359374 0.02170056 0.010074738 0.020007413 0.04407946 -0.043978736
0.03336322 -0.0027531735 -0.0019542528 -0.015609831 0.0065016183 0.030523866 0.054919217 0.042465225
0.0440445 0.05574856 -0.0033786977 0.0019551462 0.01957283 0.008670962 0.028944282 -0.0033033248
0.056005538 -0.015551478 -0.0020351487 0.00046699637 0.029381633 -0.013260489 0.049322616 0.0057402058
0.0054886695 0.0022869166 0.0013417823 0.016261015 -0.039903782 -0.020172218 -0.030531855 0.043427702
-0.016411224 0.019138813 0.03578412 -0.018202182 0.036764525 -0.031054366 0.0052523017 0.019318013
-0.027411755 -0.02486362 0.032548092 0.0077360324 0.040428903 0.0027028362 0.01186514 0.016001133
0.021314006 0.0123047065 0.019441132 -0.00096237706 -0.021266349 0.012726906 0.017987253 -0.0034410767
0.012379933 0.040950626 0.04603507 0.014415519 -0.029641122 0.024017664 0.01530688 0.007055611

res_blocks.1.conv.weight f4 [64, 64, 3, 3]
00000000: 4b90 12bd 2aec 1ebd aed9 0cbd 52e3 39bd
00000010: eecd 0f3d 08a4 3fbc 2748 b8bc 3731 ffbc
00000020: 569b 88bc ed41 0d3d 1500 b93c c090 3f3d
00000030: f337 afbc 6c4b 153d 8d13 f03c 40f5 53bc
00000040: c148 edbc c893 463c ad98 f1bc 4f2c 693c
00000050: 4c5d c0bb 226c 1eba d604 e53b e4fd 283d
00000060: 38fb 113c 69dd e8bc 851a a23c 27b9 a9bb
00000070: f348 f43c 3eb2 233d aa32 153c 16fc cfbc
00000080: a130 a8bc 1ce0 203d 9c9d 9c3c 6064 bc3c
00000090: 6177 32bc 4417 413d b6c4 163d 8c46 653d
000000a0: c2b8 d1bc cb03 8bbc ff6e d53c 971d 7f3c
000000b0: a9a7 5bbb b2f4 fa3b b98e f4bc ee1f 133d
000000c0: 2c43 2fbc b82e 183d 423c 82bc e8e7 ad39
000000d0: 14a6 b6bc 8180 e83c becb 98bc c63a 403d
000000e0: 1bc0 6e3c c090 98bc ecb7 dcbc f20c ec3c
000000f0: 7d7c 153d 5a9f 7e3c a701 c63c d7f9 c8bc
00000100: 4c09 4b3c 5335 1a3d aef2 283c 0aa9 8f3b
00000110: 75c6 de3c 993a 5ebb 11bf d13b 23aa 53bc
00000120: b851 5a3b 1e97 0cbd ce0c 1cbd 0e59 d7bc
00000130: 3db4 0fbd 4675 d6bc 47a1 833c 4b27 f43b
00000140: da78 713c 8f8a 353d 62ea a0bc c1f5 a3bc
00000150: 880b 0b3d 03ea b33c 4138 0e3d c7a2 333d
00000160: a08d 193c d8fd 06bd 4769 a7bc c55f 663b
00000170: 60c1 553c c84c 01bd 65d1 02bd 4879 393c
00000180: 01f3 8fbb 8643 55bc 1f0b c7bc 596c bcbc
00000190: dbf3 b4bc 4084 0a3d 0d82 c9bb 4904 b7bc
000001a0: dbb4 01bc 8bee 283d 132f acbb c630 81bc
000001b0: 45c0 5d3c 853d 08bc b958 37bc 39a9 d8bc
000001c0: fe51 29bb 8e70 e83c e008 1a3d 3e69 59bc
000001d0: 29de 3f3d 8515 123d adbd adbc badf 3d3d
000001e0: f3be 233d 74bc da39 9427 c73c 9a6d 813b
000001f0: c5fc 1e3d 93ac 393d c3a3 0fbb 7174 91bc
00000200: a392 f93c eacf 793b 5c02 343d a3db 84bb
00000210: ca69 0d3c f4af 9c3c 5c9c b63c 9c80 a7bb
00000220: cd0b 30bc 433c 963a 9229 513d d4ea 263d
00000230: de0e abbc 2062 a4b7 38fd 3c3d 0135 583c
00000240: 6268 153d 3833 c03c 626d 373d b222 aabc
00000250: 64d4 a23c bde3 ff3c de93 433d ae33 c83b
00000260: 3cab a53c 3033 a9bc 943e 383d 59de 023d
00000270: 74a1 223d e715 3a3d fc10 8cbc 77a0 9d3c
00000280: 32d0 fdbb 4bf5 1f3d 705d 213d a9c1 0d3d
00000290: 7c5c 533c 07fa 2b3d d2f1 7dbc 8241 10bc
000002a0: 6386 8e3c c26d f33b 72f3 823c b1c9 a43c
000002b0: 4179 c33c 36f0 453d 5aed 4c3c 33d4 1ebb
000002c0: 02bd 853c cf9e c3bc c676 fe3c 2ffa 283c
000002d0: 9606 0e3d 6216 ce3c 4c75 b53c 3a58 4e3c
000002e0: def6 dcbc c40e a0bc 28ac f4bc f0e8 ddbc
000002f0: d0e7 8f3c 4b97 9f3c 27b0 f63c 41af 513d
00000300: 0527 da3c 5dca 9ebc e62d bfbc 8034 b7bc
00000310: c3e6 043d 0098 0d3d 8a32 fdbb fb60 52bc
00000320: 166e 473d 097f 48bc b031 393d 6c59 fb3c
00000330: 54b6 99bb 94d5 4dba bca4 373d cbd0 11bd
00000340: 467d edbc 3ed4 b6bc 7ccb 2c3d 54f9 113d
00000350: 8bd2 6b3c 96c7 7d3c 70be 88bc e744 873c
00000360: 1a3f d0bc 3f75 953c ae68 e63c 50a7 c53b
00000370: 1963 9c3c 175a 1dbc a3a4 383d fbf8 683c
00000380: ab14 593d 6572 a33c 3699 903c 466c c2bc
00000390: 0a37 fa3c 43ac 17bc b8a8 64bb d2be 233d
000003a0: 7e65 573c 37f5 4b3d 4228 66bc 97bc 403d
000003b0: 172e 36bc ef31 29bc 7690 563d dd3c 00bc
000003c0: 9aa8 323d ddb9 c43c a824 823c ed3b 593d
000003d0: abe4 d53c 8569 be3b 1ef9 b4bb 3a43 183b
000003e0: a0b6 4c3c 0768 b23c c17c 1b3d 6629 50bc
000003f0: 4352 213c 1d43 10bc e113 08bd 6c34 303d
-0.03578214 -0.038799442 -0.034387283 -0.045382805 0.0351085 -0.011696823 -0.022495342 -0.031151397
-0.016675632 0.0344867 0.022583047 0.046768904 -0.021388983 0.03644888 0.029306198 -0.01293689
-0.028965356 0.012120195 -0.029491747 0.014231755 -0.005870497 -0.0006043335 0.006989102 0.041257754
0.008909993 -0.02842589 0.019788036 -0.0051795426 0.029819941 0.039964907 0.009106318 -0.025388759
-0.020531 0.039276227 0.019118123 0.022997081 -0.01089272 0.04714133 0.036808692 0.055975482
-0.025600795 -0.016969582 0.026053904 0.01557102 -0.0033516681 0.0076585645 -0.029853212 0.035919122
-0.010697167 0.03715393 -0.015897874 0.00033169915 -0.02229599 0.028381588 -0.01865184 0.04693105
0.014572169 -0.01862371 -0.02694317 0.028814767 0.036495674 0.015540922 0.02417071 -0.024533195
0.012392353 0.03764851 0.010311766 0.0043841647 0.027194241 -0.0033909439 0.0064009507 -0.012918982
0.0033312868 -0.034323804 -0.03809815 -0.026287582 -0.035083998 -0.026178967 0.016068114 0.007450973
0.014738286 0.044321593 -0.019643012 -0.020014646 0.033946544 0.021962171 0.034721617 0.04385641
0.009372145 -0.032956928 -0.020435942 0.0035152298 0.0130465925 -0.031567365 -0.031937975 0.01132042
-0.004392982 -0.013016587 -0.024297295 -0.023000883 -0.022088936 0.03381753 -0.0061495365 -0.02234091
-0.007916654 0.041243117 -0.005254635 -0.015770327 0.01353461 -0.008315449 -0.011190587 -0.02644788
-0.0025836225 0.028373983 0.03760612 -0.013269721 0.046842728 0.035665054 -0.021208609 0.04635594
0.039977025 0.0004172061 0.024310865 0.003949833 0.03881528 0.045330595 -0.0021917678 -0.017755719
0.03046543 0.0038118311 0.043947563 -0.004054503 0.008631179 0.01912687 0.022291355 -0.005111767
-0.010745001 0.0011462051 0.051065035 0.040751293 -0.020881113 -1.9596017e-05 0.046139926 0.013196231
0.0364765 0.023461923 0.04478205 -0.020768497 0.019876666 0.031236524 0.04774844 0.0061096763
0.020223252 -0.02065429 0.044981554 0.03195033 0.039704755 0.045431044 -0.017097943 0.019241555
-0.007745766 0.03905229 0.03939575 0.034608517 0.012900468 0.04198649 -0.015499549 -0.008804681
0.017398065 0.0074288556 0.015985224 0.020115705 0.02386153 0.048324786 0.012507761 -0.0024235367
0.016325478 -0.023879437 0.031062495 0.010313555 0.03467425 0.025157157 0.022150658 0.012594277
-0.026973184 -0.01953829 -0.029867247 -0.027088612 0.017566592 0.019481322 0.030113293 0.051192526
0.026629934 -0.019383604 -0.023337316 -0.022363901 0.032446634 0.034568787 -0.007726972 -0.012840505
0.04868897 -0.012237319 0.0452134 0.030682288 -0.0046909247 -0.0007851955 0.044834837 -0.03559951
-0.0289904 -0.022318002 0.042186245 0.03563817 0.014393459 0.0154894795 -0.01669237 0.016512347
-0.025420714 0.018244384 0.028126087 0.006031908 0.019090222 -0.009603999 0.045078885 0.014219518
0.052998226 0.019952009 0.017651182 -0.02373327 0.030543823 -0.009257379 -0.0034890603 0.039976902
0.013146756 0.049794402 -0.014047684 0.047054853 -0.011119387 -0.0103268465 0.052383862 -0.007827011
0.043617822 0.024014408 0.01588662 0.053035665 0.026110014 0.0058109188 -0.005522861 0.002323343
0.012494713 0.02177812 0.03796077 -0.012705183 0.009846273 -0.008805064 -0.033222083 0.043018743

res_blocks.2.conv.weight f4 [64, 64, 3, 3]
00000000: f1d9 56bc b967 053d 648f 08bd 5ce9 d4bb
00000010: 89ae 073d 834d a5bc 0d58 86bb 16b5 3e3d
00000020: 5998 593d e21b 4abc 07c0 283c 841d bbbc
00000030: de53 f5bc da53 eebb 7824 aebc ea62 143c
00000040: 73d1 44bb ad0b 273d 4d8a a23b 11df 0f3c
00000050: b14f d9bc 1a44 85bb 8241 00bd 2d58 c93c
00000060: be77 1f3d b96d 89bc c0cb ccbc 2bec afbc
00000070: c473 f53c 03fa 133d e49b c7bb 7272 e6bb
00000080: 1bd7 453d aa48 02bd f14f b33c 2c24 463c
00000090: 7ee8 02bd 04db 943c cd18 0fbd 7e7d db3a
000000a0: 760a 953c f430 b5bb 3734 003c 61fe c33c
000000b0: cf0b d13c 155e 193c fe1c 5b3b ed02 9cbc
000000c0: 2994 2b3d b6e0 333d ce7a ad3b 71cd 353d
000000d0: b142 223d 0611 113c e95a acbc 5a14 8abc
000000e0: 95dc 573b ff3b 383d 6e51 313d 72a6 b9bb
000000f0: 1605 213d 05aa a33c d0e2 65bc 2117 89bc
00000100: 130b a63c f092 043d ac8f 9d3a b8f9 163d
00000110: 2f72 d73b cb7f 073d 6e87 c1bc 157e 7d3c
00000120: dae7 a33c de26 623c 57e5 28bd 49d8 0abd
00000130: 4509 eabc 12d2 aebc da71 9fb9 9af3 0cbd
00000140: f62f 04bd 2433 e1bb 0e56 86bc cd9f 3d3d
00000150: b51b 3d3c 9a23 183d 01bb 8dbb 39b1 eabc
00000160: 2b1a 7bbc 665f 99bc e245 4dbb 9304 13bd
00000170: af2f 12bc bde4 1a3c d83a 17bd bc1c 663c
00000180: 08e7 3a3a 9fc3 133d 5801 703c 6019 cebc
00000190: 1560 6c3c 71b4 813c 995e aa3c 0ea1 9f3c
000001a0: 9b57 133d a129 453d 3aa2 6e3c 8a69 4c3d
000001b0: 98ff 023d af88 3a3d 17ee c4bc 3daa ce3c
000001c0: 15f7 973b bda0 2bbb 22d3 743b 6252 eabc
000001d0: a0ea 1a3c 5c0b aaba 2f96 023d 9f20 273d
000001e0: bb4a 053d 3cb5 873c 46b3 b9bc d770 84bc
000001f0: fda1 0fbd 7084 2d3d bc77 373d d6df d73c
00000200: e6bf 37bc 3940 0a3c 50bc c53b b941 ff3a
00000210: 0a46 0a3d 71db dbbc ee39 edbc 57df dabc
00000220: 3330 5a3d 0254 0f3d 5153 7e3c 2955 0abc
00000230: 5d47 8bbc b485 afbc 158f 3bbc 4786 4d3d
00000240: ba6b 023d ac9e 673c 8504 353c 5558 303d
00000250: 65cc 1b3d 1900 d73c 35bc f63c 2f65 4b3c
00000260: 0868 6fbc ac95 c83c 2094 e5bc 2b5b 023c
00000270: bfd7 33bc 767a 01bc 7dd8 e4bc 9cc4 293b
00000280: b378 dabb c78e ce3c 99d6 28bb 690d 1e3d
00000290: 6e2d 9c3b 3b0a 203d b3e3 f63b 2a23 443d
000002a0: 96c6 92bc bfa0 30bc 8dbc 393d 3e44 00bd
000002b0: e5b5 893b faed 1abb 6dfe af3c 7d34 95bc
000002c0: 38b6 2f3d a29e 963b 9933 a4bc 8596 be3b
000002d0: f356 4e3d 74c7 bc3c 75d4 a23c 0565 d13c
000002e0: 5825 8d3a 224c 683b cb69 ba3c 6e8d 0e3c
000002f0: 9ee2 c13c ddc3 173d adec d9bc 0d44 1a3d
00000300: d210 143d 863b 8ebc 37c2 333d b640 873b
00000310: 1747 063c cdf0 ec39 cbd3 203d 47a0 543d
00000320: 05df 913c a6a7 343d 2309 2c3d 130f 3e3d
00000330: b0fb f53c e790 473d 1267 e23c bee6 42bc
00000340: b4e5 953b 0b3b 1cbc 2d94 9cbb d6b7 fb3c
00000350: ac50 0cb9 402e a3bc 9abf 3c3d 2e41 06bd
00000360: 662a c13c b237 2a3d 60de 20bc 45a1 063c
00000370: 7033 663c ff74 453a 974f 01bd 478b a1bc
00000380: 37fd 023d f563 843b 0f31 b83b 67d4 8b3c
00000390: 701d 4d3d d99e ccbc 0c32 8739 a704 fd3c
000003a0: 1c13 aebc 978c f4bc a45b 193d 33c1 303c
000003b0: e7b9 c6bc e711 b3bc 3cec 2a3d 8f83 373b
000003c0: 3d6d d43c 7161 acbc 5ed4 ccbc dff9 c03c
000003d0: 6b54 e7bc 4e88 2b3c d05b 82bc 5c6e c4bb
000003e0: ce2f 003c e810 713c b884 c63b 2eb6 133c
000003f0: c69e 96bc d625 0f3d e447 383c 615e 033d
-0.013113485 0.03256962 -0.033339873 -0.006497545 0.033125434 -0.020178562 -0.004099852 0.046559416
0.053123806 -0.012335749 0.010299689 -0.022841223 -0.029947218 -0.0072731795 -0.021257624 0.009056786
-0.0030032068 0.04078262 0.0049603344 0.0087812105 -0.026527258 -0.004066956 -0.031312473 0.024578178
0.038932554 -0.016775953 -0.0249995 -0.021474918 0.029962428 0.0361271 -0.0060915817 -0.007032686
0.048300844 -0.03180758 0.021888705 0.012093585 -0.031960003 0.018170841 -0.03493576 0.0016745774
0.018193465 -0.0055295173 0.007824949 0.023925008 0.025518326 0.00936081 0.0033434029 -0.019044364
0.041889343 0.043915473 0.0052941805 0.044385377 0.039614383 0.008854156 -0.021039443 -0.016855408
0.0032937874 0.04497909 0.043290548 -0.005665594 0.03931149 0.019978533 -0.014031127 -0.016734662
0.020268952 0.032366693 0.0012020967 0.036859244 0.006574891 0.033080857 -0.023624148 0.015471955
0.020008016 0.013803212 -0.04123434 -0.03389767 -0.028568873 -0.021340404 -0.0003041167 -0.034412004
-0.0322723 -0.0068725515 -0.016398456 0.046294976 0.01154225 0.037143327 -0.004325271 -0.02864896
-0.015326063 -0.018722247 -0.003132217 -0.035893034 -0.0089225015 0.0094539495 -0.036921352 0.014044937
0.0007129763 0.03607523 0.014648758 -0.025158584 0.014427205 0.015833111 0.02079706 0.019485977
0.03597222 0.048135404 0.014565045 0.049905337 0.031982034 0.045540508 -0.024039311 0.02522766
0.004637609 -0.0026188337 0.003735729 -0.028603736 0.009455353 -0.0012973356 0.031881507 0.040802594
0.03254197 0.016565911 -0.022668492 -0.016167087 -0.035066593 0.04236263 0.044791922 0.02635185
-0.011215186 0.008438163 0.0060344115 0.0019474543 0.0337582 -0.026838036 -0.028958287 -0.026717825
0.053268623 0.034992225 0.015522794 -0.008443155 -0.017001802 -0.02142606 -0.011447688 0.050176885
0.031841017 0.014136951 0.011048441 0.04305299 0.038036723 0.026245164 0.030119041 0.012414261
-0.014612205 0.024485432 -0.028024733 0.007956306 -0.010976731 -0.007902732 -0.02793526 0.0025904542
-0.0066672205 0.025214566 -0.0025762676 0.038587008 0.004766158 0.039072257 0.007534468 0.047885098
-0.017916959 -0.010780512 0.04534583 -0.03131508 0.0042025917 -0.002364038 0.021483624 -0.018213505
0.042898387 0.004596547 -0.020044135 0.005816283 0.05037589 0.023044325 0.019876698 0.025560865
0.0010768576 0.003544577 0.022755524 0.008700712 0.02366763 0.037052024 -0.026602114 0.037662555
0.036148854 -0.017362367 0.04388639 0.004127587 0.00819566 0.00045192838 0.03926448 0.051910665
0.01780654 0.044105195 0.0420009 0.046401095 0.03002724 0.048722174 0.027637038 -0.011895834
0.004574502 -0.009535561 -0.004778406 0.030727308 -0.00013381493 -0.019919515 0.046081163 -0.032777004
0.023579787 0.04155702 -0.009818643 0.008217161 0.01405035 0.00075323874 -0.031570043 -0.019719733
0.031979766 0.004040236 0.0056210826 0.017069055 0.050076902 -0.024978088 0.00025786494 0.030886007
-0.021249346 -0.029852195 0.03744091 0.01078825 -0.024258567 -0.021859122 0.041729197 0.0028002
0.025930995 -0.021042557 -0.025003608 0.023556648 -0.028238496 0.010469509 -0.01591292 -0.005994601
0.0078238975 0.014713503 0.006058302 0.009015603 -0.018386256 0.034948193 0.011247609 0.03207243

global_pool.0.weight f4 [64, 64, 3, 3]
00000000: aa2c 653b 3529 0cbd 45b1 f33c 03f1 933c
00000010: 08f8 b9bc aa7f 373c 694f 8cbc 99f0 d83c
00000020: fdeb a73a e425 0b3c a29b 22bc 889b ef3c
00000030: f53b 0f3b a0ac 0bbd 3e9d 52bc c867 333d
00000040: 886d e2ba 50d3 df3c 817d e63c dccf a1bc
00000050: cd01 953c 16d4 3ebd 5807 2ebd c141 6bbd
00000060: 167f c4bb 1f57 5abc 224e 55bc 17a4 053d
00000070: 6fc2 e4bc 31e4 bbbc be7c f4bc bc34 3cbd
00000080: bcc9 753c 6f57 8dbc c81d 6abc 415d 36bb
00000090: 1079 473a cd80 d0bc bfee 84bc 2995 01bb
000000a0: 301d 46bd 0b82 e5bc d73e 0ebd 53e8 f53b
000000b0: 46fd b63c d998 523c e5ce 0b3d 1d79 06bd
000000c0: 136b c0bc 09ae 07bd 7ed3 26bd f207 3dbd
000000d0: f719 87bc 8c53 08b8 d48c 99bb 7d70 8e3c
000000e0: 116c 1cbd ef67 16bc 84f5 dc3c d9e3 e53c
000000f0: 81dc 02bd a31d 2ebd 877d 003d ee25 d9bc
00000100: 5288 043d 08bb b73c f17c b73c 6782 003d
00000110: 420f 193c 542e c83c 204e 12ba d0c5 17bd
00000120: 0da7 adbb 4ffc 19bd 58bd 923c e139 ea3b
00000130: e66e 90bb 37d9 a93c 932c 993b 7009 153d
00000140: 5a69 cfbc 25ad 30bd 4b75 9c3a 69c3 023d
00000150: 43aa cbbb cd38 523a 4899 8dba a9dc c6bc
00000160: 57b7 603c 652c 3b3c c44d f6bc 07e6 01bd
00000170: 02e7 2dbc 9f6e 0b3d 57e4 1abd 59e5 f83c
00000180: bf75 02bd 373f f03c d167 183d d27e f73b
00000190: 238e 07bd 5791 2bbc 2819 063b f30b 9a3c
000001a0: 44d3 a7bb 1769 1f3d b671 09bd da82 a6bc
000001b0: dffd 0dbd 8555 493b 5bc8 09bc ce47 cebc
000001c0: 66fd 3e3c 7275 94bc 2eda 3ebd 8f4a 81bb
000001d0: 2749 923b 995e 0a3d 7866 29bd c0a7 013c
000001e0: c01b 06bd 16e5 5d3c 3c57 6abc fbe4 fe3b
000001f0: d5e3 37bd 30a6 16bc c5ee 3dbd b4e6 0b3b
00000200: 6cdd eb3c 7390 99bc 39a0 4e3b e0e3 9ebc
00000210: 5c24 e53c 8b83 983c 878d a9bc 9070 a1bb
00000220: 71b8 c03b 5f37 02bd 3082 dfbc 2927 963c
00000230: 4604 8cbc 2ccf 113c b835 503c cb13 40bd
00000240: 9343 0f3d 8cd1 8a3c eb66 aa3c ba56 ee3c
00000250: 5c69 2abd 7913 9ebb 85fb 8a3b ce16 0bbd
00000260: e37c e1bc 16d1 633c 2e4c 0d3d 1c33 573c
00000270: 8b2f 353c d327 f93c 64f3 3fbd 2fc9 f5bc
00000280: 4581 a23c b5ac 1abd d4e9 363b 1e8c f5bb
00000290: b33f 94bb cff0 483c d604 f1bc e05c d9bc
000002a0: 075b 1abd aae2 27bd 2a4b 10bd e35b 36bc
000002b0: 63f1 4fbc e2c2 7ebc a56a 13bd ccdf 19bd
000002c0: 69f3 8cbc 0abb 22bd ce57 9cbb 61e3 c8bc
000002d0: 3c33 4abc edf5 63bc dfb5 783a 5656 cbbc
000002e0: cacd da3c 1b21 1ebd c4a2 c63c 86cd a5bb
000002f0: 9834 653c 726c 033d 8dd9 223d 8188 ebbc
00000300: 1ded 0fbb 8a60 6cbb a746 8c3c 5840 bebc
00000310: d30e 1e3c 693a 863c c7f7 be3b 502a 713c
00000320: 6084 fc39 ac34 4abd 6f2e e33c b8b6 843c
00000330: 64f1 883b 613f ef3c 1bc1 913c 4949 45bc
00000340: a0e0 de3c 12f4 b73c f3e6 b8bc 39ab 493c
00000350: 30a7 12bb b088 13bd 18d3 a9bc 15c6 c93c
00000360: 3880 d13c 23cd bd3c 2e08 993b ad16 bf3c
00000370: 0f69 933c bda0 b43c 038a 98bc da66 bd3c
00000380: f4a3 7bbc 983e a5bc 8379 d7bc b641 6fbc
00000390: 85ad fe3c 03ce c63b 78a6 983c 632f 4c3c
000003a0: a60b a4bc f971 e33c 2cff 3e3c a2e3 e1bc
000003b0: 1a5e 0bbd dd82 9fbb b879 f33b a756 00bc
000003c0: 9b66 d0bc 7ee6 6dbc 4eec 45bd d41f cdbc
000003d0: 9b84 fc3b 914c 70bc edcb c23b fb50 0e3a
000003e0: 4d5f 723c d85b 48bd 008e 1bbd 9dff 3bbd
000003f0: 7ce3 033d 58dd 293c a3d6 c9bc 5d53 acbb
0.0034969249 -0.034218986 0.029747615 0.01805926 -0.022701278 0.011199871 -0.01712771 0.026481913
0.0012811419 0.008492921 -0.009924801 0.029248968 0.0021855806 -0.034100175 -0.012854872 0.043800145
-0.0017275074 0.027322441 0.028136017 -0.019752435 0.018189335 -0.04658898 -0.042487472 -0.057435755
-0.005996595 -0.013326435 -0.013019117 0.03262719 -0.027924744 -0.022935959 -0.029844638 -0.04594873
0.0150017105 -0.017253606 -0.014289327 -0.002782658 0.0007609287 -0.025452042 -0.016227124 -0.0019772744
-0.04836768 -0.02801611 -0.034727897 0.007504502 0.022337567 0.0128538245 0.034132857 -0.032830346
-0.023488557 -0.033124957 -0.04072904 -0.046150155 -0.016491873 -3.2502736e-05 -0.0046859775 0.017387623
-0.038188998 -0.009180053 0.02697254 0.028062748 -0.03194857 -0.042508733 0.031369712 -0.026507344
0.032356568 0.02242805 0.022398444 0.03137436 0.009342017 0.024436153 -0.00055810995 -0.037053883
-0.005299455 -0.037594136 0.017912552 0.007148013 -0.0044077514 0.020733459 0.004674503 0.036385953
-0.02531879 -0.043133873 0.0011936811 0.03192464 -0.006215365 0.0008019328 -0.0010803128 -0.02427514
0.013715587 0.011424159 -0.030066378 -0.03171351 -0.010614159 0.034041043 -0.037815418 0.030382799
-0.031850573 0.029327018 0.037208382 0.00755296 -0.033094537 -0.010471663 0.0020461772 0.018804526
-0.0051216204 0.03891858 -0.03355571 -0.020326067 -0.03466594 0.003072114 -0.008409585 -0.025180724
0.011657095 -0.018122409 -0.04659479 -0.0039456557 0.004464287 0.03378162 -0.041357487 0.00791353
-0.03274131 0.013543388 -0.014303025 0.0077787614 -0.044895012 -0.009194896 -0.046370286 0.0021347227
0.028792106 -0.018745637 0.0031528606 -0.019395769 0.027971439 0.018617412 -0.020697368 -0.0049267486
0.005881362 -0.031791087 -0.027283758 0.01832922 -0.017091881 0.008899491 0.01270812 -0.046893876
0.034976553 0.016945623 0.020801028 0.029094089 -0.041604385 -0.0048240987 0.0042414092 -0.033957295
-0.027525371 0.01390483 0.03449648 0.013134744 0.011058698 0.030414497 -0.046862975 -0.030003158
0.019837031 -0.037762363 0.0027910369 -0.00749351 -0.004524195 0.0122644445 -0.029421251 -0.026533544
-0.037684467 -0.040987648 -0.035227932 -0.011130306 -0.012691828 -0.015549393 -0.035990376 -0.037566945
-0.01720591 -0.039729156 -0.0047712093 -0.024522485 -0.012341317 -0.013913614 0.000948755 -0.024821442
0.026709456 -0.03860579 0.024247535 -0.0050599007 0.01398959 0.032085843 0.039758254 -0.028751614
-0.00219614 -0.0036068284 0.017123533 -0.02322404 0.009647089 0.016385274 0.005827877 0.014719561
0.00048163813 -0.049366638 0.027732102 0.016200408 0.0041791666 0.029205026 0.017792275 -0.012041398
0.027206719 0.022455249 -0.022571063 0.012308889 -0.0022377484 -0.036019027 -0.02073054 0.024630586
0.025573835 0.023169106 0.0046701645 0.023326242 0.017994432 0.022049302 -0.018620497 0.023120333
-0.015358914 -0.020171449 -0.026303058 -0.014603069 0.0310886 0.006067039 0.018634066 0.01246247
-0.020025086 0.027764307 0.011657517 -0.027574364 -0.03402529 -0.004867895 0.0074302815 -0.0078331595
-0.025439551 -0.014520286 -0.04832106 -0.02503959 0.0077062375 -0.014666692 0.00594472 0.0005428937
0.014793229 -0.048915714 -0.03797722 -0.04589807 0.032199368 0.010367714 -0.02463848 -0.005258961

global_pool.0.bias f4 [64]
00000000: 4854 abbb 1f31 b5bc 36c1 2d3c 1ce5 36bd
00000010: de07 193c a1f9 b9bc be22 48bc dd27 0abd
00000020: de52 0c3b 09c2 33bd 8f6f d23c 2999 cabc
00000030: 0750 a13c 041c 223b 6e75 263d ca3c ddbc
00000040: a65d 1aba 2c1f 78bc 514a d03c bab9 623c
00000050: ef7f 16bd af55 25bd dd96 21bd 3965 c43c
00000060: 8d2d adbb 6f36 113d f91e 26bd af3d b13c
00000070: d193 193d 9ecc f63c 685f aa3c 7d40 71bc
00000080: e949 58bc 0c21 e63c 87ff 4b3c b021 42bc
00000090: f7f3 c8ba a7ee 9d3b 3867 233d 0f56 943b
000000a0: d74d ca3b 3971 473d 0929 a13c 8712 83bc
000000b0: 2de0 8b3c d668 55bc 7cc3 903c 33ce 30bc
000000c0: e88a 3e3d 5653 8dbc 895e dabb a306 e7bc
000000d0: e3b5 2f3c 4975 173d 9adc 263d 01df 273c
000000e0: cf78 14bd 6fd4 523b 5681 2f3b 3c23 95bc
000000f0: e81f 8dbb 5df8 37bd 44bd 363b 83ad 8d3b
-0.005228553 -0.02211815 0.010605147 -0.04465209 0.009340255 -0.02270204 -0.012215314 -0.033729423
0.0021411697 -0.04388622 0.02568796 -0.024731236 0.01969148 0.0024735937 0.040639333 -0.027006526
-0.00058885885 -0.015144151 0.025426062 0.013838226 -0.0367431 -0.040364917 -0.039450515 0.023974048
-0.005284971 0.035452303 -0.04055688 0.021635858 0.037494484 0.030126866 0.020797446 -0.014724848
-0.013201215 0.02809193 0.012451059 -0.011848852 -0.0015331496 0.0048197093 0.03989336 0.0045268605
0.00617383 0.048691962 0.019672887 -0.016000045 0.017074669 -0.013025483 0.01767134 -0.010791349
0.04651919 -0.017251652 -0.0066641015 -0.028201407 0.0107245175 0.036977086 0.040737726 0.010246039
-0.036248025 0.0032170077 0.002677997 -0.018205278 -0.004306782 -0.044914592 0.0027883807 0.0043236627

head.1.weight f4 [64]
00000000: 6e76 7e3f b593 7e3f 6c76 7e3f 0000 803f
00000010: 9b1c 7f3f ffcd 7b3f c42f 7d3f 0000 803f
00000020: bf97 783f 0000 803f c64b 7e3f 7d56 703f
00000030: 0000 803f 0000 803f e3c4 813f 6d76 7e3f
00000040: 2eb5 7f3f 6c76 7e3f 0000 803f b06b 803f
00000050: 0000 803f 0000 803f 7c43 803f 26b1 813f
00000060: b593 7e3f 1685 763f b993 7e3f 6c76 7e3f
00000070: 505c 7f3f be33 753f 9de3 7f3f 0000 803f
00000080: e893 7d3f 3b8b 7e3f 6d76 7e3f ea99 813f
00000090: 2d77 7e3f b893 7e3f a7ac 7f3f 0000 803f
000000a0: 1475 7e3f 00ba 803f a425 7a3f 5911 803f
000000b0: a1dd 7d3f 992d 813f eaad 7e3f 09ff 803f
000000c0: 15e3 7f3f 6c76 7e3f 4b70 7e3f 6c76 7e3f
000000d0: 0ec2 803f e45e 793f 5e42 803f 0000 803f
000000e0: 9f26 763f 9223 763f c893 7e3f 904e 7a3f
000000f0: af76 7e3f 0f46 773f 91b1 7e3f 6c76 7e3f
0.9939946 0.99444133 0.9939945 1.0 0.99653023 0.983612 0.9890101 1.0
0.97106546 1.0 0.9933437 0.9388197 1.0 1.0 1.013821 0.99399453
0.99885833 0.9939945 1.0 1.0032864 1.0 1.0 1.0020595 1.0132186
0.99444133 0.96296823 0.99444157 0.9939945 0.9975023 0.9578208 0.99956685 1.0
0.9905381 0.994312 0.99399453 1.0125096 0.994006 0.9944415 0.9987282 1.0
0.993974 1.0056763 0.97713685 1.0005294 0.99166304 1.009204 0.9948412 1.007783
0.99955875 0.9939945 0.99390095 0.9939945 1.0059221 0.97410417 1.0020254 1.0
0.9615268 0.96148026 0.99444246 0.97776127 0.99399847 0.96591276 0.99489695 0.9939945

head.1.bias f4 [64]
00000000: 94c9 c4bb 4027 b6bb c7c9 c4bb 0000 0000
00000010: 53ba 713b f03c 893a b57b 45bd 0000 0000
00000020: 3933 f6bc 0000 0000 138b fbbb ac23 72bd
00000030: 0000 0000 0000 0000 512c 1fbd c9c9 c4bb
00000040: 1ed3 2f3c c9c9 c4bb 0000 0000 3a4d 413b
00000050: 0000 0000 0000 0000 c094 c9b9 19fe 103c
00000060: 3b27 b6bb 9653 f5bc 7c26 b6bb c9c9 c4bb
00000070: a274 93ba aaee 95bc 54de 923b 0000 0000
00000080: dcc6 2ebc affb c1bb c3c9 c4bb ae4a 323c
00000090: 4cc9 c4bb 1b27 b6bb 2cf8 bf3b 0000 0000
000000a0: a197 f2bb f2a9 fd3b 94d3 5cbc 1b57 f8bb
000000b0: d003 0abc fef9 193c f297 803b 1bd5 e23b
000000c0: 8fbc 04bd c9c9 c4bb 3fe4 c7bb c7c9 c4bb
000000d0: 3213 e8bb 546d e7bc 8786 b63b 0000 0000
000000e0: 94b6 26bd 843b f3bc 1427 b6bb fca5 acbc
000000f0: 57c6 c4bb d5bb 9fbc ff2b 903b cac9 c4bb
-0.0060054753 -0.005558878 -0.006005499 0.0 0.003688474 0.0010470431 -0.04821368 0.0
-0.030053722 0.0 -0.007676491 -0.05911605 0.0 0.0 -0.038860623 -0.0060055
0.010731487 -0.0060055 0.0 0.0029495494 0.0 0.0 -0.00038448535 0.008849644
-0.005558876 -0.029947083 -0.005558787 -0.0060055 -0.0011249969 -0.01830228 0.00448207 0.0
-0.010667529 -0.0059198956 -0.006005497 0.010882063 -0.006005442 -0.005558861 0.005858442 0.0
-0.0074033295 0.0077412063 -0.0134781785 -0.007578743 -0.0084237605 0.009397982 0.0039243633 0.006922377
-0.032406386 -0.0060055 -0.006100207 -0.006005499 -0.0070823664 -0.028250374 0.005570236 0.0
-0.040701464 -0.029691465 -0.0055588577 -0.021075241 -0.0060050893 -0.019498745 0.004399776 -0.0060055004

head.3.weight f4 [64, 64]
00000000: 1a6b 1d3d 8d2a 96bd d708 b3bb d0f6 f2bc
00000010: b5f6 87bd ce90 29bd c83d f3bd 6427 bc3d
00000020: bebd d8bd 1c12 6e3d 35f1 54bd 673c 183e
00000030: acc0 3fbd a2b1 b03d 32d2 10bd e1dd 1fbd
00000040: 9a96 aabd e20d b3bc 8856 63bd cda1 f8bd
00000050: 1054 8fbd 0c5e 63bd 97e0 a33d aaa4 68bd
00000060: 3127 bf3d 5aeb 913b 8a6f 4ebd 9d41 dd3c
00000070: db5e ffbc b679 afbd 2b55 ab3d 9cae 183d
00000080: 9b77 c8bc 1ace babc 420d cc3d 7e43 da3d
00000090: e2dd a43d b056 b2bc 91a0 863d 64a6 203d
000000a0: c98e b9bc bf27 f8bd bc14 78bd a291 9d3d
000000b0: be50 b53d 0d31 833d 987a b8bd 44b4 15bd
000000c0: 001f 233d 025e 7a3d 056d 88bd 6a54 203d
000000d0: 387f e23d 2c75 4fbc 31d7 e9bd a862 d8bc
000000e0: 00ce ad3d 945b 29bd 5494 53bb 3b31 8b3d
000000f0: e58e 01be 1f6e 87bd 9cb0 223d e90b b53d
00000100: 15ac abbb 8ed1 60bc 8b0f d2bc ce82 d2bd
00000110: 4b18 b83d 5cb7 60bd d5f1 b9bc e426 b8bd
00000120: 96e0 d03d ecef 55bd be39 aebd df17 e9bd
00000130: 18aa 29bd 8082 6bbb 64d9 b93d 9817 ca3d
00000140: f0ae e3bd b5fb bb3d 383c a93d 17e4 5e3d
00000150: 3801 5cbd e812 24bd f0d3 a03d 676d e6bd
00000160: 122c c73d e514 a7bd 8f9f ba3d dfd3 d13d
00000170: 0977 2b3d 40f2 463d 2d88 e9bd 84b6 943d
00000180: a2d0 82bd 9b12 9b3d cb06 9c3d 3e0c de3c
00000190: a59e 70bd 80dd 34bd 9d02 043c ec92 bf3d
000001a0: 536d 3d3c 5de4 c13d b736 993c 77bd d33d
000001b0: 6d73 2d3d 3118 013d 411d d5bd 6c1d 55bd
000001c0: 3cd4 543d e10b adbd 06ba 433d 4548 68bc
000001d0: 2ea2 9a3d 3b6f e1bd 7905 19bc f03d ec3c
000001e0: f0f1 61bd d955 c1bd 17ce 013e a048 cb3b
000001f0: 03a6 50bd 001d 08bc b739 e3bd 2ffe 9f3b
00000200: 14ab ae3d 669c 393d 0d75 bdbd a0cd 9fbb
00000210: d341 de3d 56ed b1bd 547f bcbd b48d e63d
00000220: 5eec c1bd 0e85 ce3d 9497 253c bfb7 b03d
00000230: 0018 f2bb 5e2d 92bd bbf0 873d 97c5 a83d
00000240: c50f 583d 8496 8fbd 92b3 febd 5b52 83bd
00000250: b0b7 bcbd 4264 a9bd 96fe ef3d a52e d3bd
00000260: 7529 373d fcc3 a9bd 72b9 9cbc faef 413d
00000270: 4a12 1cbd d61f cc3d 8a5d 2e3c fcf2 fa3d
00000280: 40fc 3c3c 7cff 53bd 02dd bf3b caad ba3d
00000290: 09d5 d03c 7325 da3c b8c0 7fbd a062 d43c
000002a0: ca23 863d 4204 1dbd c1a2 1dbc 1c7b ebbb
000002b0: 15ce 643c 7933 bc3d 8523 7cbd 5b72 bf3d
000002c0: 09f9 763d effc 993d 2993 453c 6f9a e43d
000002d0: ede5 613c 11ea c03d c2c0 bf3d 60c5 d9bd
000002e0: 1275 85bd 8574 613c 32d1 81bb 9fa4 573b
000002f0: bd9f 80bd aed5 1f3d 3bff 143c ad1b ddbc
00000300: f676 8d3d 8c67 1f3d 09e4 b0bd 5225 a2bd
00000310: 8fbf e53d 5a42 6e3d d95b 85bd 4087 13bd
00000320: 3538 a63c c47c 0abd f932 dc3d 76ce 5b3d
00000330: 160d b53d 267c ba3d 49c1 1abd 4abd 69bc
00000340: 61ac ae3c 8970 e83d 242e 213d c6a7 733d
00000350: 545c 2cbd 02ec babd 03cf 943c d38d c2bb
00000360: e522 9abd 4165 6abc 2456 a73d fa7e d13d
00000370: 6a36 583d b6cf 8dbd 5e6e 5bbd 8ce3 71bd
00000380: dc41 663c 9795 ebbd fde3 f23d e8c8 7bbd
00000390: f28b 5abc 48d7 c3bc 3c12 e33d 7694 e0bd
000003a0: 6b86 713c 9f93 ee3d c2d0 113e 63e5 49bd
000003b0: 9592 103c 2f66 603d 971a dfbd 5e15 7b3d
000003c0: f218 1fbd e5f9 54bd ec85 b23d bb3f d2bd
000003d0: 437c d0bd 2f08 9d3d 0600 85bd 5c8a a1bd
000003e0: bb3f 6ebd 895c 8e3b 42d6 f23d 4414 fbbd
000003f0: 6139 d83d 998d 803d 6b0f 803d 7f89 973d
0.038432218 -0.07332335 -0.0054637003 -0.029658705 -0.066388525 -0.041397862 -0.11877018 0.09187201
-0.105830655 0.05812274 -0.051987845 0.14866792 -0.046814606 0.08627631 -0.035356708 -0.03902996
-0.08329506 -0.021857206 -0.055502445 -0.12140236 -0.069984555 -0.055509612 0.080018215 -0.05679766
0.09333647 0.004453105 -0.05039934 0.027008826 -0.03117316 -0.085681364 0.08365854 0.037275895
-0.024471095 -0.022803355 0.09963466 0.10657404 0.08050133 -0.021769851 0.06573594 0.039221182
-0.022651093 -0.12116956 -0.06056665 0.07693793 0.08853291 0.0640584 -0.09007758 -0.036548868
0.039824486 0.06112481 -0.06661419 0.039143004 0.11059421 -0.012662213 -0.11417998 -0.02641423
0.08486557 -0.0413471 -0.0032284455 0.06796499 -0.12652166 -0.06612801 0.03971921 0.08840162
-0.0052390196 -0.013721837 -0.025642177 -0.10278855 0.089890085 -0.054862365 -0.022698322 -0.08991793
0.10199086 -0.05223076 -0.08507107 -0.11381506 -0.04142198 -0.0035935938 0.09074667 0.098677814
-0.11117351 0.09178869 0.08263439 0.054416742 -0.0537121 -0.040057093 0.07852924 -0.112513356
0.097252026 -0.08158282 0.09112465 0.10245489 0.041861568 0.04857087 -0.114029266 0.072613746
-0.0638745 0.07571908 0.07618483 0.027105447 -0.058745045 -0.04415655 0.008057264 0.09354195
0.011561709 0.09467385 0.018702848 0.10338872 0.042346407 0.03151721 -0.1040597 -0.052030012
0.051960215 -0.08449531 0.047784828 -0.014177387 0.075504646 -0.11007544 -0.009339684 0.028838128
-0.05516237 -0.09440202 0.12676273 0.006203726 -0.05093957 -0.008307695 -0.110949926 0.004882596
0.08528724 0.04531517 -0.09250841 -0.0048768073 0.10852399 -0.08687846 -0.092039734 0.112574965
-0.094689116 0.10083972 0.01010694 0.08628797 -0.007388115 -0.07137559 0.066377126 0.08240812
0.052749414 -0.070111305 -0.12436594 -0.064121924 -0.09214723 -0.08271076 0.1171848 -0.10311631
0.04471727 -0.08289334 -0.019131396 0.047348 -0.03810338 0.0996701 0.010642419 0.12253377
0.01153475 -0.05175732 0.0058552036 0.09115179 0.025492208 0.026629185 -0.06243965 0.025925934
0.06549795 -0.03833414 -0.009621323 -0.0071863066 0.013965149 0.09189505 -0.06155731 0.093479834
0.060296092 0.075189464 0.0120590115 0.11162268 0.013787729 0.094196446 0.093629375 -0.106333494
-0.0651647 0.013760691 -0.0039617056 0.0032904518 -0.06280468 0.03902214 0.009094055 -0.026990736
0.069074556 0.03891711 -0.08637244 -0.079172745 0.112181775 0.058168747 -0.06511659 -0.036017656
0.020290473 -0.033810392 0.1075191 0.053663693 0.088403866 0.09105711 -0.037781987 -0.014266321
0.021322431 0.113495894 0.039350644 0.059486173 -0.04208024 -0.09127046 0.018165117 -0.005937317
-0.07526187 -0.014306367 0.08170727 0.10229297 0.05278627 -0.06924383 -0.05357205 -0.059054896
0.014053788 -0.115031414 0.118598916 -0.061470896 -0.01333903 -0.023906365 0.11087462 -0.10965817
0.01474152 0.1164925 0.14239791 -0.049291026 0.00882401 0.05478495 -0.108937435 0.061299674
-0.03884215 -0.05199613 0.0871695 -0.10266062 -0.10179951 0.076675765 -0.06494145 -0.07887718
-0.058166247 0.004344527 0.11857273 -0.12259725 0.10557819 0.062770076 0.06252941 0.07399272

head.3.bias f4 [64]
00000000: 1cab 853d 3e65 0cbb 9163 76bd a11d 833b
00000010: 94d5 14bd 5fe4 0b3e 53a6 edbd 4b7e 1c3d
00000020: 3635 69bd 32e6 3c3d 76b4 9ebd da9e 08bd
00000030: 0a02 6b3d 57d9 c2bd 8c66 59bd 1012 6a3d
00000040: 08ec b93c 6a61 1cbd 5380 223b f448 cf3d
00000050: e14d 22bd 30ad 203d 0167 863d 4a4e d4bd
00000060: 6dbe c6bd c339 e6bd 70ef abbc bafc abbd
00000070: d08a 043d b608 bc3d 0bec 82bd 7881 8c3c
00000080: 1fe5 bcbd 7660 c73d 6638 263d f98b 92bd
00000090: 8a26 a9bd d636 8dbd 557e 7bbd 45df 8ebd
000000a0: 5e2a e23c b9b1 89bd 8cfb 36bd 87e9 0abd
000000b0: dbec 87bd ed65 ea3c 5200 d43d 1dfc 52bb
000000c0: dc89 953b fd73 cc3c 9dcc 98bd 2344 923d
000000d0: 3a9b 70bd 8887 dfbd 808c 1ebc 7816 9b3d
000000e0: e0af 99bd 5504 583d b538 dd3d 7811 d53d
000000f0: 8323 83bd fcca 023d b39c 91bb 4e00 c23d
0.06526777 -0.002142265 -0.060153548 0.004001335 -0.036336496 0.13661335 -0.116039895 0.03820638
-0.05693551 0.04611797 -0.07749264 -0.033354618 0.05737499 -0.095141105 -0.053076312 0.057146132
0.022695556 -0.03817884 0.0024795725 0.101213366 -0.039625052 0.039227664 0.06562615 -0.10366495
-0.097042896 -0.11241486 -0.020988196 -0.08397813 0.032358944 0.09181349 -0.06392678 0.01715158
-0.09223389 0.09735195 0.04058113 -0.07155604 -0.08259304 -0.06895225 -0.061399776 -0.06976179
0.027608093 -0.06723351 -0.044673488 -0.033914115 -0.066369735 0.028613055 0.103516236 -0.0032193728
0.0045635533 0.024957651 -0.07460902 0.07141902 -0.058741786 -0.109145224 -0.0096770525 0.07572645
-0.075042486 0.052738506 0.10801832 0.104037225 -0.06403258 0.031931862 -0.004443729 0.09472714
