outputs/exp_v1/checkpoints/epoch_30.pth (torch, 651919 bytes, 13 tensors)

base.0.weight f4 [64, 3, 7, 7]
000000 60 65 a8 bc 02 72 71 3d 15 ee 1d bd bf 97 a5 3b
       -0.020556152 0.058946617 -0.03855713 0.00505349
000010 f9 e8 67 bb 62 02 87 bd 67 55 94 3b ce db 86 3d
       -0.0035386665 -0.06592251 0.0045267823 0.06584893
000020 62 8e 55 3c 13 1e 57 3d 77 9e 7b bd d0 03 91 bd
       0.013034435 0.052518915 -0.06143042 -0.07080805
000030 5e 16 8c 3d 10 ab 8f 3d 9c cb c7 3c 82 25 a0 3d
       0.06840204 0.070150495 0.02438908 0.07819654
000040 9a b9 19 bd f6 b7 88 bd 9d cf c5 3c b6 51 21 3c
       -0.03753052 -0.06675713 0.02414685 0.009846142
000050 1d 3e ef 3c 8e 0a 49 3d 89 ae 43 bd e4 d1 f3 bc
       0.029204423 0.04908233 -0.04777387 -0.02976317
000060 ba 60 4d bd 8a 27 a6 bd 75 a2 c7 bc a6 07 9b 3d
       -0.050141074 -0.0811301 -0.024369458 0.07569818
000070 c0 73 8f bd 1d c4 39 3d d2 1f 41 bd 52 f0 84 bd
       -0.070044994 0.045353044 -0.047149487 -0.0649115
000080 c1 a6 cf 3a 67 3e 42 3d 23 a1 a8 3a 46 0a 94 3c
       0.0015842543 0.047422793 0.0012865405 0.018071305
000090 58 88 99 bd fd 77 6b 3d 2d 13 7f bd 4b 52 f9 3c
       -0.07496709 0.057487477 -0.062274147 0.030434748
0000a0 78 16 9b 3d 3f 11 bc 3b 0d 48 ab bd 4a 9d a1 bd
       0.07572645 0.0057393606 -0.08363352 -0.07891329
0000b0 43 74 d7 3c 07 41 8c bd 05 a2 6a bd 8e a4 0a bd
       0.026300555 -0.068483405 -0.05728342 -0.033848338
0000c0 4b b0 6e 3c cd 8e c8 3c de e7 41 bd 93 5b 88 bc
       0.014568399 0.024482155 -0.047340266 -0.016645228
0000d0 5e f8 5c 3d fc 11 8a bd 47 99 af ba 2b 5e 51 bd
       0.0539478 -0.067417115 -0.0013397121 -0.051115196
0000e0 e7 e4 68 bc 87 4f 4d 3c e0 e7 66 3d 59 5a af bd
       -0.014214731 0.012531168 0.056373477 -0.08562154
0000f0 94 18 a5 3c 73 be 0e 3d dd 04 8b 3d d3 81 01 3d
       0.020153321 0.034849595 0.06788037 0.03161795
000100 aa 62 38 3d 30 be 99 bd 5b 8a fb bc cb 66 48 3c
       0.04501597 -0.075069785 -0.030705621 0.012231539
000110 f2 e4 8d bd 86 b3 31 bd 7c cb 08 3d c3 bc 1d bd
       -0.069284335 -0.043384098 0.033397183 -0.038510095
000120 bf c2 0d 3c 85 6b fb 3c 85 54 97 3d 4b d5 96 3d
       0.008652388 0.030690918 0.07389168 0.07364901
000130 60 3a 71 3c c8 01 88 bd 1b 5d 2c bd 38 8a 7e 3d
       0.01472339 -0.06640965 -0.04208098 0.062143534
000140 61 9f 82 3d 9e c2 f4 3c 4c 6c 8e bd 98 9c 88 3b
       0.06378055 0.029877957 -0.0695425 0.004169058
000150 45 27 a1 bb 92 88 9f bc 02 71 15 bd 47 43 c0 3c
       -0.0049180114 -0.019474301 -0.036484726 0.02346958
000160 88 e9 86 3d 0d b7 34 bd 52 e2 22 3d a1 64 80 bd
       0.06587511 -0.044119883 0.039766617 -0.062691934
000170 45 46 e7 3c 57 fb b0 bd d5 3c ba 3c 55 45 c8 3c
       0.02823175 -0.08641689 0.022734085 0.024447123
000180 6a 83 93 bd fa 07 a2 3c 33 dd 76 3c de b1 96 bd
       -0.072027996 0.019779194 0.015067386 -0.07358144
000190 d7 b3 4b bd 35 3e 0b 3c 19 a3 40 bc d6 e0 2d 3b
       -0.049732056 0.008498718 -0.0117576355 0.0026531718
0001a0 63 0c 46 3d 77 48 5b 3d 67 e5 6c bd 7d f5 24 3d
       0.048351657 0.053535905 -0.057835963 0.04027318
0001b0 a0 4d dc 3c 8b ff c6 bc d2 b2 c2 3c 4d 98 f0 bc
       0.026892483 -0.024291774 0.023766909 -0.029369498
0001c0 f2 ad 12 bc d2 ed 8a 3d d1 59 40 bc 65 89 90 bc
       -0.008952605 0.06783642 -0.011740164 -0.01764364
0001d0 5d d8 a2 bd 8b 1a c3 bb 49 cb a5 bd 63 cc 00 3c
       -0.07951424 -0.005954092 -0.08095414 0.00786123
0001e0 49 10 96 bc 89 1c 17 bd d6 58 1d bc df 31 14 3d
       -0.018318312 -0.036892448 -0.0096037 0.036180373
0001f0 87 75 12 3d b7 da a6 bb ea f2 a6 bd ec 24 e2 3c
       0.035756614 -0.005091991 -0.08151801 0.027605496
000200 ed 09 3e bb d5 26 b0 bb 95 cd a6 bc 53 7d 63 bd
       -0.0028997615 -0.005375723 -0.020361701 -0.05553944
000210 bb 2a 4c bd c8 67 77 bc 4b f3 25 3d 77 07 3f 3d
       -0.04984544 -0.015100427 0.040515225 0.04663798
000220 10 e2 93 3d c3 9f a4 b9 68 bc ab b9 f4 8f 11 bd
       0.072208524 -0.0003139955 -0.00032756035 -0.035537675
000230 86 f8 fb bc ca 32 a1 3d 48 a5 28 3c 46 c6 a7 bd
       -0.030758154 0.07871015 0.010293312 -0.081921145
000240 29 89 ce 3c 5d 6c 6c 3d 59 c4 15 bd 7e 43 51 3d
       0.025211887 0.05772053 -0.036564205 0.051089756
000250 54 f4 4f bd 26 d5 12 3c a9 2b 6e bd 9e b0 94 bd
       -0.05077012 0.008961951 -0.058147106 -0.072602496
000260 07 4a 5a 3c 98 86 0e 3c 50 11 42 bd b0 4a f2 3c
       0.013323314 0.008699082 -0.04737979 0.02957663
000270 cf a2 5d 3b 3b 12 72 3d dc ad 95 bc 28 55 7e bb
       0.0033818965 0.059099417 -0.01827138 -0.0038808081
000280 b8 84 0a 3d 03 91 09 bd 2e 8f 68 bd 16 55 7a 3c
       0.033817977 -0.03358556 -0.05677717 0.015279075
000290 12 4c 76 bd 6b 49 a2 bc 10 06 ef 3c fa 29 86 3d
       -0.06013114 -0.019810399 0.029177696 0.06550975
0002a0 18 2c 8b bc 0f 81 2c 3d 12 02 71 3c 45 6a 7d bd
       -0.016988799 0.042115267 0.014709966 -0.061868925
0002b0 69 99 39 3d 08 a2 9e bd 22 85 b6 bd 44 6a a8 bd
       0.04531232 -0.07745749 -0.08912112 -0.082233936
0002c0 a6 e0 88 bd 3f 7b 5d 3d ae bc 67 bc 05 88 a4 bd
       -0.06683473 0.054072615 -0.014144106 -0.08033756
0002d0 76 3a 58 bb b4 e2 1b 3d 77 63 78 3d 5f 2a 96 3d
       -0.003299383 0.038057998 0.060641732 0.073323004
0002e0 e0 99 66 bd d5 6a 8a bd cf 36 d1 3c 96 40 4a bd
       -0.05629909 -0.06758658 0.02553883 -0.049378
0002f0 b8 9a b2 bc ae 3a 1c 3c 96 85 90 3d 4c aa 42 3d
       -0.021802291 0.009535475 0.070567295 0.04752569
000300 93 2d eb 3c a8 d7 59 bd 2d 75 05 bd e2 a3 a9 bd
       0.028708255 -0.05318418 -0.03258245 -0.08283211
000310 cb 17 2c bb ad 60 b2 3d 8f 6a a6 3c 64 25 0e 3c
       -0.00262593 0.08709846 0.020314483 0.008675907
000320 f7 b7 84 3d 3c b5 bd bb 4b 65 1c bc 15 27 b0 3d
       0.06480401 -0.005789427 -0.0095456345 0.08601204
000330 84 f3 75 bd ff 08 03 3c 89 da 0e bd b6 c4 5c 3d
       -0.060046688 0.00799775 -0.03487638 0.053898536
000340 58 93 a6 3d 8e e4 14 3d 26 89 24 bd 24 69 0f 3d
       0.08133572 0.03635078 -0.040169857 0.03501238
000350 31 c7 a2 3c d7 f5 82 3d 15 88 82 3d 3f e3 34 3b
       0.019870372 0.063945465 0.06373612 0.002760127
000360 34 08 35 bd ff 4b bb 3d f3 84 28 3d 20 05 90 3d
       -0.044197276 0.091453545 0.041142415 0.070322275
000370 8d 31 79 bd 85 9c 47 bd a1 6f fe bc f1 82 a3 3d
       -0.06083827 -0.048733253 -0.031059088 0.079839595
000380 2d 78 8f bd 30 1b 45 bc 51 b8 4f 3c 1b 70 65 3d
       -0.070053436 -0.012030408 0.012678222 0.056015115
000390 ea 72 38 3c 53 56 f1 3c 1c f4 88 3a 3d 56 4c 3d
       0.011257866 0.029460108 0.0010448727 0.04988693
0003a0 42 a4 c4 3c c0 5e 64 bd 7f 77 7c bb 9d 2a 50 3d
       0.024004105 -0.055754423 -0.0038523374 0.05082189
0003b0 3b 48 27 3c 0b 03 7a 3c d0 ed b9 3d 16 95 7e 3d
       0.010210092 0.015259515 0.09078562 0.0621539
0003c0 bc 5e b8 3d 79 90 c5 3b ed 4d 80 3d 88 86 97 3d
       0.09002444 0.0060291854 0.06264863 0.07398707
0003d0 3c c0 50 bd 97 06 87 bd 07 72 77 bd b5 98 29 bd
       -0.05096458 -0.06593054 -0.06041148 -0.0414054
0003e0 dd 83 89 3d 96 b8 98 bd 06 ba 9c 3d 1a 60 86 3d
       0.06714604 -0.07457082 0.07652669 0.06561299
0003f0 9d a8 2a bb 9a 7e 98 bd 26 38 85 3d c5 6d e6 b9
       -0.0026040443 -0.07446022 0.0650485 -0.00043950803

base.0.bias f4 [64]
000000 16 df 84 bb 38 f7 e1 bc 1c c5 5a 3c 90 b9 95 bd
       -0.004054914 -0.027583703 0.013352659 -0.07310784
000010 33 5b e7 bb e3 02 fa 3c 69 c8 6c bc 7e 36 8b 3c
       -0.0070604323 0.030518955 -0.014452078 0.016993757
000020 d7 ed a6 bd df 30 9b bc 96 a0 d1 bc 0f 3c 56 3b
       -0.08150833 -0.018944202 -0.025589269 0.0032689606
000030 d9 43 00 3b d4 2f 33 bd 02 d3 93 3b c6 3b 49 3d
       0.001957169 -0.043746784 0.004511238 0.04912927
000040 02 99 8c 3d cc a4 0e 3b 17 ef 4b 3d d3 3c 5e 3d
       0.068651214 0.0021765707 0.04978856 0.054257225
000050 ef 13 98 bc a5 46 85 bd 2f 21 ca ba 77 b3 20 bd
       -0.018564193 -0.06507615 -0.0015421266 -0.03923365
000060 69 86 9b bd c0 94 6f 3d 8a 65 fc bc 68 f8 49 3d
       -0.07593996 0.05849147 -0.030810136 0.049309164
000070 7a 01 1e 3c 02 9a 16 3d c5 9e e0 3c 73 31 99 3d
       0.009643907 0.036767967 0.027419457 0.07480135
000080 6f 85 89 3c f4 74 1b 3d f1 b4 89 bd 7b 53 e3 3c
       0.016787259 0.037953332 -0.06723965 0.027749768
000090 6e 79 7b bd e8 e4 8b 3b 9c 87 d7 3c e6 16 0b bd
       -0.0613951 0.004269231 0.02630978 -0.033957385
0000a0 49 17 66 3d 69 2e 44 bd 09 d6 ac 3d 22 a4 ad 3d
       0.05617455 -0.047895823 0.084392615 0.084785715
0000b0 b8 84 09 3a cf c7 38 bd 6f 91 a4 bd 74 e7 98 bd
       0.0005245912 -0.045112427 -0.08035552 -0.07466021
0000c0 e2 c1 c5 bc 4d e0 29 bd 33 72 ad bd e3 8a 92 bc
       -0.024140302 -0.041473676 -0.084690474 -0.017888492
0000d0 25 1a c1 bb 64 a2 4f bd ef 2d 14 3b 80 5d 5a bd
       -0.0058930092 -0.050691977 0.0022610386 -0.053311825
0000e0 6a 3c d0 3c 84 be 64 bc e5 03 7e 3d 75 b4 94 bd
       0.025419433 -0.013961438 0.062015433 -0.07260982
0000f0 bb 82 aa 3c cb b8 55 3d 00 c8 25 3d 2e 2a 81 3d
       0.02081429 0.052178185 0.040473938 0.06306873

res_blocks.0.conv.weight f4 [64, 64, 3, 3]
000000 64 e1 c5 bc d9 08 d5 39 74 a2 b1 bc d7 01 75 bc
       -0.024155326 0.00040633118 -0.021683909 -0.014954052
000010 45 10 f0 bc 91 c5 40 b9 14 e9 b7 3c 9c c9 88 bc
       -0.029304633 -0.00018384146 0.022450007 -0.016697697
000020 97 a5 29 3d 9e b7 3a bd 04 d1 32 3c d8 21 ea 3a
       0.041417684 -0.045585267 0.010914091 0.001786287
000030 02 d2 ba bc 43 02 fd bc ed fc f2 3c 88 56 b5 bc
       -0.022805218 -0.030884868 0.02966162 -0.022135988
000040 e8 7b d8 3b 5e 6a 08 3d d0 77 c4 bc 87 18 d6 3c
       0.0066065677 0.033304565 -0.023982912 0.026134742
000050 9d 5e 39 3d 6a 10 10 3d 33 67 dd 3c ff 92 0e 3d
       0.045256246 0.035171904 0.027026748 0.034808155
000060 a0 06 26 3c 2c 09 3e 3c 0c 4f 0f 3c 04 d7 2c 3d
       0.010133415 0.011598866 0.008746874 0.042197242
000070 e2 bb 5c b9 18 50 fc 3c a2 e9 0a 3d e1 25 d4 ba
       -0.00021050827 0.03079991 0.033914216 -0.0016185605
000080 c3 3c 82 39 02 5c a2 3c 10 61 77 bc 12 bb 1f 3d
       0.00024840803 0.019819263 -0.015098825 0.038996764
000090 0c 18 47 3c 46 76 60 bc e7 3d 1b bd f5 ac 00 bd
       0.012151729 -0.013700074 -0.03790083 -0.031414945
0000a0 af 61 66 bc d7 82 da 3c bc f4 2f 3d f2 26 0c 3d
       -0.0140613755 0.026673717 0.042958006 0.03421683
0000b0 50 1b 2b bb 6c 92 df bb c3 86 d2 bb fc df d9 bc
       -0.0026108809 -0.006822875 -0.0064247563 -0.026596062
0000c0 e0 6e 03 bd 1c d2 3f 3d 6f 00 04 3d b0 e7 97 bc
       -0.03208816 0.046831235 0.032226976 -0.018543094
0000d0 2d fc 25 3a 47 c0 48 3b c2 7e 0d bd 75 32 84 3b
       0.00063318276 0.0030632184 -0.034544714 0.0040343353
0000e0 49 45 f3 bc 8e c5 d4 3b 3b 8f 00 3d c0 ae 2e bb
       -0.029696124 0.006493277 0.031386595 -0.0026654452
0000f0 21 6f f4 3b 52 c3 71 3b 78 c8 79 bc 6a eb c3 3c
       0.0074595367 0.0036890102 -0.015245549 0.023915965
000100 73 04 07 3c e8 39 69 bc 4e 18 90 3c 9b 4c 9d bc
       0.008240807 -0.014234997 0.017589714 -0.019201567
000110 cb 88 a0 bb 78 71 e9 3c f7 5a 99 3c b4 ec 8c 3c
       -0.0048991195 0.028496489 0.018720133 0.017202713
000120 9a 29 c5 39 1a a2 1c 3d 7b 5e dd 3a b3 9b e7 3c
       0.00037605764 0.03824053 0.0016889119 0.028272485
000130 66 cb 46 3c 1c 0f 83 bc 4c ef 06 3d cb 20 14 bc
       0.012133455 -0.015998416 0.032943055 -0.009041022
000140 3c 33 fe 3b 24 30 4d 3c 5b ec 9f bb c3 96 22 bc
       0.0077575725 0.012523685 -0.0048804707 -0.00992364
000150 d2 86 02 bd dd 46 71 3b 36 b4 49 bc 7e 65 82 bc
       -0.031866856 0.003681592 -0.012311032 -0.015917536
000160 28 46 20 3d d4 19 e4 3c 42 88 61 bc c6 9e 0f bd
       0.039129406 0.027844347 -0.013765397 -0.035063528
000170 5f 0c 2a bc 97 e0 55 3b d2 d7 b1 3b 9d 15 89 bc
       -0.010378926 0.0032635087 0.005427339 -0.016733939
000180 11 d5 a5 3c 0c a3 55 bc 0b 4f 95 bc 0f d7 e9 bc
       0.0202432 -0.013039362 -0.018226167 -0.02854493
000190 ef 53 1d bb d9 19 8e 3c 01 80 b5 bc 10 13 90 3c
       -0.0024006327 0.01734631 -0.022155764 0.017587215
0001a0 7b 08 15 bd 78 c0 83 3c fa 79 ff bc 29 f2 82 bc
       -0.03638504 0.016082987 -0.031186093 -0.015984612
0001b0 f9 ce 0d bd b1 78 24 3d e5 d8 f0 3c ee 30 20 3d
       -0.034621213 0.040154163 0.029400298 0.039109163
0001c0 07 f9 99 39 bc 6a 96 bc 18 66 09 bd aa 1f e4 3a
       0.00029367974 -0.018361442 -0.03354463 0.0017404456
0001d0 c8 b5 de bc cd 3e a2 3b f7 0f 5a bc 99 df 21 3d
       -0.02718629 0.004951334 -0.01330947 0.03951988
0001e0 57 3e dc bc 3f b2 01 bd 8b e7 db bc 10 91 fa bc
       -0.026885195 -0.03166413 -0.026843807 -0.03058675
0001f0 2a 71 54 3c 93 35 16 bd 25 65 da 3c a1 f5 a5 bc
       0.012966434 -0.036672186 0.026659558 -0.020258727
000200 dc 14 d3 bc 20 cc d3 3c ed e1 d5 bc c8 ca 4b 3c
       -0.025766782 0.02585417 -0.026108706 0.012438484
000210 94 75 0e 3d ae ba 33 3c 0f ae 0d 3d c3 03 fa bb
       0.0347801 0.010969801 0.034589823 -0.007629843
000220 97 63 f6 bc 3f 03 cf 3c 0e 0a 9d bb 54 75 09 ba
       -0.030076785 0.025270103 -0.0047924584 -0.00052436185
000230 a4 6d f2 3c 60 e1 31 3d 81 7e c9 3c 9f d9 39 3d
       0.029593296 0.043427825 0.024596455 0.045373555
000240 87 63 c4 bb 87 b5 2d 3d b9 92 2e 3d d7 40 05 bc
       -0.00599331 0.042409446 0.042620394 -0.008133135
000250 df 12 c6 3b ac a5 c7 bc 99 e6 fd bb 22 36 67 3c
       0.00604473 -0.02437099 -0.0077484366 0.014112027
000260 20 50 12 bd b6 2d 42 3c fb 5f 04 3d 67 38 9d bc
       -0.035720944 0.011851719 0.032318097 -0.019191934
000270 ba 3e d3 bc 4b 7c c0 bb b3 d0 c8 3c b9 20 0b 3c
       -0.025786746 -0.005874192 0.024513578 0.008491688
000280 57 76 2b 3d 54 f7 0c 3d d4 1d 92 3b b0 e4 2e bc
       0.041860905 0.034415558 0.004459122 -0.010674641
000290 9f 85 1f bd 28 b9 19 3c 7f a1 c4 3c b6 93 e9 bc
       -0.03894579 0.009382524 0.024002789 -0.028512817
0002a0 e2 63 aa 3c 70 02 7b bb b4 ea b4 3c 7e 1b 48 3b
       0.020799581 -0.0038301013 0.022084571 0.0030533965
0002b0 74 b4 a8 3c b6 ea 21 bd e9 e7 2e 3c 9a 12 f9 3c
       0.02059386 -0.03953048 0.010675409 0.030404378
0002c0 c4 a2 c2 3c ce c9 ad 3c 67 b1 4b 3c 4c ad 84 3c
       0.023759253 0.021214392 0.012432433 0.016195916
0002d0 13 22 40 bc d4 c9 71 3b 41 18 3a 3d 56 5d 4b 3c
       -0.011726874 0.003689398 0.045433287 0.01241239
0002e0 49 47 24 3d 00 47 a2 3c 28 7b 24 3d 12 bc a3 3c
       0.040107045 0.019809246 0.040156513 0.01998714
0002f0 c9 07 f8 3b 5e 8b 7c 3c 42 10 2a 3d a5 0c 2f bd
       0.0075692874 0.015414087 0.04151941 -0.04273667
000300 6f d1 dd 3c 80 58 7e bb c5 73 d2 bb a9 75 8d bc
       0.027077405 -0.0038810074 -0.006422492 -0.017268019
000310 a1 72 7a 3b 65 4f ce 3c 22 0d 08 3d 03 3e dc 3c
       0.0038215297 0.025184343 0.03321565 0.026885038
000320 6e f0 0c 3d 12 c7 36 3d e2 0a 8b bc 65 81 9c bb
       0.03440898 0.044623442 -0.016972963 -0.004776167
000330 8e f4 70 3c 08 4b 7f 3b cc e1 c4 3c b1 f5 ef bb
       0.014706744 0.0038954634 0.02403345 -0.00732299
000340 8b d7 4d 3d 8b 55 ac bc 46 9a 99 bb 0b 5d 1e bb
       0.050254386 -0.021036884 -0.0046875803 -0.0024164345
000350 12 c4 dd 3c ad b1 86 bc 26 31 44 3d c2 93 92 3b
       0.027071033 -0.016442144 0.047898434 0.0044731805
000360 b1 19 67 3b 16 53 11 3c 79 5b e7 3b 93 57 7b 3c
       0.0035263116 0.008869907 0.007060465 0.015340704
000370 7c b8 19 bd 16 40 a1 bc 9b 17 f4 bc 69 8f 2a 3d
       -0.037529454 -0.019683879 -0.029796412 0.041640673
000380 1f 8a b0 bc fb c5 68 3c d1 22 fd 3c cf 21 bd bc
       -0.021550236 0.0142073585 0.03090039 -0.02308741
000390 76 02 04 3d f7 59 13 bd 80 5e d7 b9 d6 cc 6f 3c
       0.03222891 -0.03597447 -0.00041078404 0.014636239
0003a0 fa 3d 01 bd ba 44 fa bc 04 91 08 3d 4b 5d 02 3c
       -0.031553246 -0.03055035 0.033341423 0.007956813
0003b0 ce 6b 29 3d d5 0c 6b 3b 27 1a 49 3c e7 6a 96 3c
       0.041362576 0.0035865803 0.012274302 0.018361522
0003c0 45 b1 b6 3c 38 18 72 3c fa 5b b4 3c b5 42 3d bb
       0.022301326 0.014776282 0.022016514 -0.0028878872
0003d0 ab 74 9e bc a5 33 6b 3c d2 ae 89 3c 25 fe a5 bb
       -0.019342741 0.014355575 0.016806994 -0.005065697
0003e0 86 e9 20 3c 0e 4b 24 3d 32 af 30 3d 32 da 32 3c
       0.009821301 0.04011064 0.04313583 0.01091628
0003f0 45 3b 0a bd 98 13 a0 3c 59 79 2a 3c a0 ff 40 3b
       -0.03374793 0.019540593 0.010404908 0.002944924

res_blocks.1.conv.weight f4 [64, 64, 3, 3]
000000 69 1a 10 bd e1 22 23 bd ed 4d 0f bd 5c e5 3e bd
       -0.035181437 -0.039828185 -0.034986425 -0.046605453
000010 78 71 f7 3c aa b8 66 bc 1e c9 bc bc 1e f2 08 bd
       0.030205473 -0.014082113 -0.023045119 -0.033434026
000020 ad a6 9c bc a1 7d a2 3c bf 9c 4d 3c 9c 93 17 3d
       -0.019122446 0.019835295 0.012549578 0.037006006
000030 bc fd fe bc d4 01 dc 3c 12 6b 96 3c 10 d7 b4 bc
       -0.03112685 0.02685634 0.018361602 -0.022075206
000040 7c ff 1f bd 1a 8e f4 3a cc 16 f0 bc 43 73 67 3c
       -0.03906201 0.0018658072 -0.029307745 0.014126602
000050 27 c3 bd bb 0e 21 47 ba b4 71 d4 3b c8 be 28 3d
       -0.0057910862 -0.0007596173 0.006483281 0.04119757
000060 e3 73 0f 3c 02 80 ec bc ec 89 9e 3c 9e 3c bb bb
       0.008755657 -0.028869633 0.019352876 -0.0057140132
000070 cc 90 ef 3c 39 81 23 3d 23 1c 0f 3c 9c c7 d5 bc
       0.02924385 0.03991816 0.008734736 -0.026096158
000080 75 d8 a9 bc 5e e3 1e 3d f3 84 95 3c 49 94 b6 3c
       -0.020733098 0.038791053 0.018251872 0.022287505
000090 e2 55 66 bc 5f 64 3a 3d 4c 6e 13 3d 48 4f 5b 3d
       -0.014058562 0.045505878 0.03599386 0.053542405
0000a0 54 2a e8 bc 59 78 9f bc e7 c9 c1 3c ba 0f 39 3c
       -0.028340496 -0.019466566 0.023655845 0.011295253
0000b0 6e 1f e8 bb f1 ec c4 3b 13 85 fc bc 3d c2 11 3d
       -0.007083825 0.006009691 -0.030825173 0.03558563
0000c0 a2 97 3b bc 2e b9 14 3d bb 62 86 bc 2c fc 5e ba
       -0.011449726 0.036309414 -0.0164045 -0.00085062045
0000d0 3f 16 c9 bc ed 07 da 3c 07 9f a0 bc 3d 2c 3a 3d
       -0.02454674 0.026615107 -0.01960708 0.045452345
0000e0 d4 43 64 3c 6b 43 a1 bc d2 18 e9 bc f8 30 e7 3c
       0.013932187 -0.019685468 -0.028454218 0.028221592
0000f0 63 af 12 3d 69 6c 70 3c c9 3d be 3c 35 e6 cc bc
       0.035811793 0.0146742845 0.02322282 -0.025012115
000100 25 19 46 3c 12 23 19 3d f2 5c 23 3c b9 1d 84 3b
       0.012090956 0.03738696 0.00997089 0.0040318635
000110 6e 99 db 3c 17 6c 76 bb c3 f1 be 3b 99 fe 58 bc
       0.02680656 -0.0037601048 0.00582716 -0.013244295
000120 45 18 31 3b 60 fa 16 bd 96 64 22 bd 72 42 e4 bc
       0.0027022522 -0.03685987 -0.039646707 -0.027863715
000130 96 21 1d bd 2f f9 e3 bc 6d 12 73 3c 03 a7 c1 3b
       -0.03836211 -0.027828781 0.014835936 0.005909802
000140 55 6f 43 3c a0 f4 32 3d e6 83 a8 bc d7 c7 a6 bc
       0.011928399 0.043690324 -0.020570707 -0.020358963
000150 0c 24 08 3d 99 69 ac 3c 32 32 0c 3d 44 97 30 3d
       0.033237502 0.021046447 0.034227557 0.04311301
000160 35 31 0c 3c e5 31 0a bd d7 dd ba bc 4a b8 89 3b
       0.008556654 -0.03373899 -0.02281086 0.004202877
000170 93 60 6f 3c b5 c8 00 bd 94 cf f8 bc cb 47 43 3c
       0.014610427 -0.03144141 -0.030372418 0.011918972
000180 58 18 6d bb 88 47 56 bc 23 a2 c6 bc a5 15 c7 bc
       -0.003617784 -0.013078578 -0.024247235 -0.024302313
000190 53 47 bb bc e7 3e 0a 3d 9c e8 e1 bb 86 cf bb bc
       -0.022861158 0.033751395 -0.0068941843 -0.022926103
0001a0 45 34 04 bc 92 35 26 3d 63 ba cc bb ba 87 88 bc
       -0.008069103 0.040578432 -0.006247805 -0.016666282
0001b0 b7 c5 39 3c 98 f9 19 bc 16 79 40 bc fd 14 e0 bc
       0.011338643 -0.009397887 -0.011747619 -0.027353758
0001c0 e4 0f 7d bb 98 24 e1 3c f9 9a 13 3d 51 2c 87 bc
       -0.0038614208 0.02748327 0.036036465 -0.016500624
0001d0 4e a9 38 3d 5a 65 0c 3d 40 d3 bd bc 75 78 38 3d
       0.045083337 0.034276344 -0.02317202 0.04503675
0001e0 18 e1 1e 3d 47 35 84 ba da bd bd 3c 5a 74 35 3b
       0.038788885 -0.0010086679 0.023161817 0.002768776
0001f0 c0 db 19 3d 43 11 35 3d 7e e3 74 bb 05 71 94 bc
       0.037563086 0.044205915 -0.0037367041 -0.018120298
000200 36 dc 02 3d 3d cf 6b 3b 8c 9c 32 3d ee e6 85 bb
       0.03194829 0.0035981678 0.043606326 -0.004086367
000210 42 1f ff 3b be 0e 82 3c 39 9e b0 3c d0 5c f6 bb
       0.0077857086 0.01587617 0.021559821 -0.0075183883
000220 64 a7 32 bc 39 73 fc 3a 9b f0 49 3d 09 39 21 3d
       -0.010904167 0.0019260413 0.049301725 0.039361034
000230 5c 48 af bc 96 d8 32 bb 66 5d 2e 3d 6e e8 3f 3c
       -0.021396808 -0.002728974 0.04256954 0.01171313
000240 fa e1 12 3d 19 a8 c2 3c be c3 39 3d c4 d2 a8 bc
       0.03586004 0.023761796 0.04535269 -0.020608313
000250 e9 6d a4 3c 9b 8a 00 3d c6 6c 41 3d 22 b4 a4 3b
       0.02007194 0.031382184 0.047222875 0.0050263563
000260 da 4c a2 3c ad e0 9c bc 89 74 36 3d c1 b9 09 3d
       0.019812036 -0.019150103 0.04454473 0.033624414
000270 e8 8b 28 3d 1f 2f 3a 3d c8 b4 79 bc 90 0a ac 3c
       0.04114905 0.045455094 -0.0152408555 0.02100113
000280 7a 17 d0 bb d2 8f 24 3d 05 eb 1d 3d 87 3c 0e 3d
       -0.006350455 0.04017622 0.03855421 0.034725692
000290 57 8f 5b 3c 2f 57 2b 3d 07 db 7f bc 92 6d 12 bc
       0.013400874 0.04183119 -0.015616185 -0.008937256
0002a0 af f9 88 3c dc 20 c5 3b e4 8d 78 3c 35 08 a4 3c
       0.01672062 0.00601588 0.015170548 0.020023445
0002b0 80 ff c1 3c fa 88 45 3d 65 3a 4a 3c 41 88 35 bb
       0.023681402 0.048226334 0.012343024 -0.0027699622
0002c0 09 02 84 3c 54 0e c6 bc 51 62 fa 3c a3 7a 20 3c
       0.016114252 -0.024176754 0.030564459 0.009794864
0002d0 c2 b2 16 3d be af d8 3c f9 55 c8 3c 09 c8 63 3c
       0.03679157 0.026450988 0.024455057 0.013902673
0002e0 e3 a9 dc bc 5d e7 8f bc 39 ec ea bc bb 09 d4 bc
       -0.026936477 -0.017566377 -0.028677093 -0.025883546
0002f0 07 b2 99 3c b9 42 81 3c 98 6e e1 3c 9b 86 4f 3d
       0.018761648 0.015778886 0.027518556 0.05066548
000300 89 7d c6 3c 2f 77 b3 bc 1d 64 d3 bc 4f a4 c6 bc
       0.024229782 -0.021907417 -0.025804574 -0.02424827
000310 cb 32 ee 3c 37 01 03 3d 56 68 68 bc 76 69 95 bc
       0.029076954 0.03198358 -0.014185032 -0.018238764
000320 40 96 3a 3d a5 5d 8c bc 99 82 22 3d e8 f3 e4 3c
       0.045553446 -0.017134497 0.03967533 0.027948335
000330 39 e0 2e bc 37 72 19 bc 4f d5 21 3d 41 1d 19 bd
       -0.010673576 -0.00936561 0.039510068 -0.037381414
000340 6e be 03 bd 2e d8 c7 bc 4f 3a 25 3d 4e 1e 02 3d
       -0.03216403 -0.024395075 0.04033881 0.031767182
000350 94 ee 4b 3c 4e 70 62 3c 82 27 9a bc 38 10 74 3c
       0.012447018 0.013820721 -0.018817667 0.014896445
000360 bb 5b ef bc 6c 6b 88 3c 31 5f dd 3c 3a 31 7c 3b
       -0.029218545 0.016652785 0.02702293 0.003848149
000370 55 7b 91 3c 6e 7c 33 bc b3 84 31 3d b9 06 2c 3c
       0.017759005 -0.010954959 0.043339442 0.01049965
000380 5d 1d 4e 3d 19 c2 95 3c 62 f9 86 3c 3e 22 c8 bc
       0.05032097 0.01828103 0.016476337 -0.02443039
000390 b4 8b ee 3c e1 d7 2c bc f1 30 99 bb 3d 4b 1c 3d
       0.02911935 -0.010549516 -0.0046750237 0.03815769
0003a0 8d 9d 38 3c 5e d8 43 3d c9 0b 72 bc 26 21 3d 3d
       0.011268032 0.047813766 -0.014773318 0.04617419
0003b0 84 bb 36 bc 27 85 33 bc 13 03 52 3d 0a a7 04 bc
       -0.011153106 -0.010957039 0.051272463 -0.008096466
0003c0 08 1c 31 3d 06 64 bc 3c 4b 86 75 3c c6 a3 4e 3d
       0.043239623 0.022996914 0.014985631 0.050449155
0003d0 ef bf c5 3c 78 bb 99 3b ea 0e f1 bb fa de 39 39
       0.024139373 0.0046915375 -0.007356514 0.0001772604
0003e0 ef 52 2f 3c ab 5e a1 3c 97 81 0e 3d b5 ed 7b bc
       0.010700925 0.019698462 0.034791555 -0.015376498
0003f0 73 be 26 3c d6 30 0f bc 07 5a 07 bd 8a 18 31 3d
       0.010177243 -0.008739671 -0.03304484 0.043236293

res_blocks.2.conv.weight f4 [64, 64, 3, 3]
000000 e3 4f 43 bc 30 3e 04 3d 0f ae 0c bd 8d 95 bf bb
       -0.011920902 0.03228587 -0.034345683 -0.0058466853
000010 eb 29 00 3d fe ea c2 bc 59 41 c6 ba 08 27 36 3d
       0.031289976 -0.023793694 -0.0015125676 0.044470817
000020 57 68 41 3d b4 61 70 bc 02 a9 05 3c ee 2b cd bc
       0.047218647 -0.014671732 0.00815797 -0.025045361
000030 52 98 03 bd 5d d2 1b bc 7c 65 c0 bc 85 f0 d5 3b
       -0.032127686 -0.009510604 -0.023485892 0.0065289163
000040 13 80 b5 bb 9c 65 1d 3d 63 d8 9c 3b d2 78 07 3c
       -0.0055389493 0.03842698 0.0047865375 0.008268552
000050 0e 1b da bc 18 37 97 bb 28 55 04 bd 62 2a c5 3c
       -0.026624229 -0.004614722 -0.032307774 0.024068061
000060 20 46 1d 3d a9 1f 91 bc 76 27 d2 bc a4 60 a4 bc
       0.038396955 -0.017715292 -0.025653582 -0.020065613
000070 f1 64 00 3d 9b da 19 3d d7 1f 98 bb 5b 1f ba bb
       0.031346265 0.037561994 -0.0046424675 -0.0056800074
000080 da a0 49 3d a7 e4 f8 bc 30 fb b9 3c 28 c3 4b 3c
       0.049225666 -0.030382467 0.022702783 0.012436666
000090 74 b4 0c bd d0 7d 84 3c 17 8e 16 bd 05 b1 7e b8
       -0.03435178 0.016173273 -0.0367566 -6.072318e-05
0000a0 e3 8c 87 3c c3 ef f2 bb 7e 67 da 3b 7d ef b4 3c
       0.016546672 -0.0074138357 0.0066651693 0.022086853
0000b0 e8 fc c2 3c 22 ef 0f 3c 81 ea 4b 3b 39 f3 a1 bc
       0.023802236 0.008785041 0.0031115117 -0.019769298
0000c0 4d 51 2d 3d 70 48 35 3d c9 94 9d 3b c1 79 39 3d
       0.042313863 0.044258535 0.0048089963 0.04528213
0000d0 59 7d 21 3d 4a e1 fe 3b 38 53 b0 bc 37 99 8f bc
       0.03942618 0.0077783214 -0.021524057 -0.017529113
0000e0 1d ed 4d 3b 5e 88 35 3d 4a a1 2d 3d 80 90 c6 bb
       0.0031421848 0.044319503 0.042390145 -0.006059706
0000f0 67 d1 1f 3d 44 02 9f 3c 78 b9 69 bc c8 1a 91 bc
       0.03901806 0.01941026 -0.014265411 -0.017712966
000100 16 65 9f 3c f4 23 01 3d 77 1f 01 3a b7 fd 13 3d
       0.019457381 0.03152843 0.0004925648 0.036130633
000110 74 d0 bb 3b 50 2f 05 3d 49 8c c8 bc 3c cf 6f 3c
       0.0057316367 0.032515824 -0.024480956 0.014636811
000120 b9 3e a7 3c b1 a0 5f 3c 71 a4 27 bd c5 c5 0b bd
       0.02041565 0.013649152 -0.040928308 -0.034124155
000130 cc a4 f1 bc f9 a8 b1 bc 81 8e e4 b9 f4 6b 0f bd
       -0.029497527 -0.021687018 -0.00043593723 -0.03501506
000140 75 0c 06 bd 5b d6 01 bc 08 2e 91 bc 3d 90 3b 3d
       -0.032726724 -0.0079246415 -0.017722145 0.045791853
000150 2b 10 24 3c 87 6e 0f 3d 4d 66 b1 bb f0 4e f5 bc
       0.01001362 0.035017516 -0.0054138065 -0.029944867
000160 62 f9 8e bc bf df a3 bc 61 b0 04 bc 7b 90 1e bd
       -0.0174529 -0.020004151 -0.008098693 -0.038712006
000170 56 b9 18 bc 1a bb f6 3b 13 c2 1b bd ec 5d 5c 3c
       -0.009321531 0.0075296285 -0.03802688 0.013450127
000180 98 c8 fa b9 bd f7 0d 3d 3d 16 77 3c db 44 d1 bc
       -0.0004783317 0.03466009 0.015080986 -0.025545528
000190 b0 31 66 3c d7 fe 7c 3c d0 73 af 3c 51 20 a4 3c
       0.014049932 0.015441618 0.021417528 0.02003494
0001a0 c2 e1 12 3d d6 19 48 3d f3 7a 69 3c d3 00 47 3d
       0.03585983 0.048852764 0.014250505 0.04858477
0001b0 4a c5 fc 3c 08 97 37 3d c9 b5 cb bc 29 ec ca 3c
       0.030855794 0.04482177 -0.024866955 0.024770813
0001c0 0d 93 89 3b 53 f9 5d bb b7 b9 6f 3b 23 2e f1 bc
       0.004198438 -0.0033870533 0.00365792 -0.029440945
0001d0 1d cf 0b 3c 50 97 3c bb 3d 38 f7 3c bb 65 22 3d
       0.008533266 -0.0028776713 0.030178184 0.0396478
0001e0 a4 b4 fc 3c a3 1f 71 3c 97 19 c5 bc 48 f1 8e bc
       0.030847855 0.014717015 -0.024060054 -0.017449036
0001f0 7a 4e 15 bd 89 9e 29 3d 06 c6 34 3d 5c fa d2 3c
       -0.036451794 0.041410957 0.044134162 0.025754146
000200 63 34 46 bc cd dc 10 3c cd f5 ca 3b 91 ee a9 3a
       -0.012097451 0.0088417055 0.0061938525 0.0012964775
000210 7b 55 0d 3d e9 fc de bc ed 07 f7 bc 2f 66 e6 bc
       0.03450535 -0.027220206 -0.030155146 -0.028124897
000220 ac 25 56 3d d5 e3 09 3d 50 96 80 3c 24 7c 09 bc
       0.05228202 0.033664543 0.015696675 -0.008391414
000230 d5 58 93 bc e8 c7 af bc 81 0a 51 bc 29 f9 43 3d
       -0.017986694 -0.021457627 -0.012758852 0.04784504
000240 6d cc 00 3d e9 f4 66 3c 90 9b 31 3c d1 a2 32 3d
       0.031444956 0.014096477 0.010840312 0.043612305
000250 a8 c7 1d 3d 25 4b d6 3c d0 e6 ff 3c d3 38 50 3c
       0.038520485 0.026158879 0.03123799 0.01270886
000260 45 04 74 bc c7 24 cd 3c 76 e4 e3 bc 7c 72 0f 3c
       -0.014893596 0.02504195 -0.0278189 0.008755323
000270 1a ac 2e bc 16 18 07 bc 96 16 e2 bc 6d ff 69 3b
       -0.010661149 -0.008245489 -0.02759866 0.0035705224
000280 6a 6f d5 bb 14 36 d3 3c ff d2 68 bb 42 0e 1c 3d
       -0.0065135257 0.025782622 -0.0035526154 0.038099535
000290 63 47 7f 3b 2e eb 23 3d 71 fb 0a 3c e9 68 42 3d
       0.0038952462 0.040019207 0.0084828 0.04746333
0002a0 97 ae 83 bc df 10 33 bc 3d 0e 33 3d 34 ac fe bc
       -0.016074462 -0.010929315 0.04371475 -0.031087972
0002b0 0d 42 90 3b 44 c6 10 bb a9 25 b0 3c 65 ad 95 bc
       0.004402405 -0.0022090832 0.021502333 -0.018271158
0002c0 21 3a 2f 3d 81 b7 97 3b 41 20 a6 bc 5b 2c b2 3b
       0.042780045 0.0046300297 -0.020279052 0.0054374165
0002d0 b1 d0 4f 3d 1a 5e be 3c ab e9 a4 3c 58 40 d3 3c
       0.050736133 0.02323823 0.020130953 0.025787517
0002e0 30 18 54 3a db eb 49 3b 91 eb bf 3c 20 df 08 3c
       0.00080907624 0.0030810747 0.023427757 0.008353978
0002f0 89 72 bb 3c 3d b4 11 3d c6 8a e5 bc df cd 14 3d
       0.022881763 0.03557228 -0.028020274 0.036329146
000300 40 0b 11 3d 86 1e 92 bc ff 0f 2d 3d 5e c7 4a 3b
       0.03541112 -0.01783682 0.042251583 0.0030941586
000310 a1 9c d3 3b 83 58 19 bb 30 11 1b 3d 51 09 4f 3d
       0.0064578806 -0.0023398704 0.03785819 0.050545994
000320 d6 73 86 3c db 38 34 3d f4 5a 2a 3d d2 f0 39 3d
       0.016412657 0.043999534 0.041590646 0.04539568
000330 92 b1 ff 3c 48 2d 46 3d 83 e4 d9 3c 9a a6 27 bc
       0.031212602 0.048383027 0.02659822 -0.010232592
000340 59 03 b2 3b d1 11 0d bc 4c e4 92 bb 11 4a f0 3c
       0.005432528 -0.008610205 -0.0044827815 0.029332193
000350 b6 33 01 bb f7 37 9d bc b5 80 38 3d e1 aa 0c bd
       -0.001971466 -0.019191725 0.04504462 -0.03434265
000360 b7 04 a1 3c 6a 29 1d 3d c9 19 4e bc 99 a6 b6 3b
       0.019655569 0.038369574 -0.01257939 0.005574059
000370 83 ee 3f 3c 73 6a ed ba 0c 8d 09 bd 90 8f bb bc
       0.0117145805 -0.0018113389 -0.03358178 -0.022895604
000380 fc f2 ea 3c 71 bd 5f 3b 28 4d ac 3b 12 07 88 3c
       0.028680317 0.0034140015 0.005258221 0.016604934
000390 53 b5 4b 3d 5d 53 cf bc 63 91 41 ba c0 49 f8 3c
       0.04973347 -0.025308305 -0.000738403 0.030308604
0003a0 fb 79 b6 bc aa 78 01 bd c1 4a 18 3d 55 a3 2b 3c
       -0.022274962 -0.031609215 0.037180666 0.010475953
0003b0 af 15 c9 bc c9 bb b3 bc b1 86 29 3d 7e 09 14 3b
       -0.024546472 -0.021940129 0.041388217 0.0022588666
0003c0 5f 18 d4 3c 1c 1b b2 bc 44 d8 d5 bc b7 fd ba 3c
       0.025890527 -0.021741442 -0.0261041 0.022826059
0003d0 c7 f4 eb bc bd 96 1c 3c e7 c1 83 bc 2e cc cd bb
       -0.028803242 0.009557423 -0.01608367 -0.0062804436
0003e0 78 b3 dc 3b 18 8a 73 3c af f7 a0 3b 8a cd ec 3b
       0.0067352615 0.014864467 0.0049123387 0.0072266506
0003f0 c1 f7 92 bc 58 05 10 3d aa d5 3d 3c 7b a9 04 3d
       -0.017940404 0.035161346 0.011586586 0.03238819

global_pool.0.weight f4 [64, 64, 3, 3]
000000 96 59 a5 3b cd 25 05 bd 1d dd fe 3c 50 cf 9c 3c
       0.00504608 -0.032506753 0.031111294 0.019141823
000010 9d 10 b0 bc ad bc 4d 3c c4 36 6a bb bc 98 07 3d
       -0.021492297 0.012557191 -0.003573821 0.033104643
000020 c6 98 e1 3b 9e 06 21 3c 48 8b 0e bc 02 07 fc 3c
       0.006884667 0.009828238 -0.008700199 0.03076506
000030 95 88 53 3b 4b dc 07 bd e1 d3 41 bc 36 db 35 3d
       0.0032277454 -0.033169072 -0.011830301 0.04439851
000040 21 e1 9e ba e3 07 e4 3c f4 a5 0f 3d 05 45 62 bc
       -0.0012121537 0.027835792 0.035070375 -0.013810401
000050 64 e4 1e 3d 37 7f 33 bd 63 b0 1d bd 8a f2 26 bd
       0.03879203 -0.043822493 -0.038498294 -0.040758647
000060 77 c0 ae bb 6b 69 4f bc b9 f1 49 bc fd 04 05 3d
       -0.005333002 -0.012659411 -0.012325698 0.03247546
000070 89 90 e6 bc f3 bd bd bc 91 21 f5 bc 40 e0 3c bd
       -0.028145092 -0.023161864 -0.029923232 -0.0461123
000080 01 1b 73 3c 61 9a 8d bc 02 50 6e bc f0 af 48 bb
       0.014837981 -0.017285528 -0.014545443 -0.0030622445
000090 9d 3a 7d 3b ee 7b ad bc a6 10 55 bc d5 1d a0 3a
       0.0038639673 -0.021177258 -0.013004458 0.0012215922
0000a0 6e e2 38 bd c7 a4 c5 bc c9 f4 f6 bc c0 fd 54 3c
       -0.045137815 -0.024126424 -0.03014602 0.012999952
0000b0 5b 2f dc 3c f4 3d 55 3c 67 49 0c 3d c5 25 06 bd
       0.02687805 0.013015259 0.03424969 -0.032750864
0000c0 0f d7 be bc fa de 06 bd 6e 04 26 bd 0a b4 3a bd
       -0.023295907 -0.03292749 -0.04053157 -0.045581855
0000d0 4c e5 84 bc ce c6 96 39 8e 92 93 bb 90 36 90 3c
       -0.016222619 0.0002875835 -0.0045035547 0.017604142
0000e0 68 86 1b bd 14 6b 13 bc 66 a8 de 3c 78 a6 e7 3c
       -0.037969977 -0.008997697 0.027179908 0.02827762
0000f0 7c ef 01 bd 56 fb 2c bd 56 9f 01 3d e0 36 d5 bc
       -0.03172253 -0.04223188 0.031646095 -0.026027143
000100 2a ca 06 3d 51 fb bb 3c 5f 6e bb 3c 0e bb 02 3d
       0.032907642 0.022946985 0.022879777 0.03191667
000110 13 5b 23 3c b6 a1 ce 3c ba 24 ac 39 04 0e 13 bd
       0.009970444 0.025223594 0.0003283376 -0.03590204
000120 22 91 fc 39 a1 43 0f bd 2c 8a ba 3c ac 26 03 3c
       0.00048173318 -0.034976605 0.022770964 0.008004826
000130 37 f5 4a bb b5 e9 b7 3c ab 12 b2 3b a1 1d 19 3d
       -0.0030968913 0.022450307 0.0054343543 0.037381772
000140 eb 84 c9 bc cf 36 2e bd 7a 35 ff 3a a5 99 05 3d
       -0.024599513 -0.04253274 0.0019470893 0.03261723
000150 15 e0 b7 bb f5 1f c8 3a 70 54 91 b9 85 71 bd bc
       -0.0056114295 0.0015268313 -0.00027719466 -0.02312542
000160 74 7e 7d 3c 87 8d 56 3c 30 5e f7 bc 68 0a 02 bd
       0.015472043 0.013095266 -0.03019628 -0.031748205
000170 c2 79 2c bc e9 88 0c 3d de ef 18 bd ee 4e fe 3c
       -0.010527076 0.034310255 -0.03733813 0.031043496
000180 9e 8d fc bc b1 e1 f6 3c b8 0c 1a 3d 74 04 18 3c
       -0.030829247 0.030136915 0.037609786 0.009278405
000190 3a 4b 02 bd 2b fc 17 bc 0c a2 46 3b 7b 00 a3 3c
       -0.031810023 -0.00927643 0.003030899 0.01989769
0001a0 49 9f 81 bb 83 73 2a 3d 24 87 03 bd ee 3d 9b bc
       -0.003955756 0.041614067 -0.032111302 -0.018950429
0001b0 20 0a 09 bd 87 ef 97 3b e4 ae e5 bb d0 a0 c1 bc
       -0.03345692 0.004636708 -0.007009374 -0.023636252
0001c0 3e ae 5a 3c d8 49 7f bc c8 47 24 bd 7f f9 a4 3b
       0.013347207 -0.015581571 -0.04010752 0.005034625
0001d0 cd 77 56 3c 60 46 0b 3d e7 42 28 bd 3e 32 06 3c
       0.013090086 0.03400266 -0.041079428 0.00819069
0001e0 c3 36 05 bd 2b 34 62 3c 10 c7 65 bc 34 66 04 3c
       -0.032522928 0.013806383 -0.014024511 0.008081008
0001f0 85 38 36 bd e6 01 10 bc df a4 38 bd cd 4d 69 3b
       -0.044487495 -0.008789515 -0.04507911 0.0035599351
000200 b8 cf f4 3c 13 dc 90 bc dc 73 8d 3b 37 e4 93 bc
       0.029884204 -0.017683065 0.00431679 -0.018053157
000210 3e 9f 03 3d 3f ab c8 3c 08 29 67 bc 70 c2 96 bb
       0.032134287 0.024495719 -0.014108904 -0.0046008155
000220 c7 0a c9 3b a9 87 01 bd df 15 dc bc 40 54 99 3c
       0.006135318 -0.031623516 -0.026865898 0.018716931
000230 f8 a4 88 bc 86 11 1f 3c c9 8a 58 3c ac c6 3d bd
       -0.016680226 0.009708768 0.013216683 -0.046332046
000240 a1 40 11 3d c8 30 8f 3c 6f 40 ae 3c b5 52 f2 3c
       0.035462026 0.017479315 0.021270959 0.029580453
000250 3f 02 28 bd 24 ad 8a bb 4f 96 ac 3b 6c c8 06 bd
       -0.041017767 -0.0042320658 0.0052669416 -0.03290598
000260 3f e0 d8 bc af 92 68 3c 07 a0 0e 3d eb 56 5c 3c
       -0.026474116 0.014195128 0.034820583 0.013448457
000270 68 b6 39 3c 56 b7 fb 3c ef 7f 3e bd fa 8a f1 bc
       0.011334993 0.03072707 -0.046508726 -0.029485215
000280 cf 55 a7 3c 7e df 17 bd ba c6 45 3b f8 32 ee bb
       0.020426659 -0.037078373 0.0030178265 -0.0072692595
000290 df f5 8d bb 54 5f 4d 3c 41 b4 ee bc 35 df d6 bc
       -0.0043322886 0.012534935 -0.029138686 -0.02622948
0002a0 17 18 18 bd 2c 39 26 bd 79 7e 0e bd d1 99 37 bc
       -0.03713235 -0.040581867 -0.034788582 -0.011206106
0002b0 74 54 51 bc 2d f6 7f bc 32 ab 13 bd d6 25 1a bd
       -0.012776483 -0.015622658 -0.036051936 -0.03763374
0002c0 f1 79 8d bc 13 32 23 bd cd 61 a1 bb 6d c7 c9 bc
       -0.01727006 -0.039842676 -0.004924989 -0.024631226
0002d0 c5 0a 16 bc 39 82 36 bc 5a 8c 7e 3b 32 b0 ba bc
       -0.009157841 -0.011139446 0.003884098 -0.022789095
0002e0 45 94 ec 3c 41 26 14 bd d0 9e 0e 3d e9 2d 00 3c
       0.028879294 -0.036169294 0.034819424 0.007823446
0002f0 ed 66 fa 3c ff e2 0c 3d 56 54 1f 3d eb 89 ef bc
       0.030566657 0.034396168 0.03889879 -0.02924057
000300 ae d9 a9 ba 01 b7 41 bb 45 1b 97 3c 59 64 9c bc
       -0.001295855 -0.0029558542 0.01844562 -0.019090818
000310 ef 06 2b 3c 7b ea 8c 3c 65 f3 4d 3c ea c3 ec 3c
       0.010438665 0.017201653 0.012570237 0.028902013
000320 2e 10 f4 3b 58 ba 27 bd e2 85 25 3d fa 60 e1 3c
       0.007448218 -0.040949196 0.040410884 0.027512062
000330 14 56 de 3b c1 85 fb 3c 87 21 9e 3c 5e 13 3a bc
       0.0067851637 0.030703427 0.019303096 -0.011357157
000340 b3 f3 e4 3c e7 31 bd 3c fc 9f b3 bc 03 90 54 3c
       0.027948236 0.023095084 -0.021926872 0.012973788
000350 d5 74 c7 ba 1c 62 10 bd 42 0d a3 bc f1 b0 d0 3c
       -0.0015217314 -0.035249814 -0.019903783 0.025474997
000360 36 45 d4 3c c2 38 c1 3c ba ec a6 3b 53 22 c2 3c
       0.025911909 0.023586635 0.005094138 0.023698008
000370 26 fc 96 3c ef 9b b8 3c 94 cf 93 bc af 33 c3 3c
       0.01843078 0.022535292 -0.018043317 0.023828356
000380 e8 6d 6e bc dd dc a7 bc 92 e0 da bc 4c a9 75 bc
       -0.014552571 -0.020491058 -0.026718412 -0.014993977
000390 ed fb fc 3c 88 47 bd 3b b1 35 96 3c b4 fb 47 3c
       0.030881846 0.0057763495 0.018336149 0.012206007
0003a0 eb d1 a7 bc b9 87 df 3c b7 6f 41 3c 6e 7d e1 bc
       -0.020485839 0.027286397 0.01180642 -0.02752563
0003b0 e4 43 0b bd 3b 0e 9a bb 5c d9 f7 3b 4f 1c fd bb
       -0.034000292 -0.0047014034 0.007563753 -0.007724322
0003c0 00 a9 ca bc 91 23 67 bc 83 3a 41 bd aa 4f c8 bc
       -0.024738789 -0.014107601 -0.04717494 -0.02445205
0003d0 9c 6a 04 3c 7a 1d 6a bc 70 dc d5 3b 80 ac 90 3a
       0.008082058 -0.014289254 0.0065265223 0.0011037737
0003e0 7b f0 7b 3c 7e 35 40 bd e5 ae 17 bd f0 61 34 bd
       0.015377159 -0.046926014 -0.037032027 -0.044038713
0003f0 09 8e 04 3d 8c e5 2c 3c c7 50 c8 bc 28 43 a8 bb
       0.032362018 0.010552775 -0.02445258 -0.005134959

global_pool.0.bias f4 [64]
000000 9a 32 c7 bb d3 46 b6 bc 2b 85 28 3c 07 42 34 bd
       -0.00607903 -0.022250568 0.010285656 -0.04400828
000010 9d 34 1a 3c af af a8 bc 5a 7e a0 bc 4c a8 09 bd
       0.009411958 -0.020591585 -0.0195915 -0.033607766
000020 a4 83 11 3a 7d 1a 33 bd 13 35 d3 3c 66 82 e5 bc
       0.0005550927 -0.043726433 0.025782144 -0.02801628
000030 e8 89 90 3c ae 05 18 3b 5e b9 1c 3d b7 06 dd bc
       0.017643884 0.0023196745 0.038262717 -0.026980741
000040 3a 99 95 ba ea 57 7a bc a3 7a d3 3c 37 17 62 3c
       -0.0011413463 -0.015279749 0.025815314 0.01379948
000050 fd d5 1d bd ae f9 21 bd 0f 15 22 bd f1 c3 c7 3c
       -0.038534153 -0.039544754 -0.039570864 0.024385424
000060 4c b7 ae bb 4d 61 0b 3d 0d 12 26 bd 85 04 b1 3c
       -0.0053319093 0.03402834 -0.04054456 0.0216086
000070 83 39 19 3d c0 81 e4 3c 8b 98 aa 3c 15 e6 70 bc
       0.037408363 0.0278939 0.020824691 -0.014703293
000080 82 09 54 bc 20 09 d6 3c 05 15 4c 3c ae f5 3a bc
       -0.01294172 0.026127398 0.012456183 -0.011411114
000090 0e fd d2 ba ea ce 97 3b c8 7e 23 3d ff a5 99 3b
       -0.0016097145 0.0046328204 0.03991583 0.0046889777
0000a0 6f 84 ca 3b a5 02 44 3d e9 56 a5 3c ac e5 9f bc
       0.006180338 0.047854085 0.020183044 -0.019518696
0000b0 28 d7 8b 3c e4 75 42 bc 0f 1c 91 3c 30 86 1b bc
       0.017070368 -0.011868928 0.017713575 -0.009492442
0000c0 b2 be 39 3d 50 3e 8d bc 28 76 dc bb 56 c8 e8 bc
       0.045347877 -0.017241627 -0.0067279525 -0.02841584
0000d0 79 69 2a 3c 04 75 19 3d c2 73 23 3d a9 c3 2d 3c
       0.010401123 0.03746511 0.039905317 0.010605731
0000e0 6f 32 26 bd d8 d4 76 bb 94 5b 1c 3b e2 fe 8c bc
       -0.04057544 -0.0037663486 0.0023858296 -0.017211381
0000f0 47 0a 8b bb e8 a6 36 bd 35 26 65 3b 55 bf 8e 3b
       -0.0042431685 -0.044592768 0.00349654 0.0043563046

head.1.weight f4 [64]
000000 6e 76 7e 3f b5 93 7e 3f 6c 76 7e 3f 00 00 80 3f
       0.9939946 0.99444133 0.9939945 1.0
000010 9b 1c 7f 3f 55 e8 7a 3f 4b be 79 3f 00 00 80 3f
       0.99653023 0.9801076 0.9755599 1.0
000020 89 2b 78 3f 00 00 80 3f c6 4b 7e 3f 85 0b 71 3f
       0.9694143 1.0 0.9933437 0.941582
000030 00 00 80 3f 00 00 80 3f a6 d9 7a 3f 6d 76 7e 3f
       1.0 1.0 0.97988355 0.99399453
000040 2e b5 7f 3f 6c 76 7e 3f 00 00 80 3f b0 6b 80 3f
       0.99885833 0.9939945 1.0 1.0032864
000050 00 00 80 3f 00 00 80 3f f3 45 80 3f db b2 81 3f
       1.0 1.0 1.0021347 1.0132707
000060 b5 93 7e 3f c6 5b 76 3f b9 93 7e 3f 6c 76 7e 3f
       0.99444133 0.96233785 0.99444157 0.9939945
000070 50 5c 7f 3f 48 e7 74 3f 9d e3 7f 3f 00 00 80 3f
       0.9975023 0.9566541 0.99956685 1.0
000080 e8 93 7d 3f 87 76 7e 3f 6d 76 7e 3f 43 a5 81 3f
       0.9905381 0.9939961 0.99399453 1.0128559
000090 2d 77 7e 3f b8 93 7e 3f a7 ac 7f 3f 00 00 80 3f
       0.994006 0.9944415 0.9987282 1.0
0000a0 14 75 7e 3f 1a dd 80 3f 7e 51 7a 3f 6b 89 7f 3f
       0.993974 1.0067475 0.977806 0.9981906
0000b0 a1 dd 7d 3f dc 3c 81 3f ea ad 7e 3f 0b f7 80 3f
       0.99166304 1.0096698 0.9948412 1.0075392
0000c0 10 a5 7f 3f 6c 76 7e 3f 4b 70 7e 3f 6c 76 7e 3f
       0.9986124 0.9939945 0.99390095 0.9939945
0000d0 0e c2 80 3f 33 37 79 3f 0e 81 80 3f 00 00 80 3f
       1.0059221 0.9734985 1.0039384 1.0
0000e0 ac 9f 72 3f 2f 14 77 3f c8 93 7e 3f 90 4e 7a 3f
       0.9477489 0.9651517 0.99444246 0.97776127
0000f0 af 76 7e 3f 0f 46 77 3f e9 1f 7f 3f 6c 76 7e 3f
       0.99399847 0.96591276 0.99658066 0.9939945

head.1.bias f4 [64]
000000 94 c9 c4 bb 40 27 b6 bb c7 c9 c4 bb 00 00 00 00
       -0.0060054753 -0.005558878 -0.006005499 0.0
000010 53 ba 71 3b 9a 5a 45 3b da f4 2d bd 00 00 00 00
       0.003688474 0.0030113817 -0.042469837 0.0
000020 41 8b dd bc 00 00 00 00 13 8b fb bb 71 7b 56 bd
       -0.02704394 0.0 -0.007676491 -0.052363817
000030 00 00 00 00 00 00 00 00 24 8e d9 bc c9 c9 c4 bb
       0.0 0.0 -0.026557036 -0.0060055
000040 1e d3 2f 3c c9 c9 c4 bb 00 00 00 00 3a 4d 41 3b
       0.010731487 -0.0060055 0.0 0.0029495494
000050 00 00 00 00 00 00 00 00 34 34 3c 3b 77 67 1b 3c
       0.0 0.0 0.002871764 0.009485117
000060 3b 27 b6 bb f4 cf d9 bc 7c 26 b6 bb c9 c9 c4 bb
       -0.005558876 -0.026588418 -0.005558787 -0.0060055
000070 a2 74 93 ba f9 b4 88 bc 54 de 92 3b 00 00 00 00
       -0.0011249969 -0.016687857 0.00448207 0.0
000080 dc c6 2e bc 6d c9 c4 bb c3 c9 c4 bb 10 38 3c 3c
       -0.010667529 -0.006005457 -0.006005497 0.011487976
000090 4c c9 c4 bb 1b 27 b6 bb 2c f8 bf 3b 00 00 00 00
       -0.006005442 -0.005558861 0.005858442 0.0
0000a0 a1 97 f2 bb ac ef 08 3c 73 da 55 bc e5 c6 0e bc
       -0.0074033295 0.0083579235 -0.013052571 -0.008714412
0000b0 d0 03 0a bc c5 e7 27 3c f2 97 80 3b 4e a0 f3 3b
       -0.0084237605 0.010248129 0.0039243633 0.0074348813
0000c0 8a fc f4 bc c9 c9 c4 bb 3f e4 c7 bb c7 c9 c4 bb
       -0.029905576 -0.0060055 -0.006100207 -0.006005499
0000d0 32 13 e8 bb c4 db ac bc 7d c9 d2 3b 00 00 00 00
       -0.0070823664 -0.021100886 0.0064327107 0.0
0000e0 af 77 10 bd f9 8b 0c bd 14 27 b6 bb fc a5 ac bc
       -0.03527039 -0.034313176 -0.0055588577 -0.021075241
0000f0 57 c6 c4 bb d5 bb 9f bc 7a 49 ba 3b ca c9 c4 bb
       -0.0060050893 -0.019498745 0.0056850286 -0.0060055004

head.3.weight f4 [64, 64]
000000 1a 6b 1d 3d 8d 2a 96 bd d7 08 b3 bb d0 f6 f2 bc
       0.038432218 -0.07332335 -0.0054637003 -0.029658705
000010 b5 f6 87 bd e2 c1 3f bd 60 b6 cb bd 64 27 bc 3d
       -0.066388525 -0.04681576 -0.09946895 0.09187201
000020 18 24 d1 bd 1c 12 6e 3d 35 f1 54 bd ab 96 06 3e
       -0.102119625 0.05812274 -0.051987845 0.13143413
000030 ac c0 3f bd a2 b1 b0 3d 3f 78 e9 bc e1 dd 1f bd
       -0.046814606 0.08627631 -0.02849972 -0.03902996
000040 9a 96 aa bd e2 0d b3 bc 88 56 63 bd cd a1 f8 bd
       -0.08329506 -0.021857206 -0.055502445 -0.12140236
000050 10 54 8f bd 0c 5e 63 bd ba e7 a3 3d 17 84 65 bd
       -0.069984555 -0.055509612 0.08003183 -0.056034174
000060 31 27 bf 3d cf ca 40 3c 8a 6f 4e bd 9d 41 dd 3c
       0.09333647 0.011767103 -0.05039934 0.027008826
000070 db 5e ff bc 17 96 a8 bd 2b 55 ab 3d 9c ae 18 3d
       -0.03117316 -0.08231752 0.08365854 0.037275895
000080 9b 77 c8 bc 4a 4e c6 bc 42 0d cc 3d 93 f0 da 3d
       -0.024471095 -0.024207253 0.09963466 0.10690417
000090 e2 dd a4 3d b0 56 b2 bc 91 a0 86 3d 64 a6 20 3d
       0.08050133 -0.021769851 0.06573594 0.039221182
0000a0 c9 8e b9 bc 2b da f5 bd f1 df 75 bd 35 ec 9c 3d
       -0.022651093 -0.12004503 -0.06002802 0.076622404
0000b0 be 50 b5 3d 61 f4 83 3d 98 7a b8 bd 9e d0 12 bd
       0.08853291 0.06443096 -0.09007758 -0.035843484
0000c0 b0 e6 1e 3d 02 5e 7a 3d 05 6d 88 bd 6a 54 20 3d
       0.03879422 0.06112481 -0.06661419 0.039143004
0000d0 38 7f e2 3d 41 8c 7c bc c4 21 e9 bd a8 62 d8 bc
       0.11059421 -0.0154142985 -0.113833934 -0.02641423
0000e0 53 ab bc 3d 39 fb 3c bd 54 94 53 bb 3b 31 8b 3d
       0.09212365 -0.046138022 -0.0032284455 0.06796499
0000f0 e5 8e 01 be 1f 6e 87 bd f1 a2 24 3d e9 0b b5 3d
       -0.12652166 -0.06612801 0.040194456 0.08840162
000100 15 ac ab bb 8e d1 60 bc 8b 0f d2 bc ce 82 d2 bd
       -0.0052390196 -0.013721837 -0.025642177 -0.10278855
000110 4b 18 b8 3d f4 9a 5b bd 7f 4f c6 bc e4 26 b8 bd
       0.089890085 -0.05361457 -0.024207829 -0.08991793
000120 1d 41 c6 3d ec ef 55 bd be 39 ae bd e5 1d e9 bd
       0.09680388 -0.05223076 -0.08507107 -0.11382655
000130 18 aa 29 bd 80 82 6b bb 2d a3 bb 3d 98 17 ca 3d
       -0.04142198 -0.0035935938 0.09161983 0.098677814
000140 f0 ae e3 bd b5 fb bb 3d 38 3c a9 3d 17 e4 5e 3d
       -0.11117351 0.09178869 0.08263439 0.054416742
000150 38 01 5c bd e8 12 24 bd f0 d3 a0 3d ee e6 e5 bd
       -0.0537121 -0.040057093 0.07852924 -0.11225687
000160 12 2c c7 3d b2 4b a8 bd 8f 9f ba 3d df d3 d1 3d
       0.097252026 -0.08217563 0.09112465 0.10245489
000170 09 77 2b 3d c3 39 46 3d 2d 88 e9 bd 84 b6 94 3d
       0.041861568 0.04839493 -0.114029266 0.072613746
000180 a2 d0 82 bd 9b 12 9b 3d cb 06 9c 3d df 28 e0 3c
       -0.0638745 0.07571908 0.07618483 0.027363239
000190 a5 9e 70 bd 80 dd 34 bd 9d 02 04 3c ec 92 bf 3d
       -0.058745045 -0.04415655 0.008057264 0.09354195
0001a0 53 6d 3d 3c 8c 66 c2 3d b7 36 99 3c ea aa d6 3d
       0.011561709 0.094922155 0.018702848 0.10481818
0001b0 6d 73 2d 3d a2 48 02 3d 41 1d d5 bd 9c 42 54 bd
       0.042346407 0.03180755 -0.1040597 -0.051821336
0001c0 a6 c5 5a 3d e1 0b ad bd 06 ba 43 3d 45 48 68 bc
       0.05341115 -0.08449531 0.047784828 -0.014177387
0001d0 2e a2 9a 3d dd 95 de bd 9d 9b 17 bc f0 3d ec 3c
       0.075504646 -0.10868428 -0.00925341 0.028838128
0001e0 a3 ac 64 bd 92 60 be bd 17 ce 01 3e a0 48 cb 3b
       -0.0558287 -0.09295763 0.12676273 0.006203726
0001f0 03 a6 50 bd 00 1d 08 bc 33 23 e2 bd 2f fe 9f 3b
       -0.05093957 -0.008307695 -0.1104187 0.004882596
000200 14 ab ae 3d 66 9c 39 3d 0d 75 bd bd a0 cd 9f bb
       0.08528724 0.04531517 -0.09250841 -0.0048768073
000210 d3 41 de 3d 05 a0 c3 bd 48 92 9e bd b4 8d e6 3d
       0.10852399 -0.09552006 -0.07742745 0.112574965
000220 70 97 ca bd 0e 85 ce 3d 94 97 25 3c 0c 59 8e 3d
       -0.09892166 0.10083972 0.01010694 0.06950578
000230 00 18 f2 bb 5e 2d 92 bd b7 c3 c6 3d 97 c5 a8 3d
       -0.007388115 -0.07137559 0.097052984 0.08240812
000240 c5 0f 58 3d 84 96 8f bd 92 b3 fe bd 5b 52 83 bd
       0.052749414 -0.070111305 -0.12436594 -0.064121924
000250 b0 b7 bc bd 42 64 a9 bd 69 1e f0 3d e4 b9 d3 bd
       -0.09214723 -0.08271076 0.1172455 -0.1033819
000260 75 29 37 3d 8b 7c 9d bd 72 b9 9c bc fa ef 41 3d
       0.04471727 -0.0768977 -0.019131396 0.047348
000270 4a 12 1c bd 12 7f cd 3d 8a 5d 2e 3c fc f2 fa 3d
       -0.03810338 0.10034002 0.010642419 0.12253377
000280 40 fc 3c 3c e3 81 84 bd 02 dd bf 3b ba 6c ba 3d
       0.01153475 -0.064700864 0.0058552036 0.09102769
000290 09 d5 d0 3c 73 25 da 3c b8 c0 7f bd a0 62 d4 3c
       0.025492208 0.026629185 -0.06243965 0.025925934
0002a0 ca 23 86 3d b6 0b 18 bd 46 2b 2a bc a4 0e 4f bb
       0.06549795 -0.037120543 -0.010386294 -0.003159442
0002b0 15 ce 64 3c aa d3 bb 3d 85 23 7c bd 47 f8 be 3d
       0.013965149 0.09171231 -0.06155731 0.09324699
0002c0 b8 c3 80 3d ef fc 99 3d 29 93 45 3c 6f 9a e4 3d
       0.062873304 0.075189464 0.0120590115 0.11162268
0002d0 ed e5 61 3c 81 9c c0 3d 9f 34 c3 3d 60 c5 d9 bd
       0.013787729 0.09404851 0.09531521 -0.106333494
0002e0 21 f5 3a bd f0 b3 54 3c 32 d1 81 bb 9f a4 57 3b
       -0.04564393 0.012982354 -0.0039617056 0.0032904518
0002f0 bd 9f 80 bd ae d5 1f 3d 58 a9 1f 3c ad 1b dd bc
       -0.06280468 0.03902214 0.009744965 -0.026990736
000300 f6 76 8d 3d 8c 67 1f 3d 09 e4 b0 bd 52 25 a2 bd
       0.069074556 0.03891711 -0.08637244 -0.079172745
000310 8f bf e5 3d 82 d2 4b 3d 4a 13 45 bd 40 87 13 bd
       0.112181775 0.049761303 -0.0481141 -0.036017656
000320 d8 97 80 3c c4 7c 0a bd f9 32 dc 3d ce 04 18 3d
       0.015697405 -0.033810392 0.1075191 0.037113957
000330 16 0d b5 3d 26 7c ba 3d f5 03 27 bb 4a bd 69 bc
       0.088403866 0.09105711 -0.0025484536 -0.014266321
000340 61 ac ae 3c 89 70 e8 3d 24 2e 21 3d c6 a7 73 3d
       0.021322431 0.113495894 0.039350644 0.059486173
000350 54 5c 2c bd 02 ec ba bd 7b 3d 95 3c 83 f0 cb bb
       -0.04208024 -0.09127046 0.018217793 -0.0062237396
000360 e5 22 9a bd 8e ba fd bb 24 56 a7 3d fa 7e d1 3d
       -0.07526187 -0.0077431863 0.08170727 0.10229297
000370 6a 36 58 3d e8 a2 8c bd 5e 6e 5b bd 8c e3 71 bd
       0.05278627 -0.068670094 -0.05357205 -0.059054896
000380 dc 41 66 3c 1c e7 f0 bd fd e3 f2 3d 38 5b 7c bd
       0.014053788 -0.117628306 0.118598916 -0.06161043
000390 f2 8b 5a bc 48 d7 c3 bc 3c 12 e3 3d 76 94 e0 bd
       -0.01333903 -0.023906365 0.11087462 -0.10965817
0003a0 6b 86 71 3c 74 0c f1 3d 25 4f 11 3e fb 94 34 bd
       0.01474152 0.11769953 0.14190347 -0.04408739
0003b0 95 92 10 3c 81 a8 5f 3d 97 1a df bd 31 ec 79 3d
       0.00882401 0.054604057 -0.108937435 0.061016265
0003c0 73 1e 11 bd e5 f9 54 bd ec 85 b2 3d bb 3f d2 bd
       -0.03542943 -0.05199613 0.0871695 -0.10266062
0003d0 43 7c d0 bd 72 ce 9e 3d 1a 98 81 bd 5c 8a a1 bd
       -0.10179951 0.0775422 -0.06327839 -0.07887718
0003e0 e4 53 15 bd af e4 3a 3a 42 d6 f2 3d 44 14 fb bd
       -0.036456957 0.00071294134 0.11857273 -0.12259725
0003f0 61 39 d8 3d 99 8d 80 3d 42 76 81 3d 7f 89 97 3d
       0.10557819 0.062770076 0.06321384 0.07399272
