outputs/exp_v1/checkpoints/epoch_40.pth (torch, 651919 bytes, 13 tensors)

base.0.weight f4 [64, 3, 7, 7]
0	0xbca0b8f2	-0.019619439
1	0x3d7525ce	0.059850506
2	0xbd1a5f91	-0.037688795
3	0x3bc05662	0.0058696726
4	0xbb307430	-0.0026924722
5	0xbd84f9e6	-0.06492977
6	0x3bb8f310	0.0056442097
7	0x3d88921b	0.066684924
8	0x3c62b306	0.013836628
9	0x3d5a309f	0.053269025
10	0xbd7875bf	-0.060659166
11	0xbd8f3f96	-0.0699455
12	0x3d8e1ff4	0.06939688
13	0x3d91f3f0	0.071266055
14	0x3cceb771	0.025233956
15	0x3da1ea20	0.07905984
16	0xbd1667ea	-0.036720194
17	0xbd87144b	-0.065956675
18	0x3ccce797	0.025012774
19	0x3c31296a	0.010813097
20	0x3cf7fcc6	0.030271899
21	0x3d4d28cb	0.05008773
22	0xbd3f71cf	-0.046739396
23	0xbceba2d7	-0.028764172
24	0xbd49757d	-0.04918431
25	0xbda43230	-0.08017385
26	0xbcbf410f	-0.023346452
27	0x3d9d40e3	0.07678392
28	0xbd8d495a	-0.06898756
29	0x3d3e08af	0.046395
30	0xbd3cde7b	-0.04611061
31	0xbd82d6cc	-0.063886255
32	0x3b2c7dca	0.0026320093
33	0x3d46d92d	0.04854696
34	0x3b1ec570	0.0024226569
35	0x3c9c5b04	0.019086368
36	0xbd977512	-0.07395376
37	0x3d6fbd81	0.058530334
38	0xbd7a81d5	-0.061158974
39	0x3d01768f	0.031607207
40	0x3d9d8cdd	0.07692883
41	0x3be342c0	0.0069354475
42	0xbda94c39	-0.082664914
43	0xbd9f7ff7	-0.07788079
44	0x3ce02776	0.027362566
45	0xbd89f3c5	-0.067359485
46	0xbd65bfd1	-0.056091134
47	0xbd059a4e	-0.03261786
48	0x3c81a9e9	0.01582809
49	0x3cc871ad	0.024468267
50	0xbd42263f	-0.047399756
51	0xbc8932f1	-0.016747924
52	0x3d5c659f	0.05380785
53	0xbd8a4732	-0.06751861
54	0xbaa186dc	-0.0012323516
55	0xbd5033a2	-0.05083049
56	0xbc698fb1	-0.01425545
57	0x3c4bf680	0.012448907
58	0x3d664216	0.05621537
59	0xbdaf9011	-0.085724
60	0x3ca51f36	0.020156484
61	0x3d0f6bf9	0.03501508
62	0x3d8ba83b	0.06819197
63	0x3d01bce6	0.03167429
64	0x3d38ac18	0.045085996
65	0xbd99bbcd	-0.07506523
66	0xbcfb6d0c	-0.030691646
67	0x3c49d024	0.012317691
68	0xbd8d7f69	-0.06909067
69	0xbd3073bc	-0.043079123
70	0x3d0a1bb9	0.033717845
71	0xbd1c4d7b	-0.03815983
72	0x3c12cc67	0.008959866
73	0x3cfda371	0.030961724
74	0x3d97ddca	0.0741535
75	0x3d977e47	0.07397132
76	0x3c775f9c	0.015098479
77	0xbd871799	-0.06596298
78	0xbd2aba01	-0.041681293
79	0x3d8014b6	0.0625395
80	0x3d836cdf	0.0641725
81	0x3cf835e3	0.030299133
82	0xbd8d6647	-0.069042735
83	0x3b98b637	0.0046603936
84	0xbb93fcc9	-0.0045162183
85	0xbc9ca09c	-0.019119553
86	0xbd13e1f9	-0.036104176
87	0x3cc460fb	0.023972025
88	0x3d881b77	0.066458635
89	0xbd3232bc	-0.043505415
90	0x3d254b04	0.040354744
91	0xbd7f72f0	-0.062365472
92	0x3cea4c15	0.028600732
93	0xbdb02e13	-0.08602538
94	0x3cbe7c68	0.02325268
95	0x3ccd31bd	0.025048131
96	0xbd9228e2	-0.07136704
97	0x3ca796d3	0.02045766
98	0x3c6ccb1a	0.01445272
99	0xbd97f136	-0.07419054
100	0xbd4e4745	-0.050360937
101	0x3c00266d	0.007821661
102	0xbc4bac29	-0.012431183
103	0x3b08856d	0.002083148
104	0x3d4425b5	0.047887523
105	0x3d58c689	0.052923713
106	0xbd6f5e17	-0.05843934
107	0x3d224e25	0.039625306
108	0x3cd71f9d	0.026260192
109	0xbccbc195	-0.02487258
110	0x3cbe7317	0.023248238
111	0xbcf43883	-0.029812103
112	0xbc1b5411	-0.009480492
113	0x3d89f1a7	0.06735545
114	0xbc490cbf	-0.012271105
115	0xbc950d59	-0.018194841
116	0xbda3f119	-0.0800497
117	0xbbd39854	-0.006457368
118	0xbda6bffe	-0.08142088
119	0x3bf68cfb	0.0075241304
120	0xbc9861ee	-0.018601384
121	0xbd187a7f	-0.037226196
122	0xbc2412fd	-0.010014293
123	0x3d125c39	0.03573248
124	0x3d109ad1	0.035303894
125	0xbbb63014	-0.0055599306
126	0xbda780a2	-0.08178832
127	0x3cdfe8e8	0.027332738
128	0xbb5188a0	-0.0031972304
129	0xbbbbc2f9	-0.0057300297
130	0xbca9c380	-0.020723104
131	0xbd64f02a	-0.0558931
132	0xbd4de8c2	-0.050270803
133	0xbc7cacb9	-0.01542204
134	0x3d249d47	0.040189054
135	0x3d3dadaf	0.046308216
136	0x3d934191	0.0719024
137	0xba1e5870	-0.00060404
138	0xba2965ba	-0.0006461997
139	0xbd133757	-0.035941448
140	0xbcff8226	-0.03118999
141	0x3da06b43	0.078329585
142	0x3c226307	0.009911305
143	0xbda88c88	-0.08229929
144	0x3ccbabea	0.024862248
145	0x3d6adbfd	0.057338703
146	0xbd178ad7	-0.036997642
147	0x3d4aca35	0.049509246
148	0xbd5637e4	-0.052299395
149	0x3bf8cc40	0.007592708
150	0xbd73448e	-0.05939155
151	0xbd973956	-0.07383983
152	0x3c45c9ae	0.01207201
153	0x3bf0ca18	0.00734831
154	0xbd4889ca	-0.04895953
155	0x3ce56a0a	0.028004665
156	0x3affd205	0.0019517547
157	0x3d6ca1b7	0.05777141
158	0xbca001e1	-0.019532146
159	0xbba58b21	-0.005051986
160	0x3d057e51	0.032591168
161	0xbd0ec7a9	-0.03485838
162	0xbd6db6f1	-0.058035795
163	0x3c676b5b	0.014124717
164	0xbd7ad998	-0.06124267
165	0xbcab649b	-0.020921996
166	0x3ce68797	0.028140826
167	0x3d83fccc	0.064447016
168	0xbc92c15f	-0.017914472
169	0x3d28f6c3	0.041250955
170	0x3c64089d	0.013918069
171	0xbd803e33	-0.062618636
172	0x3d361282	0.044451244
173	0xbda08076	-0.07837002
174	0xbdb88611	-0.09009946
175	0xbdaa74a2	-0.08323027
176	0xbd8aaaef	-0.06770884
177	0x3d5a05a9	0.053228054
178	0xbc76ccb6	-0.015063455
179	0xbda6c558	-0.08143109
180	0xbb94b014	-0.0045375917
181	0x3d166938	0.03672144
182	0x3d71ce8d	0.059034873
183	0x3d932c30	0.071861625
184	0xbd6d3b6d	-0.057918
185	0xbd8dfcc3	-0.06932976
186	0x3cc20679	0.023684727
187	0xbd524cab	-0.051342648
188	0xbcc3d792	-0.023906503
189	0x3be999dd	0.0071289376
190	0x3d8be62e	0.06831013
191	0x3d38efcc	0.045150563
192	0x3cd7dc75	0.02635024
193	0xbd63c2ee	-0.05560582
194	0xbd0fd7f3	-0.035118055
195	0xbdaf689f	-0.08564877
196	0xba2d0d51	-0.00066014106
197	0x3db69c91	0.089165814
198	0x3cba6cbd	0.022756929
199	0x3c3827f9	0.011239999
200	0x3d89d21e	0.0672953
201	0xbb68e050	-0.0035534091
202	0xbbf852a0	-0.007578209
203	0x3db45d3d	0.08806846
204	0xbd6d80ac	-0.05798404
205	0x3c29e5e4	0.010369752
206	0xbd04f910	-0.032464087
207	0x3d671a5b	0.05642162
208	0x3dabb1c3	0.08383515
209	0x3d1e61e2	0.038667567
210	0xbd1a1658	-0.037618965
211	0x3d1a7ec6	0.037718557
212	0x3cbbc788	0.022922292
213	0x3d89556e	0.067057475
214	0x3d88c2ec	0.066778034
215	0x3bbad2e9	0.005701412
216	0xbd29c6c0	-0.04144931
217	0x3dc16b0a	0.09444244
218	0x3d35fb66	0.044429205
219	0x3d9758f4	0.07390013
220	0xbd6a6347	-0.057223585
221	0xbd3a120a	-0.04542736
222	0xbce5f190	-0.028069288
223	0x3da93e02	0.0826378
224	0xbd8a2145	-0.06744627
225	0xbc161792	-0.009160893
226	0x3c8054ce	0.015665438
227	0x3d70d3fc	0.058795914
228	0x3c60b6be	0.013715444
229	0x3d012599	0.031529997
230	0x3b3f51bf	0.0029193012
231	0x3d5350e1	0.051590804
232	0x3cd37622	0.025813166
233	0xbd5d9c02	-0.05410386
234	0xbb1e96f8	-0.002419887
235	0x3d557b44	0.05211951
236	0x3c3882c1	0.011261643
237	0x3c84158e	0.01612356
238	0x3dbbd4f4	0.09171477
239	0x3d815491	0.06314958
240	0x3dba19d6	0.09086959
241	0x3bddc043	0.006767304
242	0x3d81ba94	0.06334415
243	0x3d98a146	0.074526355
244	0xbd4f8665	-0.050665278
245	0xbd89aacc	-0.0672203
246	0xbd7cae38	-0.061689585
247	0xbd2e6b70	-0.04258293
248	0x3d87456f	0.0660504
249	0xbd9af372	-0.07565965
250	0x3d9a8774	0.07545367
251	0x3d840d24	0.06447819
252	0xbb80a306	-0.003925684
253	0xbd9b40ad	-0.07580695
254	0x3d82a525	0.06379155
255	0xbad5f18b	-0.0016322596

base.0.bias f4 [64]
0	0xbba291c5	-0.0049612247
1	0xbce4ac56	-0.027914207
2	0x3c4d8134	0.012543011
3	0xbd9763ba	-0.07392068
4	0xbc08f133	-0.008358288
5	0x3ce2f185	0.027703056
6	0xbc909be6	-0.017652463
7	0x3c853dec	0.016264878
8	0xbda73cc8	-0.0816589
9	0xbc9b85b3	-0.018984651
10	0xbce05345	-0.027383456
11	0x3aace3a7	0.0013190404
12	0xba542ae7	-0.0008093551
13	0xbd4334d0	-0.047657788
14	0xbaf88f28	-0.0018963562
15	0x3d3de914	0.04636486
16	0x3d880783	0.06642058
17	0x3ae5d38e	0.0017534362
18	0x3d3a5ad8	0.04549679
19	0x3d5ae9a0	0.05344546
20	0xbc9e5f43	-0.019332534
21	0xbd9266fa	-0.071485475
22	0xbb60e3b5	-0.0034315411
23	0xbd2285b6	-0.039678298
24	0xbda4fa23	-0.08055522
25	0x3d6ca37f	0.05777311
26	0xbd05d6c6	-0.032675527
27	0x3d3db417	0.046314325
28	0x3c0e6215	0.008690377
29	0x3d110ae0	0.03541076
30	0x3cd2b022	0.025718752
31	0x3d908b5b	0.0705783
32	0x3c803f78	0.015655264
33	0x3d11f08d	0.035629798
34	0xbd8d2c4c	-0.068932146
35	0x3cc3d466	0.02390499
36	0xbd822094	-0.0635387
37	0xb87661ef	-5.874218e-05
38	0x3cd378fb	0.025814524
39	0xbd0ebe3c	-0.03484939
40	0x3d64d701	0.055869106
41	0xbd49804f	-0.04919463
42	0x3da2eb46	0.07955031
43	0x3daba9fe	0.08382033
44	0xb8e7d960	-0.000110554276
45	0xbd3ef438	-0.046619624
46	0xbda687c4	-0.08131364
47	0xbd9a9593	-0.0754806
48	0xbcd752c9	-0.026284592
49	0xbd2beb9a	-0.041972734
50	0xbdb2ca6d	-0.08730016
51	0xbca17b24	-0.019712038
52	0xbbe15095	-0.006876061
53	0xbd52867d	-0.05139779
54	0x3b10833b	0.0022050876
55	0xbd59cefd	-0.053175915
56	0x3cd12cbb	0.025534024
57	0xbc68f9a0	-0.0142196715
58	0x3d7708e8	0.060311228
59	0xbd962dee	-0.07332979
60	0x3ca53f94	0.020171918
61	0x3d48516f	0.048905786
62	0x3d22f636	0.039785586
63	0x3d7d59ea	0.061853327

res_blocks.0.conv.weight f4 [64, 64, 3, 3]
0	0xbcc76aa1	-0.024342837
1	0x3a26bf2c	0.0006360884
2	0xbcaf75bc	-0.021418445
3	0xbc6ee90d	-0.014581931
4	0xbce98cd2	-0.028509531
5	0xb923f177	-0.00015634844
6	0x3cbc6773	0.022998547
7	0xbc846458	-0.016161129
8	0x3d2c7af0	0.04210943
9	0xbd40c4d7	-0.04706272
10	0x3c170a55	0.009218772
11	0x39546ac7	0.00020257673
12	0xbccd9e6d	-0.025099957
13	0xbd0552db	-0.03254972
14	0x3ce7e64d	0.028308058
15	0xbcbec616	-0.023287814
16	0x3ba663f3	0.005077833
17	0x3d00b0eb	0.031418722
18	0xbcc6b63f	-0.024256824
19	0x3cd7b731	0.02633247
20	0x3d3993a1	0.045306806
21	0x3d0f69d6	0.035013042
22	0x3cdbcdbf	0.026831506
23	0x3d0e2a07	0.03470805
24	0x3c2afccf	0.010436251
25	0x3c44539b	0.011982824
26	0x3c0eb2a6	0.008709585
27	0x3d2de9ed	0.042459417
28	0x3a5dac35	0.0008456142
29	0x3d007e96	0.03137072
30	0x3d0cb0df	0.034348365
31	0xba8ee809	-0.0010902892
32	0x39e66edc	0.00043951615
33	0x3ca95efb	0.020675173
34	0xbc73a7c9	-0.014871546
35	0x3d2193fc	0.03944777
36	0x3c610478	0.013733976
37	0xbc5afdb8	-0.013366155
38	0xbd19d4f6	-0.03755661
39	0xbcfc5609	-0.030802744
40	0xbc5a6470	-0.01332961
41	0x3ce91786	0.0284536
42	0x3d33ae00	0.04386711
43	0x3d12f200	0.03587532
44	0xb9e8659a	-0.00044326187
45	0xbba2ba44	-0.0049660522
46	0xbbce9198	-0.006303977
47	0xbcd7cf35	-0.026343921
48	0xbcf61c3f	-0.030042766
49	0x3d45b177	0.048264947
50	0x3d06eb2d	0.032939125
51	0xbc902a06	-0.017598163
52	0x3b153361	0.002276622
53	0x3ba08a81	0.0048993235
54	0xbd09cd3b	-0.03364299
55	0x3bc0f0aa	0.0058880644
56	0xbcf2e9f8	-0.02965258
57	0x3bf9abc4	0.007619353
58	0x3d044258	0.032289833
59	0xbb355918	-0.0027671512
60	0x3c071071	0.008243666
61	0x3b7f14de	0.003892235
62	0xbc6def31	-0.01452236
63	0x3ccb9b39	0.02485429
64	0x3c1076d7	0.008817396
65	0xbc562158	-0.013069473
66	0x3c987cfa	0.018614281
67	0xbc9363a6	-0.017991852
68	0xbb501007	-0.0031747834
69	0x3cf49f15	0.029861012
70	0x3cab1413	0.020883596
71	0x3ca2b101	0.019859793
72	0x3b6b2a3a	0.0035883323
73	0x3d2ab21c	0.041673765
74	0x3b9d3681	0.004797757
75	0x3d002e40	0.031294107
76	0x3c72be6a	0.014815906
77	0xbc59c6a6	-0.01329199
78	0x3d15411f	0.036439057
79	0xbbc9ada2	-0.006154732
80	0x3c331b5e	0.010931818
81	0x3c625355	0.013813813
82	0xbb70e1f8	-0.0036755782
83	0xbc14d644	-0.009084288
84	0xbcfee4b5	-0.031114915
85	0x3b8fc45d	0.004387422
86	0xbc3f4c25	-0.011675869
87	0xbc80dae9	-0.015729384
88	0x3d21ed29	0.039532814
89	0x3ce78d5f	0.028265653
90	0xbc956a31	-0.018239113
91	0xbd290731	-0.041266624
92	0xbc9c71e7	-0.019097282
93	0x3b03cd25	0.002011129
94	0xb808225c	-3.2456926e-05
95	0xbca473cd	-0.02007475
96	0x3c8fd88b	0.01755931
97	0xbc7ea598	-0.01554241
98	0xbc9a5fd7	-0.018844528
99	0xbce45b94	-0.0278757
100	0xbaf9be54	-0.0019053915
101	0x3c8e1936	0.017346006
102	0xbcb0b2ef	-0.021569697
103	0x3c9812ac	0.018563591
104	0xbd1282cb	-0.035769265
105	0x3c88834a	0.016664166
106	0xbcfb3402	-0.030664448
107	0xbc7c8ad9	-0.015413963
108	0xbd0719a0	-0.032983422
109	0x3d24e47e	0.04025697
110	0x3cf47b72	0.02984402
111	0x3d240603	0.040044796
112	0x3af3c98e	0.0018599497
113	0xbc876646	-0.01652826
114	0xbd0733e8	-0.033008486
115	0x3b717cef	0.0036848148
116	0xbccf7322	-0.025323454
117	0x3ba9f5f3	0.00518679
118	0xbc575607	-0.013143069
119	0x3d1ecc67	0.038769152
120	0xbcdd239e	-0.026994523
121	0xbd0827a9	-0.033240948
122	0xbce5a160	-0.028031051
123	0xbd0238ed	-0.03179257
124	0x3c3ee93d	0.011652288
125	0xbd1b1387	-0.03786042
126	0x3ce8ae99	0.028403567
127	0xbc9e3311	-0.01931146
128	0xbcc91262	-0.024544898
129	0x3ce181ed	0.027527774
130	0xbcc967f1	-0.024585696
131	0x3c664cf2	0.014056431
132	0x3d10c60c	0.035345122
133	0x3c4ef304	0.012631182
134	0x3d13c0a0	0.036072373
135	0xbbb89e22	-0.0056340853
136	0xbcf8669b	-0.030322364
137	0x3cd6cc33	0.026220417
138	0xbb28412b	-0.0025673609
139	0x390c546c	0.0001338289
140	0x3d01b63c	0.031667933
141	0x3d332ed9	0.04374585
142	0x3cd845dd	0.0264005
143	0x3d41bbfd	0.04729842
144	0xbb768569	-0.003761614
145	0x3d2e21ab	0.042512577
146	0x3d310b29	0.043223534
147	0xbbdb6759	-0.0066956696
148	0x3c014d73	0.0078920005
149	0xbcb6cc10	-0.022314101
150	0xbbf128c0	-0.007359594
151	0x3c81376d	0.0157735
152	0xbd0c1a76	-0.034204923
153	0x3c48863d	0.012239036
154	0x3d0900b0	0.03344792
155	0xbc9a6e6d	-0.018851483
156	0xbcd5daee	-0.02610537
157	0xbbc14109	-0.0058976454
158	0x3cc686de	0.024234232
159	0x3c11be18	0.00889542
160	0x3d2acb4c	0.041697785
161	0x3d0cbfd1	0.034362618
162	0x3bb3c3a3	0.005485968
163	0xbc40ed9e	-0.011775402
164	0xbd1f725d	-0.038927425
165	0x3c281cc5	0.010260765
166	0x3cc720fe	0.024307724
167	0xbcdcb11d	-0.026939923
168	0x3cafaffc	0.02144622
169	0xbae8427f	-0.0017720013
170	0x3cc4639b	0.023973277
171	0x3bad9d79	0.005298313
172	0x3cbab2b4	0.02279029
173	0xbd17ee4d	-0.037092496
174	0x3c52c0b9	0.0128633315
175	0x3d0528f0	0.032509744
176	0x3cd77794	0.026302136
177	0x3cc1dc1d	0.023664529
178	0x3c753078	0.014965169
179	0x3c9b0517	0.018923325
180	0xbc364f93	-0.01112737
181	0x3b8f1c0e	0.004367358
182	0x3d3cd896	0.04610499
183	0x3c4ac7dc	0.012376752
184	0x3d25476b	0.040351313
185	0x3ca21212	0.019784007
186	0x3d2584f7	0.04041001
187	0x3ca3c1bf	0.019989846
188	0x3bfd78cc	0.0077353474
189	0x3c9122c7	0.017716778
190	0x3d31a5ca	0.043371
191	0xbd2deda8	-0.042462975
192	0x3cf6387a	0.030056227
193	0xbb379bad	-0.0028016374
194	0xbb8850b6	-0.004160012
195	0xbc858f60	-0.016303718
196	0x3bb47312	0.0055068815
197	0x3ce2c508	0.027681842
198	0x3d2425fb	0.040075283
199	0x3d01c79f	0.031684514
200	0x3d198aa9	0.037485752
201	0x3d41ca2a	0.04731194
202	0xbc5053d9	-0.012715303
203	0xbb3623a0	-0.002779223
204	0x3c82bc05	0.015958795
205	0x3ba4030d	0.0050052465
206	0x3ccd488c	0.025059007
207	0xbbd45d26	-0.0064808307
208	0x3d54720f	0.051866587
209	0xbc9fff06	-0.019530784
210	0xbb939976	-0.004504378
211	0xbb03ece8	-0.002013022
212	0x3cdf40c6	0.027252566
213	0xbc819172	-0.015816424
214	0x3d43cfda	0.047805645
215	0x3b8a447b	0.0042195893
216	0x3ba75c5d	0.005107446
217	0x3bdbff68	0.0067137964
218	0x3baf9873	0.0053587495
219	0x3c847b33	0.016172027
220	0xbd1b373f	-0.037894484
221	0xbc9c470b	-0.019076845
222	0xbcefbf44	-0.029266007
223	0x3d3250ef	0.043534216
224	0xbc967eb7	-0.01837097
225	0x3c86b3c9	0.01644315
226	0x3d078575	0.03308626
227	0xbcabe51d	-0.020983273
228	0x3d0c3501	0.034230236
229	0xbd0ab50b	-0.033864062
230	0x3b034887	0.0020032243
231	0x3c89195f	0.01673573
232	0xbcf40f07	-0.029792322
233	0xbce66633	-0.028124904
234	0x3d0369e8	0.032083422
235	0x3be89f20	0.0070990473
236	0x3d246a58	0.04014048
237	0x3b18a925	0.0023294177
238	0x3c3b0e19	0.011416935
239	0x3c874300	0.01651144
240	0x3cad130c	0.021127246
241	0x3c55ab99	0.0130414
242	0x3ca3c66c	0.019992076
243	0xbac1494b	-0.0014746574
244	0xbc9e0920	-0.01929146
245	0x3c6e5109	0.0145456875
246	0x3c949311	0.018136533
247	0xbb6c1c41	-0.0036027583
248	0x3c3d1086	0.011539584
249	0x3d284d3b	0.041089278
250	0x3d37cce3	0.04487313
251	0x3c5272e2	0.012844773
252	0xbd05b47b	-0.032642823
253	0x3cab992a	0.020947058
254	0x3c43723d	0.011929092
255	0x3b88849a	0.004166198

res_blocks.1.conv.weight f4 [64, 64, 3, 3]
0	0xbd143ef9	-0.036192868
1	0xbd24af5c	-0.0402063
2	0xbd116ee8	-0.03550616
3	0xbd404b8d	-0.04694705
4	0x3cfef37b	0.03112196
5	0xbc64db6a	-0.013968328
6	0xbcbfedaa	-0.023428757
7	0xbd085c6f	-0.033291277
8	0xbc9a97b7	-0.018871171
9	0x3cd4e3d0	0.025987536
10	0x3c89cfad	0.01682266
11	0x3d287061	0.041122798
12	0xbcdd6422	-0.027025286
13	0x3cfd73c5	0.030938992
14	0x3cbc13df	0.022958694
15	0xbc9b62a0	-0.018967927
16	0xbd116d3c	-0.035504565
17	0x3bb85e34	0.0056264643
18	0xbcf19607	-0.029490484
19	0x3c6684c6	0.014069742
20	0xbbc15891	-0.0059004505
21	0xba5ebceb	-0.0008496779
22	0x3bd640c8	0.0065384842
23	0x3d288143	0.0411389
24	0x3c0edd9a	0.008719826
25	0xbceb8eb0	-0.028754562
26	0x3c9f21fe	0.019425388
27	0xbbb70eab	-0.0055864654
28	0x3cf0ca54	0.029393353
29	0x3d236eb1	0.039900485
30	0x3c10aa09	0.008829602
31	0xbcd4580c	-0.02592089
32	0xbca9a3a5	-0.020707915
33	0x3d1f7c52	0.03893692
34	0x3c97db7f	0.018537281
35	0x3cb88d8d	0.022528434
36	0xbc4b76dc	-0.012418475
37	0x3d3e9c53	0.0465358
38	0x3d16640f	0.036716517
39	0x3d60b205	0.054857273
40	0xbcdc6acd	-0.026906395
41	0xbc941752	-0.018077526
42	0x3ccbaa48	0.02486147
43	0x3c57e1b8	0.013176374
44	0xbbaf610e	-0.005352146
45	0x3bde5165	0.0067846053
46	0xbcf8cf2d	-0.030372227
47	0x3d129173	0.035783242
48	0xbc34735a	-0.01101383
49	0x3d1671f0	0.036729753
50	0xbc83f50d	-0.01610806
51	0xb9a1bf55	-0.00030850866
52	0xbcc1c420	-0.02365309
53	0x3ce00be7	0.027349425
54	0xbc9e90f4	-0.019356228
55	0x3d3bf99b	0.04589234
56	0x3c674785	0.014116173
57	0xbc9ee596	-0.019396584
58	0xbce57c0c	-0.028013252
59	0x3ce86678	0.028369173
60	0x3d1396da	0.036032535
61	0x3c74c969	0.014940598
62	0x3cc0ca65	0.02353401
63	0xbccaf946	-0.024777066
64	0x3c48ce02	0.012256147
65	0x3d19c01a	0.037536718
66	0x3c267e06	0.010161882
67	0x3b8a363e	0.004217892
68	0x3cdd3388	0.027002111
69	0xbb6a30bd	-0.0035734617
70	0x3bc74e91	0.006082364
71	0xbc565364	-0.013081405
72	0x3b30c352	0.0026971889
73	0xbd140b54	-0.036143616
74	0xbd20b36e	-0.039233617
75	0xbce0e727	-0.027453972
76	0xbd1920ea	-0.037384905
77	0xbcdff925	-0.027340481
78	0x3c79dacc	0.015249919
79	0x3bd5bdaf	0.006522856
80	0x3c54b230	0.012981936
81	0x3d33db62	0.04391039
82	0xbca5c97a	-0.020237673
83	0xbca5b528	-0.020227984
84	0x3d0916b5	0.03346892
85	0x3caef79c	0.021358304
86	0x3d0cede8	0.034406573
87	0x3d31c580	0.04340124
88	0x3c116af7	0.0088756
89	0xbd090437	-0.033451285
90	0xbca3e319	-0.02000575
91	0x3bb7bbdc	0.0056071114
92	0x3c812ba8	0.015767887
93	0xbcf1392b	-0.029446205
94	0xbcee2fb6	-0.029075485
95	0x3c5db084	0.013530854
96	0xbb1ce11b	-0.0023937884
97	0xbc3e8f0c	-0.011630785
98	0xbcb6b16a	-0.022301394
99	0xbcc27a6d	-0.023740018
100	0xbcb87572	-0.02251694
101	0x3d0a9d07	0.03384116
102	0xbbd67505	-0.0065447115
103	0xbcb9bf31	-0.022674175
104	0xbc0299e5	-0.007971262
105	0x3d276346	0.04086616
106	0xbbbfe69d	-0.0058563487
107	0xbc85aab6	-0.016316753
108	0x3c4b16f3	0.012395608
109	0xbc10098f	-0.008791341
110	0xbc3a11a4	-0.011356745
111	0xbcdae168	-0.02671881
112	0xbb515b02	-0.0031945114
113	0x3ce52656	0.027972382
114	0x3d16bf7a	0.0368037
115	0xbc788107	-0.015167481
116	0x3d3bc5a3	0.045842778
117	0x3d0e2d00	0.034710884
118	0xbcb8b986	-0.022549402
119	0x3d3a2fab	0.045455616
120	0x3d2065d5	0.039159615
121	0xba12d6e7	-0.0005601481
122	0x3cc0bede	0.023528513
123	0x3b4eacce	0.0031536105
124	0x3d1b8dc7	0.037977006
125	0x3d369224	0.044572964
126	0xbb33b848	-0.0027423073
127	0xbc90f4cf	-0.017694859
128	0x3d01c8ae	0.031685524
129	0x3b868efb	0.0041064
130	0x3d34360d	0.04399686
131	0xbb7c453a	-0.003849341
132	0x3c0a4a36	0.008440545
133	0x3c8ebd3c	0.017424218
134	0x3cb4481b	0.022007039
135	0xbbcb66f9	-0.0062073437
136	0xbc2cfcba	-0.010558302
137	0x3afa040f	0.0019074696
138	0x3d4ddf61	0.05026186
139	0x3d242be5	0.040080924
140	0xbcabd946	-0.020977627
141	0xbacc1e11	-0.0015572925
142	0x3d3422fd	0.04397868
143	0x3c4c36f1	0.012464271
144	0x3d147c3d	0.036251295
145	0x3cc2e1b2	0.02378926
146	0x3d3964ff	0.045262333
147	0xbca815c1	-0.020518186
148	0x3ca4a9a5	0.020100424
149	0x3d00a68c	0.03140883
150	0x3d428f6f	0.04750007
151	0x3bb35f2b	0.0054739914
152	0x3ca3e2bb	0.020005574
153	0xbca72fa5	-0.02040846
154	0x3d34e591	0.044164244
155	0x3d050ba4	0.032481804
156	0x3d23b134	0.039963916
157	0x3d37ff00	0.04492092
158	0xbc85e84d	-0.016346121
159	0x3ca2d346	0.019876134
160	0xbbedee7f	-0.007261097
161	0x3d214d85	0.03938057
162	0x3d1ffa93	0.039057326
163	0x3d0ed082	0.034866817
164	0x3c5b47d8	0.013383828
165	0x3d2c5811	0.042076174
166	0xbc7d05e3	-0.015443298
167	0xbc0f7e43	-0.0087581305
168	0x3c8c12f7	0.017098887
169	0x3bd7ff50	0.006591715
170	0x3c7eca75	0.015551199
171	0x3ca404f5	0.020021895
172	0x3cc21b34	0.023694612
173	0x3d458519	0.048222635
174	0x3c4a688a	0.012354026
175	0xbb30f7cb	-0.0027003165
176	0x3c845292	0.016152654
177	0xbcc580b1	-0.024109216
178	0x3cfb7566	0.030695628
179	0x3c22e864	0.009943102
180	0x3d117a17	0.035516825
181	0x3cd09ecd	0.025466347
182	0x3cbcfdc6	0.023070227
183	0x3c542a55	0.012949546
184	0xbce07262	-0.027398292
185	0xbc998ee6	-0.018744897
186	0xbcf141fe	-0.029450413
187	0xbcd9ce21	-0.026587548
188	0x3c935d34	0.017988779
189	0x3c8d865a	0.017275978
190	0x3ce9eddb	0.028555801
191	0x3d50ba18	0.050958723
192	0x3ccefe46	0.025267731
193	0xbcaaea76	-0.020863753
194	0xbccb50fe	-0.024818894
195	0xbcc09dcb	-0.023512742
196	0x3cf88908	0.03033878
197	0x3d070ddc	0.0329722
198	0xbc3f7ae9	-0.011687019
199	0xbc860cc8	-0.016363516
200	0x3d3f0f94	0.046645716
201	0xbc7c5840	-0.0154019
202	0x3d2a49ab	0.04157416
203	0x3ceca85c	0.028888874
204	0xbc090968	-0.008364059
205	0xbbcb2e9d	-0.006200625
206	0x3d298937	0.041390624
207	0xbd17c595	-0.037053663
208	0xbcff3a31	-0.031155678
209	0xbcc34cd0	-0.023840338
210	0x3d26aeaa	0.040693916
211	0x3d071861	0.032982234
212	0x3c54d9b5	0.0129913585
213	0x3c69eaf7	0.014277211
214	0xbc94796e	-0.018124308
215	0x3c7bcb21	0.015368254
216	0xbce0808d	-0.027405048
217	0x3c8ff639	0.017573463
218	0x3ce32e43	0.02773202
219	0x3ba73604	0.0051028747
220	0x3c981e63	0.018569177
221	0xbc262929	-0.010141649
222	0x3d35642a	0.044284977
223	0x3c46da17	0.012136958
224	0x3d5343bb	0.051578265
225	0x3c9a758d	0.01885488
226	0x3c8a1058	0.016853496
227	0xbcc6a4b7	-0.024248464
228	0x3cf29a41	0.02961457
229	0xbc25f205	-0.010128503
230	0xbb8c0782	-0.004273356
231	0x3d1ee45d	0.038792003
232	0x3c4325fd	0.011910913
233	0x3d46d4f2	0.048542924
234	0xbc6ffa3e	-0.014647065
235	0x3d3dee70	0.04636997
236	0xbc385598	-0.011250876
237	0xbc31a6b6	-0.01084297
238	0x3d532bf0	0.051555574
239	0xbc04a8e6	-0.008096909
240	0x3d3159ee	0.043298654
241	0x3cbeb1f8	0.023278221
242	0x3c79bea6	0.015243208
243	0x3d526c35	0.051372726
244	0x3ccb4606	0.024813663
245	0x3ba5bae1	0.005057678
246	0xbbdab2f6	-0.006674166
247	0x3a7a0a41	0.0009538271
248	0x3c3a1eb5	0.01135986
249	0x3ca7bd3b	0.020475974
250	0x3d1337ad	0.03594177
251	0xbc6bb3fa	-0.0143861715
252	0x3c2314cc	0.009953689
253	0xbc112307	-0.008858449
254	0xbd07ec21	-0.033184174
255	0x3d307018	0.04307565

res_blocks.2.conv.weight f4 [64, 64, 3, 3]
0	0xbc3d9cdd	-0.011573044
1	0x3d075720	0.033042073
2	0xbd090673	-0.033453416
3	0xbbc11f12	-0.0058935964
4	0x3d032200	0.032014847
5	0xbcb85f43	-0.022506362
6	0xbaf85b55	-0.0018948118
7	0x3d3b1868	0.045677572
8	0x3d4b2ae3	0.049601447
9	0xbc6365f2	-0.013879286
10	0x3c1127a8	0.008859552
11	0xbcc7746f	-0.024347512
12	0xbd00ea97	-0.031473722
13	0xbc11314f	-0.008861854
14	0xbcbaed15	-0.022818128
15	0x3beec111	0.007286199
16	0xbb9c7c27	-0.0047755423
17	0x3d204ee8	0.03913775
18	0x3ba17251	0.0049269577
19	0x3c0bf4f7	0.008542291
20	0xbcd9538d	-0.026529098
21	0xbb8e8e59	-0.0043504653
22	0xbd028341	-0.031863455
23	0x3cc74ed1	0.024329575
24	0x3d1e776b	0.038688105
25	0xbc8d5612	-0.017252956
26	0xbccf57bb	-0.025310388
27	0xbca73265	-0.020409772
28	0x3cfdd7e4	0.030986734
29	0x3d18553b	0.037190657
30	0xbba6d060	-0.005090758
31	0xbbc8ad4c	-0.006124174
32	0x3d488855	0.04895814
33	0xbcfc4355	-0.030793825
34	0x3cb8467e	0.02249455
35	0x3c4b4970	0.012407646
36	0xbd07483a	-0.033027865
37	0x3c8de6f7	0.017322047
38	0xbd122fb1	-0.035690013
39	0x3a74ce6c	0.00093386206
40	0x3c8f1bc3	0.017469293
41	0xbbd1c9a6	-0.006402212
42	0x3bf1a429	0.0073743057
43	0x3cbc865c	0.023013286
44	0x3cca554a	0.024698872
45	0x3c17b769	0.009260037
46	0x3b5fb6d4	0.0034136074
47	0xbc9e28c5	-0.01930655
48	0x3d2d48f4	0.0423059
49	0x3d353c57	0.044246998
50	0x3ba5c00b	0.0050582937
51	0x3d38d4c9	0.045124803
52	0x3d223d76	0.039609395
53	0x3c076f65	0.008266305
54	0xbcae81e3	-0.02130217
55	0xbc8d329f	-0.017236052
56	0x3b54a9f4	0.0032449933
57	0x3d36aa88	0.044596225
58	0x3d2f1c2d	0.04275148
59	0xbbc03d23	-0.005866663
60	0x3d2077b7	0.03917667
61	0x3ca11584	0.01966358
62	0xbc676ac5	-0.014124577
63	0xbc8cd427	-0.017191006
64	0x3ca30ad3	0.019902622
65	0x3d030373	0.03198571
66	0x3a6f08d2	0.0009118441
67	0x3d15a539	0.03653452
68	0x3bca66bf	0.006176799
69	0x3d069ce4	0.032864466
70	0xbcc50b6e	-0.024053302
71	0x3c76f9f0	0.015074238
72	0x3ca7bd47	0.020475997
73	0x3c63b0e4	0.0138971545
74	0xbd276b5f	-0.04087388
75	0xbd0ac0c0	-0.033875227
76	0xbced994b	-0.02900376
77	0xbcaf6b27	-0.021413399
78	0xb94e7b94	-0.00019691727
79	0xbd0db3b6	-0.034595214
80	0xbd04a449	-0.032383237
81	0xbbf055af	-0.007334433
82	0xbc8b6667	-0.017016603
83	0x3d3d0e54	0.046156242
84	0x3c30cc5e	0.010790912
85	0x3d139325	0.036029
86	0xbb9e2219	-0.004825842
87	0xbceeb2df	-0.029138027
88	0xbc85d415	-0.01633648
89	0xbc9db1cd	-0.019249821
90	0xbb8234c6	-0.0039735762
91	0xbd116519	-0.035496805
92	0xbbf62adc	-0.0075124335
93	0x3c23d74d	0.010000062
94	0xbd1268aa	-0.035744347
95	0x3c7a801c	0.015289333
96	0x3ac84e64	0.0015282151
97	0x3d173378	0.03691432
98	0x3c86be69	0.016448217
99	0xbccdf05a	-0.025139023
100	0x3c6bee57	0.014400086
101	0x3c813590	0.01577261
102	0x3caec9c7	0.02133645
103	0x3ca35210	0.019936591
104	0x3d133ddf	0.035947677
105	0x3d47b4e8	0.04875651
106	0x3c6cbfe9	0.014450052
107	0x3d491a91	0.0490976
108	0x3d00c515	0.031437952
109	0x3d3947bc	0.045234427
110	0xbcc80f22	-0.024421278
111	0x3ccd86d9	0.025088714
112	0x3b92f850	0.0044851676
113	0xbb44a97e	-0.0030008252
114	0x3b7df98c	0.0038753478
115	0xbced8a9e	-0.028996762
116	0x3c13c088	0.009018071
117	0xbb1590d1	-0.0022821913
118	0x3cfc7d66	0.030821513
119	0x3d243557	0.04008993
120	0x3d00f0f7	0.031479802
121	0x3c7c3a9e	0.015394835
122	0xbcc0d27b	-0.023537865
123	0xbc8ad1d1	-0.016945751
124	0xbd131933	-0.035912704
125	0x3d2b336d	0.04179709
126	0x3d36af7e	0.044600956
127	0x3cd63b94	0.026151456
128	0xbc3e2924	-0.011606488
129	0x3c105f49	0.00881178
130	0x3bcb9b79	0.006213602
131	0x3ace859a	0.0015756369
132	0x3d0cdfbc	0.034393057
133	0xbcdd1499	-0.02698736
134	0xbcf2d526	-0.029642653
135	0xbcddee9e	-0.02709132
136	0x3d59634f	0.053073224
137	0x3d0d9421	0.034565095
138	0x3c81db28	0.015851572
139	0xbc06f45b	-0.00823697
140	0xbc8f21bd	-0.017472142
141	0xbcadc0a1	-0.021210017
142	0xbc45cf53	-0.012073356
143	0x3d4855e0	0.04891002
144	0x3d023e54	0.031797722
145	0x3c69d13c	0.014271077
146	0x3c35591f	0.011068611
147	0x3d325ab5	0.043543536
148	0x3d1d5c4b	0.038418096
149	0x3cd72176	0.026261073
150	0x3cfdfd68	0.031004623
151	0x3c505039	0.012714439
152	0xbc7084e1	-0.014680118
153	0x3ccc0682	0.024905447
154	0xbce3e2c2	-0.027818087
155	0x3c0b9848	0.008520193
156	0xbc2ffcd5	-0.010741432
157	0xbc0412a3	-0.008061084
158	0xbce29ec2	-0.027663592
159	0x3b5a56be	0.0033315863
160	0xbbd2da60	-0.0064347237
161	0x3cd2486f	0.025669305
162	0xbb2f51fb	-0.0026751745
163	0x3d1e841a	0.0387002
164	0x3b97735a	0.0046219053
165	0x3d23d69e	0.039999597
166	0x3c091ce7	0.008368707
167	0x3d43beaa	0.047789253
168	0xbc859f1a	-0.016311217
169	0xbc2df930	-0.010618493
170	0x3d365008	0.044509917
171	0xbcff2e98	-0.031150147
172	0x3b8e45a2	0.004341797
173	0xbb1448a2	-0.00226263
174	0x3cafe7d2	0.021472845
175	0xbc95bec9	-0.01827945
176	0x3d2f436e	0.042788915
177	0x3b96fdd2	0.0046078945
178	0xbca593b3	-0.02021203
179	0x3bb58d1a	0.0055405023
180	0x3d4fc065	0.05072059
181	0x3cbe8f82	0.02326179
182	0x3ca49cfa	0.020094384
183	0x3cd2ca94	0.025731362
184	0x3a705c51	0.00091690297
185	0x3b53a64f	0.0032295173
186	0x3cbec3c7	0.023286713
187	0x3c0bf119	0.008541369
188	0x3cbdbf98	0.023162648
189	0x3d150989	0.036386047
190	0xbcdfbe89	-0.027312534
191	0x3d17843c	0.036991343
192	0x3d12a26c	0.03579943
193	0xbc903c8d	-0.017606998
194	0x3d2facf3	0.042889547
195	0x3b6b3705	0.0035890948
196	0x3be9cb42	0.007134826
197	0xbaa3c547	-0.0012494706
198	0x3d1e55d7	0.038656082
199	0x3d51fcaf	0.05126637
200	0x3c8c4baf	0.017125932
201	0x3d34e91c	0.044167623
202	0x3d2b5ef0	0.041838586
203	0x3d3bae75	0.045820672
204	0x3cfe7df9	0.031065928
205	0x3d478537	0.048711028
206	0x3cde586b	0.02714177
207	0xbc2df928	-0.0106184855
208	0x3bad6832	0.005291962
209	0xbc110e06	-0.008853441
210	0xbb92f432	-0.0044846768
211	0x3cf491f8	0.02985476
212	0xbaaec572	-0.001333399
213	0xbc9d6ecd	-0.019217873
214	0x3d3ab37c	0.045581326
215	0xbd0a09fb	-0.033700924
216	0x3cb1df30	0.02171287
217	0x3d243865	0.040092845
218	0xbc34cc62	-0.011035057
219	0x3be823c7	0.007084343
220	0x3c55ccf5	0.013049354
221	0xb9dd3ee0	-0.0004219925
222	0xbd04679c	-0.032325372
223	0xbcae7d5b	-0.021300009
224	0x3cf88c46	0.030340325
225	0x3b754fa7	0.003743151
226	0x3bb314cf	0.005465127
227	0x3c89f836	0.016841989
228	0x3d4c44d0	0.049870312
229	0xbcce6e69	-0.025199132
230	0xb9d0b19a	-0.00039805175
231	0x3cfa3654	0.030543484
232	0xbcb36f97	-0.021903796
233	0xbcfdabda	-0.030965734
234	0x3d192c76	0.037395917
235	0x3c2f5304	0.010700945
236	0xbcc781d3	-0.024353897
237	0xbcb314f7	-0.021860583
238	0x3d2a3276	0.04155203
239	0x3b218ca1	0.0024650472
240	0x3cd4c569	0.025973039
241	0xbcaf89d4	-0.021428026
242	0xbcd24f45	-0.025672564
243	0x3cbeaaf0	0.023274869
244	0xbce91d93	-0.028456485
245	0x3c23fa8d	0.010008466
246	0xbc8296ad	-0.015940988
247	0xbbc87a53	-0.006118098
248	0x3bea9def	0.0071599404
249	0x3c74c620	0.014939815
250	0x3bb1694b	0.005414163
251	0x3c02147b	0.007939453
252	0xbc93fd63	-0.01806516
253	0x3d0fd2ac	0.03511302
254	0x3c3c249f	0.0114833405
255	0x3d0442a2	0.03229011

global_pool.0.weight f4 [64, 64, 3, 3]
0	0x3b94ca8f	0.0045407484
1	0xbd071ffa	-0.03298948
2	0x3cfb287d	0.030658955
3	0x3c9a769a	0.018855382
4	0xbcb2dc85	-0.021833668
5	0x3c47282c	0.012155574
6	0xbc036e19	-0.008021855
7	0x3cff4f29	0.031165676
8	0x3babe212	0.0052454555
9	0x3c1ddf7d	0.009635803
10	0xbc11224e	-0.0088582765
11	0x3cfa4107	0.030548586
12	0x3b4c6256	0.0031186542
13	0xbd085876	-0.033287488
14	0xbc441466	-0.011967754
15	0x3d3579bd	0.04430555
16	0xbaa80fcc	-0.0012822091
17	0x3ce35b3b	0.027753463
18	0x3d06debd	0.032927264
19	0xbc7f3ad5	-0.0155779915
20	0x3d00643a	0.031345583
21	0xbd36b9fd	-0.044610966
22	0xbd226c84	-0.03965427
23	0xbd3e198d	-0.046411086
24	0xbbb4cbe8	-0.0055174716
25	0xbc528a41	-0.012850345
26	0xbc4d21bd	-0.012520251
27	0x3d052ce6	0.03251352
28	0xbce60475	-0.028078297
29	0xbcbd437f	-0.023103474
30	0xbcf4d38d	-0.029886032
31	0xbd3caaf9	-0.04606149
32	0x3c73eb38	0.0148876235
33	0xbc8d73ed	-0.017267192
34	0xbc6ccad7	-0.014452658
35	0xbb42490e	-0.0029645595
36	0x3b4b2fc9	0.0031003824
37	0xbcb5fb7d	-0.022214646
38	0xbc61dc57	-0.013785443
39	0x39fd97dd	0.00048369067
40	0xbd3c0f99	-0.045913313
41	0xbccd7217	-0.025078816
42	0xbd004f8a	-0.031325854
43	0x3c3e3475	0.011609186
44	0x3cd29e9a	0.025710393
45	0x3c549b1a	0.012976432
46	0x3d0c3a45	0.034235258
47	0xbd063b15	-0.03277119
48	0xbcbf1497	-0.023325248
49	0xbd070f0f	-0.032973345
50	0xbd263770	-0.040580213
51	0xbd3b5533	-0.04573555
52	0xbc854fca	-0.016273398
53	0x3958d4e2	0.0002067867
54	0xbb952baf	-0.0045523266
55	0x3c8fc363	0.017549222
56	0xbd1bc059	-0.038025234
57	0xbc142f8a	-0.009044537
58	0x3cde3a24	0.027127333
59	0x3ce7350c	0.028223537
60	0xbd022b06	-0.03177931
61	0xbd2d45a7	-0.042302754
62	0x3d0155f9	0.03157613
63	0xbcd61294	-0.026131906
64	0x3d0649ae	0.03278511
65	0x3cbb08b1	0.022831293
66	0x3cba9ec4	0.022780783
67	0x3d023d49	0.031796727
68	0x3c211878	0.009832494
69	0x3ccd26ef	0.025042979
70	0x3904a9e3	0.00012651789
71	0xbd142314	-0.036166266
72	0xbaa2a8e8	-0.0012409957
73	0xbd124b5e	-0.035716407
74	0x3caea26d	0.021317685
75	0x3bff1285	0.00778419
76	0xbb6303e3	-0.0034639768
77	0x3cb415b8	0.021983013
78	0x3baba75c	0.0052384567
79	0x3d1809c6	0.037118696
80	0xbccb07e8	-0.024784043
81	0xbd2ed541	-0.042683844
82	0x3ae765e4	0.0017654267
83	0x3d04e67b	0.032446366
84	0xbbbcb3ab	-0.005758723
85	0x3ab0e337	0.001349545
86	0xb9f73bee	-0.00047156162
87	0xbcbfce9f	-0.023413954
88	0x3c766f48	0.01504118
89	0x3c4fe3d5	0.012688597
90	0xbcf67e67	-0.03008957
91	0xbd01bad8	-0.03167233
92	0xbc2b876d	-0.0104693
93	0x3d0cd69e	0.034384362
94	0xbd18f95d	-0.037347186
95	0x3cfe395f	0.031033216
96	0xbcfd0d08	-0.030890003
97	0x3cf66167	0.030075742
98	0x3d19eedd	0.037581313
99	0x3c115e39	0.008872562
100	0xbd034dbf	-0.032056566
101	0xbc1cb5b9	-0.00956481
102	0x3b3929c7	0.002825366
103	0x3ca0f8ad	0.019649828
104	0xbb8a9562	-0.0042292336
105	0x3d278e7b	0.040907364
106	0xbd04e986	-0.032449268
107	0xbc9e03f3	-0.019288993
108	0xbd0a05fd	-0.033697117
109	0x3b8e10be	0.004335492
110	0xbbeee8ef	-0.0072909514
111	0xbcc40935	-0.023930172
112	0x3c54f6b8	0.012998275
113	0xbc8412d1	-0.016122254
114	0xbd2aee76	-0.04173132
115	0x3b368658	0.0027851071
116	0x3c31a66b	0.0108429
117	0x3d0b12f6	0.03395363
118	0xbd288333	-0.041140746
119	0x3c053249	0.008129665
120	0xbd0567f3	-0.032569837
121	0x3c6144e3	0.013749334
122	0xbc66c662	-0.014085384
123	0x3c03585a	0.00801667
124	0xbd369735	-0.044577796
125	0xbc117deb	-0.008880119
126	0xbd39e12e	-0.045380764
127	0x3b55c686	0.003261955
128	0x3cf2914e	0.029610302
129	0xbc92a42c	-0.017900549
130	0x3b854cca	0.004067992
131	0xbc9661d3	-0.018357193
132	0x3cfee105	0.031113157
133	0x3cbe13cf	0.023202805
134	0xbc805624	-0.015666075
135	0xbb987c4c	-0.004653489
136	0x3bc86f3a	0.006116775
137	0xbd01a7d1	-0.031654183
138	0xbcdc8a2b	-0.026921352
139	0x3c98d17e	0.018654581
140	0xbc8945fa	-0.016757
141	0x3c1be310	0.009514585
142	0x3c574efc	0.01314139
143	0xbd3e385b	-0.046440464
144	0x3d10d3db	0.03535829
145	0x3c8e5161	0.017372789
146	0x3cad66de	0.021167215
147	0x3cf1923c	0.029488675
148	0xbd288618	-0.041143507
149	0xbb8ef439	-0.0043626097
150	0x3ba4b57a	0.0050265165
151	0xbd07ad5d	-0.033124316
152	0xbcdad160	-0.026711166
153	0x3c6710da	0.014103139
154	0x3d0e3b4c	0.03472452
155	0x3c5abf63	0.013351294
156	0x3c3850f2	0.011249768
157	0x3cfaf185	0.030632744
158	0xbd3eefee	-0.046615534
159	0xbcf2debf	-0.02964723
160	0x3ca5f045	0.020256171
161	0xbd18acf5	-0.03727432
162	0x3b432b4f	0.0029780453
163	0xbbef1b17	-0.0072969305
164	0xbb8f10af	-0.0043660025
165	0x3c4cbcac	0.012496155
166	0xbcef2d59	-0.029196428
167	0xbcd766a3	-0.026294058
168	0xbd18a0f6	-0.03726288
169	0xbd268784	-0.04065658
170	0xbd0ee171	-0.034882966
171	0xbc370836	-0.011171391
172	0xbc509de3	-0.012732956
173	0xbc7f673d	-0.015588579
174	0xbd138294	-0.0360132
175	0xbd19feaf	-0.0375964
176	0xbc8d2895	-0.017231265
177	0xbd22f776	-0.03978678
178	0xbb9ec320	-0.004845038
179	0xbcc934ed	-0.02456137
180	0xbc24c41b	-0.010056521
181	0xbc425008	-0.011859901
182	0x3b485d4e	0.0030573192
183	0xbcbeea35	-0.023305038
184	0x3ce7cb30	0.02829513
185	0xbd16da28	-0.036829144
186	0x3d01b610	0.03166777
187	0x3b829ac0	0.003985733
188	0x3ccd833e	0.025086995
189	0x3d10ad18	0.035321325
190	0x3d270185	0.040772934
191	0xbce43335	-0.027856449
192	0xbaa8a603	-0.0012866858
193	0xbb450083	-0.003006012
194	0x3c9614b2	0.018320415
195	0xbca46d0a	-0.020071525
196	0x3c2a3a33	0.010389852
197	0x3c8bd416	0.017068904
198	0x3c33137b	0.0109299375
199	0x3ccb4178	0.024811491
200	0x3bbe5625	0.005808609
201	0xbd2f1efb	-0.042754155
202	0x3d168cb3	0.036755275
203	0x3cc82c45	0.024435172
204	0x3bca84af	0.006180368
205	0x3cf8ecbf	0.030386327
206	0x3c9b7dbf	0.018980859
207	0xbc3d09e6	-0.0115380045
208	0x3ce378b7	0.027767522
209	0x3cbbb8a9	0.022915201
210	0xbcb4e63d	-0.022082442
211	0x3c51d6fb	0.012807603
212	0xbae01c78	-0.0017098328
213	0xbd1133de	-0.035449855
214	0xbca4a96c	-0.020100318
215	0x3ccefa9b	0.025265982
216	0x3cd3d883	0.025860077
217	0x3cc0ad28	0.023520067
218	0x3ba4b313	0.00502623
219	0x3cc1a3d2	0.023637686
220	0x3c964f94	0.018348493
221	0x3cb7dc88	0.022444025
222	0xbc94afc9	-0.018150227
223	0x3cc2175f	0.023692785
224	0xbc710b28	-0.0147121325
225	0xbca6f7e9	-0.020381885
226	0xbcd9b4fd	-0.02657556
227	0xbc73acb6	-0.01487272
228	0x3cfdb307	0.030969156
229	0x3bc0996d	0.005877665
230	0x3c97103b	0.018440356
231	0x3c4986f3	0.012300241
232	0xbca67df2	-0.020323727
233	0x3ce0ed4d	0.027456904
234	0x3c409144	0.011753384
235	0xbce19179	-0.027535187
236	0xbd0b614f	-0.034028348
237	0xbb9b9b3b	-0.0047487295
238	0x3bf68988	0.007523719
239	0xbbfe645b	-0.007763428
240	0xbccc74ed	-0.024958098
241	0xbc686fab	-0.01418678
242	0xbd425afd	-0.047450054
243	0xbcc97269	-0.024590688
244	0x3c0375bb	0.008023675
245	0xbc6be125	-0.01439694
246	0x3bd28b2d	0.0064252825
247	0x3a7e9bb3	0.0009712532
248	0x3c7991fc	0.015232559
249	0xbd424ffb	-0.047439557
250	0xbd186803	-0.03720857
251	0xbd364665	-0.044500727
252	0x3d045bd9	0.032314155
253	0x3c2c0de4	0.010501359
254	0xbcc8c2bf	-0.024506925
255	0xbba95daf	-0.0051686387

global_pool.0.bias f4 [64]
0	0xbbc3e5da	-0.005978328
1	0xbcb5fec9	-0.022216218
2	0x3c2afe58	0.010436617
3	0xbd354108	-0.04425147
4	0x3c18b51d	0.0093205245
5	0xbcb6a3ce	-0.022294905
6	0xbc8414c0	-0.016123176
7	0xbd09f269	-0.033678446
8	0x3a36c59b	0.00069721945
9	0xbd333521	-0.04375184
10	0x3cd2d9c5	0.025738606
11	0xbce1e6ee	-0.027575936
12	0x3c94910e	0.018135574
13	0x3b0d75ae	0.0021585035
14	0x3d261911	0.04055125
15	0xbcdd1b2d	-0.026990497
16	0xba6492d3	-0.0008719388
17	0xbc795775	-0.015218605
18	0x3cd12ef5	0.025535086
19	0x3c61bfa3	0.0137786
20	0xbd1d5f00	-0.038420677
21	0xbd23a2d1	-0.039950196
22	0xbd21beed	-0.03948872
23	0x3cc6e90c	0.024281047
24	0xbbae1faa	-0.0053138332
25	0x3d0bc66a	0.03412477
26	0xbd26161c	-0.04054843
27	0x3cb121d7	0.021622581
28	0x3d1951c7	0.037431505
29	0x3ce9d541	0.02854407
30	0x3caa7055	0.020805517
31	0xbc741fd5	-0.0149001675
32	0xbc56bdaa	-0.013106743
33	0x3cdd1559	0.026987718
34	0x3c4c2f25	0.012462412
35	0xbc3d762b	-0.011563818
36	0xbad50180	-0.0016251057
37	0x3b98187b	0.00464159
38	0x3d237a2c	0.039911434
39	0x3b98bc1c	0.0046610963
40	0x3bca8d74	0.0061814133
41	0x3d458538	0.04822275
42	0x3ca13eea	0.01968332
43	0xbc8f9f66	-0.017532062
44	0x3c8bb528	0.017054155
45	0xbc471ead	-0.01215331
46	0x3c908d82	0.017645601
47	0xbc2599d4	-0.010107476
48	0x3d3d9f3e	0.046294443
49	0xbc8d7e25	-0.017272064
50	0xbbdc8ad7	-0.006730418
51	0xbce818a4	-0.028332062
52	0x3c2baaa0	0.010477692
53	0x3d1a0b84	0.03760864
54	0x3d24a7c7	0.040199067
55	0x3c2bc429	0.01048378
56	0xbd1b2d0c	-0.037884757
57	0xba90ffa4	-0.0011062515
58	0x3b250206	0.0025178208
59	0xbc90bfa3	-0.017669505
60	0xbb8c5fea	-0.004283895
61	0xbd37905a	-0.0448154
62	0x3b59b036	0.0033216602
63	0x3b8e3f2a	0.004341026

head.1.weight f4 [64]
0	0x3f7e766e	0.9939946
1	0x3f7e93b5	0.99444133
2	0x3f7e766c	0.9939945
3	0x3f800000	1.0
4	0x3f7f1c9b	0.99653023
5	0x3f7ad825	0.9798606
6	0x3f79c3f5	0.9756463
7	0x3f800000	1.0
8	0x3f783489	0.9695516
9	0x3f800000	1.0
10	0x3f7e4bc6	0.9933437
11	0x3f6f4e61	0.9347897
12	0x3f800000	1.0
13	0x3f800000	1.0
14	0x3f7eb967	0.9950165
15	0x3f7e766d	0.99399453
16	0x3f7fb52e	0.99885833
17	0x3f7e766c	0.9939945
18	0x3f800000	1.0
19	0x3f806bb0	1.0032864
20	0x3f800000	1.0
21	0x3f800000	1.0
22	0x3f804493	1.0020927
23	0x3f81b1a5	1.0132338
24	0x3f7e93b5	0.99444133
25	0x3f765355	0.96220905
26	0x3f7e93b9	0.99444157
27	0x3f7e766c	0.9939945
28	0x3f7f5c50	0.9975023
29	0x3f74eeb3	0.95676726
30	0x3f7fe39d	0.99956685
31	0x3f800000	1.0
32	0x3f7d93e8	0.9905381
33	0x3f7e7687	0.9939961
34	0x3f7e766d	0.99399453
35	0x3f81a03e	1.0127027
36	0x3f7e772d	0.994006
37	0x3f7e93b8	0.9944415
38	0x3f7faca7	0.9987282
39	0x3f800000	1.0
40	0x3f7e7514	0.993974
41	0x3f80d4cf	1.0064944
42	0x3f7a25a4	0.97713685
43	0x3f7fc9e3	0.9991743
44	0x3f7ddda1	0.99166304
45	0x3f81369c	1.009479
46	0x3f7eadea	0.9948412
47	0x3f80efc4	1.0073171
48	0x3f7fc0e2	0.9990369
49	0x3f7e766c	0.9939945
50	0x3f7e704b	0.99390095
51	0x3f7e766c	0.9939945
52	0x3f80c20e	1.0059221
53	0x3f792c18	0.97332907
54	0x3f806aec	1.003263
55	0x3f800000	1.0
56	0x3f724fc2	0.9465295
57	0x3f76444a	0.9619795
58	0x3f7e93c8	0.99444246
59	0x3f7a4e90	0.97776127
60	0x3f7e76af	0.99399847
61	0x3f77460f	0.96591276
62	0x3f7ef714	0.9959576
63	0x3f7e766c	0.9939945

head.1.bias f4 [64]
0	0xbbc4c994	-0.0060054753
1	0xbbb62740	-0.005558878
2	0xbbc4c9c7	-0.006005499
3	0x00000000	0.0
4	0x3b71ba53	0.003688474
5	0x3a0e9952	0.00054397166
6	0xbd2b20d3	-0.04177935
7	0x00000000	0.0
8	0xbcedde48	-0.029036656
9	0x00000000	0.0
10	0xbbfb8b13	-0.007676491
11	0xbd6c265f	-0.05765378
12	0x00000000	0.0
13	0x00000000	0.0
14	0xbd03c28d	-0.03216796
15	0xbbc4c9c9	-0.0060055
16	0x3c2fd31e	0.010731487
17	0xbbc4c9c9	-0.0060055
18	0x00000000	0.0
19	0x3b414d3a	0.0029495494
20	0x00000000	0.0
21	0x00000000	0.0
22	0x3b00eefb	0.0019673693
23	0x3c16e94c	0.009210896
24	0xbbb6273b	-0.005558876
25	0xbcebbdf2	-0.028777096
26	0xbbb6267c	-0.005558787
27	0xbbc4c9c9	-0.0060055
28	0xba9374a2	-0.0011249969
29	0xbc90f29b	-0.017693808
30	0x3b92de54	0.00448207
31	0x00000000	0.0
32	0xbc2ec6dc	-0.010667529
33	0xbbc4c96d	-0.006005457
34	0xbbc4c9c3	-0.006005497
35	0x3c37c04b	0.01121528
36	0xbbc4c94c	-0.006005442
37	0xbbb6271b	-0.005558861
38	0x3bbff82c	0.005858442
39	0x00000000	0.0
40	0xbbf297a1	-0.0074033295
41	0x3c0710a9	0.008243718
42	0xbc5cd394	-0.0134781785
43	0xbc10b550	-0.008832291
44	0xbc0a03d0	-0.0084237605
45	0x3c22309d	0.009899286
46	0x3b8097f2	0.0039243633
47	0x3be68c45	0.0070357644
48	0xbd029319	-0.031878565
49	0xbbc4c9c9	-0.0060055
50	0xbbc7e43f	-0.006100207
51	0xbbc4c9c7	-0.006005499
52	0xbbe81332	-0.0070823664
53	0xbcce989e	-0.025219258
54	0x3bc99f70	0.0061530396
55	0x00000000	0.0
56	0xbd0d91ef	-0.034563
57	0xbd13d070	-0.036087453
58	0xbbb62714	-0.0055588577
59	0xbcaca5fc	-0.021075241
60	0xbbc4c657	-0.0060050893
61	0xbc9fbbd5	-0.019498745
62	0x3ba8fd0a	0.0051571177
63	0xbbc4c9ca	-0.0060055004

head.3.weight f4 [64, 64]
0	0x3d1d6b1a	0.038432218
1	0xbd962a8d	-0.07332335
2	0xbbb308d7	-0.0054637003
3	0xbcf2f6d0	-0.029658705
4	0xbd87f6b5	-0.066388525
5	0xbd329bf5	-0.043605763
6	0xbdd52103	-0.10406687
7	0x3dbc2764	0.09187201
8	0xbdd46c85	-0.10372261
9	0x3d6e121c	0.05812274
10	0xbd54f135	-0.051987845
11	0x3e085b1f	0.1331601
12	0xbd3fc0ac	-0.046814606
13	0x3db0b1a2	0.08627631
14	0xbd127ac2	-0.035761602
15	0xbd1fdde1	-0.03902996
16	0xbdaa969a	-0.08329506
17	0xbcb30de2	-0.021857206
18	0xbd635688	-0.055502445
19	0xbdf8a1cd	-0.12140236
20	0xbd8f5410	-0.069984555
21	0xbd635e0c	-0.055509612
22	0x3da3e3cc	0.08002433
23	0xbd683cff	-0.056698795
24	0x3dbf2731	0.09333647
25	0x3c1627a4	0.0091647245
26	0xbd4e6f8a	-0.05039934
27	0x3cdd419d	0.027008826
28	0xbcff5edb	-0.03117316
29	0xbdaae1c9	-0.08343846
30	0x3dab552b	0.08365854
31	0x3d18ae9c	0.037275895
32	0xbcc8779b	-0.024471095
33	0xbcc64e4a	-0.024207253
34	0x3dcc0d42	0.09963466
35	0x3dda15db	0.106487
36	0x3da4dde2	0.08050133
37	0xbcb256b0	-0.021769851
38	0x3d86a091	0.06573594
39	0x3d20a664	0.039221182
40	0xbcb98ec9	-0.022651093
41	0xbdf78c61	-0.12087322
42	0xbd7814bc	-0.06056665
43	0x3d9e0f69	0.07717783
44	0x3db550be	0.08853291
45	0x3d830409	0.06397254
46	0xbdb87a98	-0.09007758
47	0xbd150745	-0.036383886
48	0x3d22622a	0.039644398
49	0x3d7a5e02	0.06112481
50	0xbd886d05	-0.06661419
51	0x3d20546a	0.039143004
52	0x3de27f38	0.11059421
53	0xbc6549f3	-0.013994682
54	0xbde9b381	-0.11411191
55	0xbcd862a8	-0.02641423
56	0x3dacd91d	0.084398486
57	0xbd41ea2b	-0.04734246
58	0xbb539454	-0.0032284455
59	0x3d8b313b	0.06796499
60	0xbe018ee5	-0.12652166
61	0xbd876e1f	-0.06612801
62	0x3d230818	0.03980264
63	0x3db50be9	0.08840162
64	0xbbabac15	-0.0052390196
65	0xbc60d18e	-0.013721837
66	0xbcd20f8b	-0.025642177
67	0xbdd282ce	-0.10278855
68	0x3db8184b	0.089890085
69	0xbd5b6640	-0.05356431
70	0xbca4b4da	-0.020105768
71	0xbdb826e4	-0.08991793
72	0x3dd3c6e7	0.10340672
73	0xbd55efec	-0.05223076
74	0xbdae39be	-0.08507107
75	0xbde917df	-0.11381506
76	0xbd29aa18	-0.04142198
77	0xbb6b8280	-0.0035935938
78	0x3dbdc342	0.09265758
79	0x3dca1798	0.098677814
80	0xbde3aef0	-0.11117351
81	0x3dbbfbb5	0.09178869
82	0x3da93c38	0.08263439
83	0x3d5ee417	0.054416742
84	0xbd5c0138	-0.0537121
85	0xbd2412e8	-0.040057093
86	0x3da0d3f0	0.07852924
87	0xbde609b2	-0.11232318
88	0x3dc72c12	0.097252026
89	0xbda435dd	-0.08018086
90	0x3dba9f8f	0.09112465
91	0x3dd1d3df	0.10245489
92	0x3d2b7709	0.041861568
93	0x3d4cc78b	0.049994987
94	0xbde9882d	-0.114029266
95	0x3d94b684	0.072613746
96	0xbd82d0a2	-0.0638745
97	0x3d9b129b	0.07571908
98	0x3d9c06cb	0.07618483
99	0x3cdfacc2	0.027304057
100	0xbd709ea5	-0.058745045
101	0xbd34dd80	-0.04415655
102	0x3c04029d	0.008057264
103	0x3dbf92ec	0.09354195
104	0x3c3d6d53	0.011561709
105	0x3dc248b8	0.09486526
106	0x3c9936b7	0.018702848
107	0x3dd700b2	0.104981795
108	0x3d2d736d	0.042346407
109	0x3d01f94f	0.0317319
110	0xbdd51d41	-0.1040597
111	0xbd5483e2	-0.051883586
112	0x3d5b2c1f	0.053508874
113	0xbdad0be1	-0.08449531
114	0x3d43ba06	0.047784828
115	0xbc684845	-0.014177387
116	0x3d9aa22e	0.075504646
117	0xbdde6d13	-0.10860648
118	0xbc17a19f	-0.009254842
119	0x3cec3df0	0.028838128
120	0xbd5912de	-0.05299651
121	0xbdc04cc0	-0.09389639
122	0x3e01ce17	0.12676273
123	0x3bcb48a0	0.006203726
124	0xbd50a603	-0.05093957
125	0xbc081d00	-0.008307695
126	0xbde25933	-0.1105217
127	0x3b9ffe2f	0.004882596
128	0x3daeab14	0.08528724
129	0x3d399c66	0.04531517
130	0xbdbd750d	-0.09250841
131	0xbb9fcda0	-0.0048768073
132	0x3dde41d3	0.10852399
133	0xbdbe0b0e	-0.09279452
134	0xbda50da8	-0.08059245
135	0x3de68db4	0.112574965
136	0xbdc90889	-0.09816081
137	0x3dce850e	0.10083972
138	0x3c259794	0.01010694
139	0x3d99f7ab	0.07517942
140	0xbbf21800	-0.007388115
141	0xbd922d5e	-0.07137559
142	0x3da68624	0.08131054
143	0x3da8c597	0.08240812
144	0x3d580fc5	0.052749414
145	0xbd8f9684	-0.070111305
146	0xbdfeb392	-0.12436594
147	0xbd83525b	-0.064121924
148	0xbdbcb7b0	-0.09214723
149	0xbda96442	-0.08271076
150	0x3df00d1d	0.11721251
151	0xbdd3a255	-0.10333697
152	0x3d372975	0.04471727
153	0xbda2c225	-0.079471864
154	0xbc9cb972	-0.019131396
155	0x3d41effa	0.047348
156	0xbd1c124a	-0.03810338
157	0x3dcc62d9	0.09979791
158	0x3c2e5d8a	0.010642419
159	0x3dfaf2fc	0.12253377
160	0x3c3cfc40	0.01153475
161	0xbd8481e3	-0.064700864
162	0x3bbfdd02	0.0058552036
163	0x3dba7d72	0.09105958
164	0x3cd0d509	0.025492208
165	0x3cda2573	0.026629185
166	0xbd7fc0b8	-0.06243965
167	0x3cd462a0	0.025925934
168	0x3d8623ca	0.06549795
169	0xbd1a6c36	-0.037700854
170	0xbc1da2c1	-0.009621323
171	0xbb9ad1db	-0.0047247238
172	0x3c64ce15	0.013965149
173	0x3dbbe08f	0.091736905
174	0xbd7c2385	-0.06155731
175	0x3dbec308	0.09314543
176	0x3d7d545c	0.06184803
177	0x3d99fcef	0.075189464
178	0x3c459329	0.0120590115
179	0x3de49a6f	0.11162268
180	0x3c61e5ed	0.013787729
181	0x3dc035c8	0.09385258
182	0x3dc22256	0.09479205
183	0xbdd9c560	-0.106333494
184	0xbd4caffd	-0.049972523
185	0x3c320858	0.010866247
186	0xbb81d132	-0.0039617056
187	0x3b57a49f	0.0032904518
188	0xbd809fbd	-0.06280468
189	0x3d1fd5ae	0.03902214
190	0x3c1d3c1c	0.009596851
191	0xbcdd1bad	-0.026990736
192	0x3d8d76f6	0.069074556
193	0x3d1f678c	0.03891711
194	0xbdb0e409	-0.08637244
195	0xbda22552	-0.079172745
196	0x3de5bf8f	0.112181775
197	0x3d5276a7	0.051382687
198	0xbd55a202	-0.052156456
199	0xbd138740	-0.036017656
200	0x3c88aed6	0.01668493
201	0xbd0a7cc4	-0.033810392
202	0x3ddc32f9	0.1075191
203	0x3d30431d	0.043032754
204	0x3db50d16	0.088403866
205	0x3dba7c26	0.09105711
206	0xbca44a3c	-0.020054929
207	0xbc69bd4a	-0.014266321
208	0x3caeac61	0.021322431
209	0x3de87089	0.113495894
210	0x3d212e24	0.039350644
211	0x3d73a7c6	0.059486173
212	0xbd2c5c54	-0.04208024
213	0xbdbaec02	-0.09127046
214	0x3c95028e	0.018189695
215	0xbbcfdf02	-0.0063437233
216	0xbd9a22e5	-0.07526187
217	0xbc2ad762	-0.010427328
218	0x3da75624	0.08170727
219	0x3dd17efa	0.10229297
220	0x3d58366a	0.05278627
221	0xbd8d999c	-0.06914064
222	0xbd5b6e5e	-0.05357205
223	0xbd71e38c	-0.059054896
224	0x3c6641dc	0.014053788
225	0xbdf0e71c	-0.117628306
226	0x3df2e3fd	0.118598916
227	0xbd7ce9a2	-0.061746247
228	0xbc5a8bf2	-0.01333903
229	0xbcc3d748	-0.023906365
230	0x3de3123c	0.11087462
231	0xbde09476	-0.10965817
232	0x3c71866b	0.01474152
233	0x3def95d8	0.11698502
234	0x3e11d0c2	0.14239791
235	0xbd3f8b0c	-0.046763465
236	0x3c109295	0.00882401
237	0x3d5f026a	0.05444566
238	0xbddf1a97	-0.108937435
239	0x3d78ff2e	0.060790233
240	0xbd192216	-0.037386023
241	0xbd54f9e5	-0.05199613
242	0x3db285ec	0.0871695
243	0xbdd23fbb	-0.10266062
244	0xbdd07c43	-0.10179951
245	0x3d9c5dab	0.07635053
246	0xbd82c6ae	-0.063855514
247	0xbda18a5c	-0.07887718
248	0xbd23de52	-0.040006943
249	0xbaec1912	-0.0018012843
250	0x3df2d642	0.11857273
251	0xbdfb1444	-0.12259725
252	0x3dd83961	0.10557819
253	0x3d808d99	0.062770076
254	0x3d80d156	0.06289928
255	0x3d97897f	0.07399272

head.3.bias f4 [64]
0	0x3d85bb4d	0.065298654
1	0xbb032a94	-0.0020014392
2	0xbd75d546	-0.060017847
3	0x3b8280ad	0.0039826245
4	0xbd14d594	-0.036336496
5	0x3e0c13ce	0.1367943
6	0xbdeda653	-0.116039895
7	0x3d1cf492	0.038319178
8	0xbd6950e1	-0.056961898
9	0x3d3ce632	0.04611797
10	0xbd9eb476	-0.07749264
11	0xbd089eda	-0.033354618
12	0x3d6b7169	0.057481203
13	0xbdc2d957	-0.095141105
14	0xbd59668c	-0.053076312
15	0x3d6a1210	0.057146132
16	0x3cb9ec08	0.022695556
17	0xbd1bf1de	-0.03807246
18	0x3b228053	0.0024795725
19	0x3dcf48f4	0.101213366
20	0xbd22097d	-0.03955983
21	0x3d20ad30	0.039227664
22	0x3d86b967	0.065783314
23	0xbdd50a52	-0.10402359
24	0xbdc6be6d	-0.097042896
25	0xbde639c3	-0.11241486
26	0xbcabef70	-0.020988196
27	0xbdabfcba	-0.08397813
28	0x3d048ad0	0.032358944
29	0x3dbc08b6	0.09181349
30	0xbd82fa68	-0.063954175
31	0x3c8c8178	0.01715158
32	0xbdbbeb01	-0.09175683
33	0x3dc77b88	0.097403586
34	0x3d271501	0.040791515
35	0xbd928bf9	-0.07155604
36	0xbda9268a	-0.08259304
37	0xbd8d36d6	-0.06895225
38	0xbd7b7e55	-0.061399776
39	0xbd8edf45	-0.06976179
40	0x3ce22a5e	0.027608093
41	0xbd89f1ff	-0.0673561
42	0xbd36fb8c	-0.044673488
43	0xbd0a6f3b	-0.033797484
44	0xbd87695d	-0.06611893
45	0x3ceb9c49	0.028761046
46	0x3dd43028	0.103607476
47	0xbb52fc1d	-0.0032193728
48	0x3b9cb6e0	0.0047825426
49	0x3cbbc619	0.022921609
50	0xbd98cc9d	-0.07460902
51	0x3d92989a	0.07158013
52	0xbd709b3a	-0.058741786
53	0xbddedb8d	-0.1088172
54	0xbc1e8c80	-0.0096770525
55	0x3d9b1678	0.07572645
56	0xbd9b415b	-0.07580825
57	0x3d580455	0.052738506
58	0x3ddd7edd	0.10815213
59	0x3dd51178	0.104037225
60	0xbd83e0ed	-0.064393856
61	0x3d02cafc	0.031931862
62	0xbb81fcd7	-0.0039669084
63	0x3dc2004e	0.09472714
