outputs/exp_v1/checkpoints/epoch_10.pth (torch, 651919 bytes, 13 tensors)

base.0.weight f4 [64, 3, 7, 7]
000000 8b 55 af bc 69 ae 6e 3d c3 9b 1f bd 50 37 9f 3b
       -0.021403095 0.0582718 -0.038966905 0.0048588887
000010 28 91 79 bb 63 7a 88 bd bc d2 60 3b 17 4a 85 3d
       -0.0038080905 -0.066639684 0.0034305295 0.06508272
000020 f7 2d 4c 3c 98 1c 56 3d 06 0f 7c bd 29 a2 91 bd
       0.012462131 0.052273363 -0.061537765 -0.07111008
000030 40 80 8a 3d 75 3f 8d 3d 53 ca c1 3c 58 e0 9e 3d
       0.06762743 0.06896869 0.023656046 0.07757634
000040 fa f9 1a bd 4f 02 89 bd 70 0d c3 3c 98 98 14 3c
       -0.037836052 -0.066898935 0.023810118 0.009069584
000050 3e d6 e5 3c d3 ba 45 3d 08 c7 46 bd 20 37 f8 bc
       0.02805626 0.048273873 -0.048529655 -0.030299723
000060 2e f8 4e bd 8e 28 a7 bd 03 9c ce bc 4d b7 98 3d
       -0.05052965 -0.08162032 -0.025220877 0.07456837
000070 fc 04 91 bd b1 e8 36 3d 92 9f 43 bd 30 1a 86 bd
       -0.07081029 0.044655506 -0.0477596 -0.065479636
000080 1b 89 69 3a 9c 33 3e 3d 0b fd 14 39 67 ea 8e 3c
       0.0008908675 0.046435937 0.00014208646 0.017445756
000090 db c4 9a bd 54 da 68 3d 24 16 81 bd c2 d7 f1 3c
       -0.075570785 0.05684884 -0.06303051 0.029521827
0000a0 8e e5 98 3d 08 16 96 3b 1a 62 ac bd e9 cc a2 bd
       0.07465659 0.004580263 -0.08417149 -0.0794924
0000b0 21 2e d2 3c 4a d9 8d bd 2f 75 6e bd 08 09 0f bd
       0.025656762 -0.0692621 -0.058217224 -0.034920722
0000c0 4e ce 5a 3c ad 6a d3 3c 55 7f 3b bd a5 bf 70 bc
       0.013354851 0.025807703 -0.04577573 -0.014694129
0000d0 20 2e 66 3d 13 99 85 bd d8 0d 9e 39 2f d0 4c bd
       0.056196332 -0.06523337 0.00030146423 -0.050003227
0000e0 4c 7e 55 bc fe d1 64 3c ae bb 6e 3d cb fc aa bd
       -0.0130306 0.013966082 0.058284454 -0.08348998
0000f0 b5 15 b5 3c 9a 92 14 3d 9a ea 8c 3d 27 df 05 3d
       0.022105077 0.036272623 0.06880684 0.032683518
000100 32 75 3d 3d f9 4b 96 bd dc ac eb bc 8b 21 65 3c
       0.046254344 -0.073387094 -0.02876895 0.013985048
000110 4f 3c 8b bd d5 13 2e bd 5c 83 0c 3d e4 9f 19 bd
       -0.06798612 -0.042499382 0.03430496 -0.037506
000120 a7 93 23 3c db 26 04 3d d2 60 9a 3d 56 29 99 3d
       0.0099839335 0.032263618 0.07537998 0.07478587
000130 eb 8e 7f 3c 0c 20 86 bd 22 fb 27 bd 8c c9 81 3d
       0.015598039 -0.06549081 -0.041010983 0.0633727
000140 a6 58 85 3d 7e 81 fe 3c 39 89 8c bd 51 6e a3 3b
       0.06511049 0.031067606 -0.06862111 0.004987516
000150 41 8e 76 bb f6 00 95 bc b3 1e 10 bd d6 e9 c9 3c
       -0.003762141 -0.018188935 -0.035185527 0.024647634
000160 97 f4 88 3d e5 11 31 bd a4 79 26 3d 87 0e 7b bd
       0.06687277 -0.043229956 0.04064335 -0.06129315
000170 cc 4f f3 3c 29 01 ae bd 91 ca c4 3c 97 9b d1 3c
       0.029701136 -0.08496315 0.024022372 0.025586886
000180 71 5e 91 bd 1c 02 aa 3c 9f 61 6b 3c a0 c8 97 bd
       -0.070980914 0.020752959 0.014366536 -0.07411313
000190 3a d2 4c bd 7e 6a 0a 3c 24 6a 42 bc fd 25 0a 3b
       -0.050005175 0.008448241 -0.011866126 0.0021079772
0001a0 aa 4b 42 3d 7f 96 58 3d 5f ce 6e bd 3d 69 24 3d
       0.04743544 0.0528779 -0.05830228 0.040139426
0001b0 4b 74 dc 3c c7 49 c8 bc eb bd bd 3c 4a b1 f8 bc
       0.026910922 -0.024449242 0.023161849 -0.030357976
0001c0 f4 8c 1d bc 3d d1 89 3d d9 06 44 bc 4f e8 90 bc
       -0.009616125 0.06729362 -0.011964523 -0.017688898
0001d0 2d 45 a3 bd 4e a8 d7 bb ff c3 a7 bd a7 d0 e8 3b
       -0.079721786 -0.006581343 -0.0819168 0.0071049514
0001e0 ff d6 9b bc 7e 16 19 bd 7c 3d 22 bc d8 ac 12 3d
       -0.019023417 -0.037374966 -0.009902354 0.035809368
0001f0 d8 9a 0f 3d 94 a6 c5 bb c9 70 a8 bd 46 9b dc 3c
       0.03505978 -0.0060318206 -0.08224637 0.026929509
000200 98 69 64 bb 50 6d c0 bb 9f b0 ab bc c9 f1 66 bd
       -0.0034852978 -0.005872406 -0.020958243 -0.056382928
000210 0b 17 50 bd dd c3 80 bc 21 6d 23 3d 5e 64 3c 3d
       -0.050803225 -0.015718395 0.039898995 0.045994155
000220 1d 6b 92 3d 5c 6b 96 ba 16 55 a6 ba 8c 9a 15 bd
       0.071493365 -0.0011476087 -0.0012690153 -0.03652434
000230 50 2d 00 bd 40 f3 9f 3d 61 fe 1d 3c f8 45 a9 bd
       -0.031293213 0.07810068 0.009643168 -0.082652986
000240 f1 96 c7 3c 0f 98 68 3d bc ee 19 bd 0c d8 5c 3d
       0.024363967 0.05678564 -0.03758119 0.053916976
000250 7f 0a 45 bd 10 c0 38 3c 33 1a 66 bd 70 29 91 bd
       -0.048105713 0.01127626 -0.05617733 -0.07087982
000260 a6 71 72 3c 45 7b 27 3c 77 65 36 bd e7 4c 04 3d
       0.014797604 0.010222261 -0.04453036 0.032299902
000270 84 71 bc 3b 43 86 7a 3d 87 9d 87 bc 3f 6d 29 bb
       0.005750837 0.0611632 -0.016554607 -0.002585247
000280 86 b2 0f 3d d8 f5 fd bc 25 99 5e bd a2 39 8f 3c
       0.035082363 -0.031001016 -0.05434527 0.017483536
000290 cd e8 6d bd 6b 77 93 bc e1 c3 f9 3c d6 a2 88 3d
       -0.058083344 -0.018001279 0.03048891 0.066716835
0002a0 83 28 74 bc a0 15 34 3d 50 8c 87 3c 6e e0 75 bd
       -0.014902237 0.043965936 0.016546398 -0.060028486
0002b0 88 db 40 3d 7c ce 9b bd e2 f1 b3 bd 2b 15 a5 bd
       0.04708436 -0.07607743 -0.0878637 -0.08060678
0002c0 ae 35 86 bd 21 95 63 3d a1 10 4b bc e9 db a0 bd
       -0.06553207 0.055562142 -0.012394101 -0.078544445
0002d0 1c ed da ba b1 a4 22 3d 05 76 7d 3d 0d 04 98 3d
       -0.0016702744 0.039707843 0.06188013 0.074226476
0002e0 16 94 60 bd 26 a5 86 bd b0 eb df 3c 57 d5 42 bd
       -0.054828726 -0.06574468 0.027334064 -0.047566738
0002f0 19 87 a0 bc e1 cb 32 3c 99 58 92 3d aa 59 48 3d
       -0.01959567 0.010912866 0.07145805 0.048913635
000300 51 90 f8 3c bb 88 53 bd c5 2b fd bc f1 6b a4 bd
       0.030342253 -0.05164407 -0.03090466 -0.08028401
000310 c4 db d4 bb 36 f9 a8 3d 39 f5 61 3c 4e 04 9e 39
       -0.0064959247 0.08250658 0.013791376 0.00030139316
000320 85 76 61 3d 50 c3 82 bc bb d7 97 bc 01 12 a8 3d
       0.05504467 -0.015962273 -0.018535485 0.08206559
000330 9b 2e 84 bd b7 c4 eb 3a 99 af 2f bd 89 88 34 3d
       -0.06454202 0.0017987703 -0.042892072 0.044075523
000340 d8 ee 8f 3d 2e 1c d7 3c a2 69 36 bd ae c5 f5 3c
       0.07027978 0.026258554 -0.044534333 0.030001488
000350 d1 a8 61 3c 95 6b 69 3d 0d d8 64 3d c1 a8 d6 bb
       0.013773159 0.056987364 0.055870105 -0.0065508788
000360 6b 4f 5a bd 98 06 b1 3d 50 86 10 3d d6 30 83 3d
       -0.053298395 0.08643836 0.03528434 0.06405799
000370 f2 60 89 bd aa a5 61 bd 13 67 1c bd 2c fe 93 3d
       -0.06707944 -0.05508963 -0.038184237 0.07226214
000380 a9 ef 99 bd ca ed 92 bc ce d8 de 3b db 89 4f 3d
       -0.07516415 -0.017935652 0.0068007475 0.05066858
000390 e3 3b c6 3b 23 fa c5 3c 05 a5 8c bb 84 9a 38 3d
       0.0060496195 0.024167126 -0.004292133 0.045069233
0003a0 78 29 99 3c fb 69 78 bd fc 4b 08 bc 2f d6 3d 3d
       0.018696532 -0.060647946 -0.008318897 0.04634684
0003b0 2c e7 c4 3b ad b3 3c 3c f2 23 b1 3d f4 39 6b 3d
       0.006009003 0.011517447 0.08649434 0.057428315
0003c0 46 4b af 3d 9b 06 e4 3a d0 d2 6e 3d 99 8b 8f 3d
       0.08559279 0.0017396988 0.058306515 0.07009048
0003d0 4d 74 5d bd c7 c4 84 bd 01 cd 72 bd b9 95 25 bd
       -0.05406599 -0.06482845 -0.05927754 -0.04042599
0003e0 06 15 8b 3d 47 8c 97 bd de 63 9d 3d da ff 86 3d
       0.06791119 -0.07399803 0.07685064 0.065917686
0003f0 fc 6b be ba ef 01 96 bd 9d 5d 87 3d 57 f3 e2 39
       -0.0014528031 -0.073245876 0.06609652 0.0004328738

base.0.bias f4 [64]
000000 78 81 8c ba fe e9 e7 bc d6 7e 8c 3c 99 0c 91 bd
       -0.0010719737 -0.028309818 0.017150324 -0.07082481
000010 ac bf ec bb c6 db f4 3c 04 ea 2f bc 88 0a 90 3c
       -0.0072249975 0.029889952 -0.010736946 0.017583147
000020 af fd a7 bd 94 c8 9c bc 69 11 c4 bc 0f ce 02 3c
       -0.08202683 -0.019138612 -0.023934083 0.0079836985
000030 89 98 f4 3a 8d ea 12 bd 47 85 12 3c bc cf 55 3d
       0.0018661182 -0.035868216 0.008942909 0.052200064
000040 8b 08 8e 3d 86 8d 36 3b 1e 86 6a 3d 3e 59 64 3d
       0.06935223 0.002785535 0.05725681 0.05574917
000050 cc 76 80 bc 24 1c 80 bd 53 92 16 3b 02 3d 1f bd
       -0.015681647 -0.062553674 0.00229754 -0.03887654
000060 d4 69 8d bd 8c f1 74 3d eb 07 ca bc 48 97 5b 3d
       -0.06904951 0.05980067 -0.024661979 0.05361107
000070 12 45 3f 3c 6b 91 21 3d 25 bb ef 3c d6 a9 a7 3d
       0.0116741825 0.039445322 0.029264042 0.081866905
000080 3e 8b 8d 3c 1b 0e 26 3d 80 82 88 bd 52 3f 0b 3d
       0.01727831 0.040540796 -0.06665516 0.033995934
000090 55 9c 6d bd 94 b6 26 3c 88 4a e0 3c df 96 05 bd
       -0.058010418 0.010175366 0.02737929 -0.032614585
0000a0 af af 69 3d 82 49 3c bd 59 d1 b0 3d 1f 37 ab 3d
       0.05705231 -0.04596854 0.0863368 0.08360123
0000b0 12 ed 03 3b 7b 73 29 bd cb 5f a2 bd 1a 6b 9a bd
       0.0020130319 -0.041369896 -0.07928427 -0.07539959
0000c0 9e 00 bc bc b2 d0 2a bd e6 8e a9 bd 39 51 95 bc
       -0.022949513 -0.041702934 -0.08279209 -0.018227207
0000d0 7b 04 ac bb 1b f8 48 bd 2f 02 16 3b f9 de 5b bd
       -0.0052495576 -0.049064737 0.0022889485 -0.05367944
0000e0 58 5b cb 3c d9 aa 5a bc cb 61 88 3d 5d 1b 92 bd
       0.02482383 -0.013346397 0.066592775 -0.071341254
0000f0 4f c8 b2 3c aa 5d 5b 3d 75 5e 27 3d 8a 4b 87 3d
       0.02182403 0.053556122 0.040861566 0.06606205

res_blocks.0.conv.weight f4 [64, 64, 3, 3]
000000 d2 8f b5 bc c8 b6 a9 3a e2 e4 a8 bc f2 ef 63 bc
       -0.022163305 0.001294815 -0.020616952 -0.013912188
000010 e6 75 f9 bc 04 60 02 3b 97 79 bb 3c 51 c1 85 bc
       -0.030451726 0.0019893656 0.022885127 -0.016327532
000020 9c 31 2c 3d 27 16 1b bd dd 65 a0 3c 45 1d 16 3c
       0.0420395 -0.037862923 0.019579822 0.009162252
000030 f1 90 7e bc 6d 77 d2 bc 95 d7 0c 3d 75 9d 88 bc
       -0.015537486 -0.025691712 0.034385283 -0.016676644
000040 72 9d 46 3c a0 7f 20 3d 43 8e d8 bc 96 5e b5 3c
       0.012122499 0.039184213 -0.026435023 0.022139829
000050 0a ee 2b 3d f2 25 04 3d ef b6 c4 3c 78 f9 02 3d
       0.04197506 0.03226275 0.02401301 0.031976193
000060 ee 9d e2 3b 88 7e 09 3c 53 63 d7 3b cb 12 20 3d
       0.0069157993 0.008391984 0.0065731197 0.039080422
000070 3b 78 ad bb 80 1c db 3c 90 df fb 3c ff 9d a9 bb
       -0.0052938736 0.026746988 0.030746251 -0.0051763053
000080 9d 75 28 bb 3e 45 80 3c c6 ba 95 bc f1 a4 11 3d
       -0.0025704869 0.015658017 -0.018277537 0.03555769
000090 47 da 13 3c 96 7a 7c bc a0 3a 22 bd 1f 59 09 bd
       0.009024209 -0.015410086 -0.03960669 -0.033532258
0000a0 77 2d 84 bc ca 8b be 3c c7 d2 28 3d 5d 4e 00 3d
       -0.01613496 0.023260016 0.041216638 0.031324733
0000b0 da 83 cb bb ff 89 2a bc 14 df f8 bb 0a e7 e9 bc
       -0.0062107863 -0.010408877 -0.0075949524 -0.02855255
0000c0 7d 42 16 bd f0 5b 33 3d e2 db f3 3c 76 c5 a8 bc
       -0.036684502 0.04378885 0.029767934 -0.02060197
0000d0 7c 64 1b bb 51 bd 38 37 9e 7e 1e bd c5 a3 93 bb
       -0.0023711016 1.1011333e-05 -0.03869497 -0.004505607
0000e0 5d a0 05 bd 7a 2d 65 3a 32 70 cd 3c 9a 9b 8c bb
       -0.032623637 0.0008742433 0.025077913 -0.00429101
0000f0 6b af 8a 3b 2e 01 c2 3a c9 80 90 bc d1 f2 b1 3c
       0.004232337 0.0014801377 -0.017639535 0.02172223
000100 be 29 d8 3b 0f 26 8b bc d3 3c 78 3c a6 64 ae bc
       0.006596773 -0.016985921 0.01515122 -0.021288227
000110 84 35 0c bc 3b d2 d4 3c 28 48 7b 3c 87 c3 55 3c
       -0.008557681 0.025979152 0.015337028 0.013047106
000120 7e 3f f4 bb 89 e2 ed 3c d9 5e da bb b9 45 aa 3c
       -0.007453858 0.029038684 -0.0066641388 0.0207852
000130 33 a9 9c 3b 73 f0 bc bc 69 36 c7 3c 25 29 87 bc
       0.0047809123 -0.023063874 0.024317937 -0.016499111
000140 e7 8b 3b b9 cf 63 04 3c 8c 13 1b bc 55 87 60 bc
       -0.00017885827 0.008080437 -0.00946511 -0.013704141
000150 3c 4d 12 bd 2b 61 1b ba 20 12 86 bc 87 6a 96 bc
       -0.035718188 -0.000592726 -0.016366065 -0.018361343
000160 4b 3f 14 3d 3c 15 cb 3c f5 bf 0a bc 1e 21 e6 bc
       0.036193173 0.024790399 -0.008468618 -0.028091963
000170 18 8c 32 3a 1f 5a 14 3b f6 4d 2c 3c 69 de 79 bc
       0.0006811037 0.0022636724 0.010516634 -0.015250781
000180 df 3c b2 3c ed 08 40 bc 99 ea 99 bc 35 df dc bc
       0.021757541 -0.011720878 -0.018788623 -0.026961902
000190 36 b9 db ba dd fd 9d 3c c0 69 b1 bc 8f ac 8c 3c
       -0.0016763571 0.01928609 -0.02165687 0.017172126
0001a0 78 a0 11 bd a2 d8 8a 3c 05 b7 f9 bc 92 3f 7a bc
       -0.035553426 0.016949002 -0.030482778 -0.015273945
0001b0 90 fe 1b bd 91 df 1f 3d e3 e1 e2 3c 62 a4 16 3d
       -0.038084567 0.03903157 0.027695602 0.03677786
0001c0 61 91 1d bb 67 f3 b0 bc d8 27 0e bd 9c cd 94 ba
       -0.0024042951 -0.021600438 -0.034705967 -0.001135278
0001d0 04 92 f4 bc 69 cf c9 3a aa 9d 8d bc dd 26 18 3d
       -0.029854782 0.0015396896 -0.017287094 0.037146438
0001e0 00 3c fa bc aa 11 09 bd fd de f1 bc e2 57 03 bd
       -0.030546188 -0.03346411 -0.029525274 -0.032066233
0001f0 f0 7d 3b 3c 15 11 1d bd 06 66 c4 3c b5 56 b1 bc
       0.0114436 -0.03834637 0.02397443 -0.02164779
000200 dd cb e3 bc 00 2f bc 3c fd 87 e4 bc de 20 19 3c
       -0.02780717 0.02297163 -0.027896876 0.009346215
000210 98 1f 0c 3d a6 bb 0d 3c a7 10 04 3d f2 76 31 bc
       0.034209818 0.008650696 0.032242443 -0.010831581
000220 ae ed f3 bc 74 7e b7 3c b6 a0 24 bc 73 e8 1d bb
       -0.02977642 0.022399165 -0.010048082 -0.002409485
000230 73 9a c8 3c 3e 1b 2d 3d 91 df b1 3c e1 35 2c 3d
       0.02448771 0.04226231 0.02171305 0.04204357
000240 4d aa 2d bc 9c 7e 29 3d 29 b4 25 3d 91 5e 33 bc
       -0.010599685 0.04138051 0.040455017 -0.010947839
000250 86 3c 62 3b 88 f6 e5 bc 84 d0 0d bc 8f 82 3b 3c
       0.0034520938 -0.028071657 -0.008655671 0.011444702
000260 e3 2e 1c bd 32 1e 0c 3c f6 7a d4 3c ee 6f b5 bc
       -0.038130652 0.008552121 0.025937539 -0.022148099
000270 b1 b3 d9 bc c8 71 0b bc f8 ee c7 3c ea 43 c7 3b
       -0.026574941 -0.008511014 0.024405941 0.006081094
000280 12 c4 26 3d 2f 6e 09 3d ac 8c 3e 3b 6f 9e 1b bc
       0.04071433 0.033552345 0.0029075546 -0.009498223
000290 62 fd 22 bd 60 ed f3 3b 81 3e bf 3c 99 b6 00 bd
       -0.039792426 0.007444069 0.023345234 -0.03142414
0002a0 f6 e0 a2 3c 61 cc d0 bb 6c 23 a2 3c 09 b4 53 3b
       0.01988266 -0.00637202 0.019792281 0.0032303354
0002b0 2f a5 ab 3c 0d 82 1f bd 13 cd 2e 3c a9 4a 00 3d
       0.02095279 -0.038942385 0.010669011 0.0313212
0002c0 96 ff c5 3c 2c c5 ab 3c f3 5f 49 3c 77 2f 83 3c
       0.024169724 0.020968042 0.0122909425 0.016013844
0002d0 3d b8 7f bc 97 ec fe b9 7d 71 29 3d c4 b1 28 3c
       -0.015607891 -0.00048622928 0.041367996 0.010296289
0002e0 6c dd 16 3d 37 b9 90 3c f0 d8 17 3d 10 4b 8c 3c
       0.036832258 0.017666442 0.037072122 0.017125636
0002f0 c6 65 92 3b 0a 73 4c 3c e3 9a 20 3d 9b 46 2f bd
       0.0044676987 0.012478599 0.03921021 -0.042791944
000300 80 54 af 3c 85 26 b9 bb f6 ed 2c bc ff 47 9c bc
       0.021402597 -0.005650344 -0.010554781 -0.0190773
000310 97 cb b2 3a 25 34 af 3c b2 8b b8 3c e2 76 9f 3c
       0.0013640997 0.02138717 0.02252755 0.019465867
000320 43 44 e4 3c c6 66 29 3d 56 ba b7 bc e0 cb ed bb
       0.027864581 0.041357778 -0.02242772 -0.00725697
000330 04 34 48 3c 18 9c 01 3b e2 2b b9 3c 87 76 46 bc
       0.012219433 0.0019776877 0.022603933 -0.01211322
000340 52 99 32 3d 7d 06 df bc 2f 42 f4 bb 22 72 b6 bb
       0.04360325 -0.027224774 -0.0074541788 -0.005567805
000350 63 bf c5 3c 84 aa a2 bc ca 3a 3b 3d 7e 75 2c 3b
       0.024139112 -0.019856699 0.045710362 0.0026315148
000360 d3 2f b6 ba af 8e 19 3c e1 90 be 3b ec b2 29 3c
       -0.0013899751 0.009372397 0.0058156108 0.0103576
000370 93 88 25 bd 76 b9 c3 bc a3 69 08 bd b2 14 13 3d
       -0.04041345 -0.023892146 -0.033303868 0.03590841
000380 03 12 e7 bc c2 b9 5d 3c b1 4f f5 3c 8e a7 b0 bc
       -0.02820683 0.013533058 0.029945226 -0.021564271
000390 16 14 05 3d 50 84 12 bd c0 ce 5c 3a ef 53 69 3c
       0.03248986 -0.035770714 0.0008423142 0.014241203
0003a0 3a ba fa bc 0f ba f5 bc 3d ea 05 3d 02 2a d6 3b
       -0.030606378 -0.029995946 0.03269409 0.0065357694
0003b0 d0 ce 25 3d 30 83 49 3b 60 1b 32 3c a1 4c 9b 3c
       0.040480435 0.003074836 0.0108707845 0.018957438
0003c0 df 07 b1 3c 94 42 70 3c 8c c4 b9 3c a9 95 aa bb
       0.021610199 0.014664311 0.022676729 -0.005205829
0003d0 8a 4d a4 bc 90 9f 5b 3c 90 8c 68 3c 55 b3 e9 bb
       -0.020056505 0.013404742 0.014193669 -0.0071319737
0003e0 70 d9 ea 3b d0 33 1f 3d 25 e7 27 3d 10 c3 0c 3c
       0.007167034 0.03886777 0.04099192 0.008591428
0003f0 d0 a2 15 bd b1 9e 7f 3c b3 65 cf 3b 32 98 0c ba
       -0.036532223 0.0156018 0.006329262 -0.0005363255

res_blocks.1.conv.weight f4 [64, 64, 3, 3]
000000 7b 8c 09 bd 5f f0 20 bd 78 92 0c bd c3 18 3c bd
       -0.03358124 -0.039291736 -0.03431937 -0.045922052
000010 ce fb ea 3c 87 3c 67 bc 1f de b4 bc b7 a6 08 bd
       0.028684523 -0.014113552 -0.022078572 -0.033362117
000020 f5 24 9e bc 9e 42 56 3c 1d cc 1a 3c 73 52 0a 3d
       -0.019304732 0.013077406 0.009448078 0.033770036
000030 c0 20 0e bd 00 4d c7 3c e1 7b 64 3c f3 93 ce bc
       -0.0346992 0.024328709 0.013945551 -0.025217032
000040 ef 46 2e bd 14 86 ea ba f6 7d f3 bc 4d 30 5b 3c
       -0.042548116 -0.0017892742 -0.029723149 0.013378215
000050 36 2f ce bb d9 e4 c6 ba 44 f5 b0 3b 10 1f 26 3d
       -0.006292249 -0.0015174403 0.0054003317 0.040556967
000060 7b cd 01 3c ea 31 f6 bc 85 f0 95 3c be 4d 06 bc
       0.0079225255 -0.030053098 0.018303165 -0.008197246
000070 87 4c db 3c 42 df 1a 3d 46 a0 ce 3b b7 af eb bc
       0.02676989 0.03781057 0.006305727 -0.02877031
000080 ee 79 be bc 62 be 15 3d 5a 4e 81 3c a5 c4 a2 3c
       -0.0232515 0.036558516 0.015784431 0.019869158
000090 59 25 8f bc b9 99 30 3d bc 2e 0a 3d 19 0e 4e 3d
       -0.017473863 0.04311535 0.033735976 0.050306413
0000a0 be 67 01 bd 9f 41 bd bc 3f 4b ac 3c af 95 fa 3b
       -0.031593077 -0.02310258 0.021031974 0.007647238
0000b0 40 2c 2e bc 8a e9 21 3b 9d 89 0b bd 78 e6 05 3d
       -0.010630667 0.002470585 -0.034066785 0.032690495
0000c0 9e ca 6e bc 4d 61 09 3d 0d 98 9c bc 3e 6f 92 bb
       -0.014574675 0.03354006 -0.019115472 -0.0044688275
0000d0 7d 04 ea bc 6a 0a bc 3c e4 7a a6 bc 08 cf 35 3d
       -0.028566593 0.022954185 -0.02032227 0.044386894
0000e0 ea 5c 59 3c 5f ee a7 bc 85 7f f2 bc 66 7d e2 3c
       0.013266781 -0.020499406 -0.029601822 0.027647685
0000f0 c6 4c 10 3d b8 a7 64 3c 96 bd b7 3c e5 cc ce bc
       0.035229467 0.013956003 0.022429269 -0.025244186
000100 08 62 43 3c 5f 78 18 3d 9a 75 1f 3c b0 01 7a 3b
       0.011925228 0.03722417 0.009732628 0.0038147978
000110 40 b2 d9 3c 65 a3 81 bb ce 89 b5 3b 39 88 5b bc
       0.026574254 -0.0039562457 0.0055401092 -0.013399177
000120 2a e1 0d b9 0a b7 28 bd bb f1 31 bd 10 ef fe bc
       -0.00013530688 -0.041190185 -0.043443423 -0.031119853
000130 f8 80 33 bd 92 ab 01 bd 25 2a 42 3c 48 c3 e8 3a
       -0.043824166 -0.031657763 0.011850868 0.0017758394
000140 cc 65 de 3b ae 98 2f 3d 2e a7 b1 bc 76 88 ac bc
       0.0067870375 0.042870216 -0.021686163 -0.021061163
000150 2c 7b 04 3d 85 08 a4 3c 22 17 09 3d 70 8a 2c 3d
       0.03234403 0.020023594 0.033469327 0.04212421
000160 e3 5e f7 3b 53 0c 0e bd c5 c9 c9 bc 35 ef 62 3b
       0.007549153 -0.034679722 -0.024632344 0.0034627442
000170 81 5b 71 3c e8 77 06 bd 85 28 fb bc d9 32 37 3c
       0.014731289 -0.032829195 -0.03065897 0.011181557
000180 57 09 69 bb 7a 93 5c bc 22 6c d2 bc 57 f9 da bc
       -0.0035558545 -0.0134628955 -0.025686327 -0.026730223
000190 4d ed cb bc a6 8d 03 3d c9 01 13 bc 4a 83 cb bc
       -0.024893427 0.03211751 -0.008972594 -0.024842877
0001a0 c3 10 20 bc f8 82 1e 3d 2c 11 05 bc 8d 1f 97 bc
       -0.009769621 0.03869912 -0.00812177 -0.018447662
0001b0 d5 6c 0b 3c c1 82 3d bc 91 80 61 bc ea 0f f6 bc
       0.008509834 -0.011566819 -0.013763563 -0.030036885
0001c0 2a 3c c9 bb f6 fe d0 3c 35 8e 08 3d f7 0a a4 bc
       -0.0061412053 0.0255122 0.033338744 -0.02002476
0001d0 b4 e9 2e 3d be 76 0a 3d 7a 0d c4 bc 2f 69 36 3d
       0.042703345 0.033804648 -0.023932207 0.044533905
0001e0 53 19 1d 3d ec 55 d0 ba 1e e5 b9 3c 20 71 17 3b
       0.03835423 -0.0015894747 0.02269226 0.00231082
0001f0 4e 89 17 3d a0 08 33 3d f2 b2 f2 bb a3 3f ab bc
       0.03699618 0.043709397 -0.007406586 -0.020904368
000200 a6 4f f6 3c 68 73 5a b9 45 21 27 3d af c3 d6 bb
       0.030067276 -0.00020833092 0.040803213 -0.006554089
000210 cb 57 41 3b 7e 30 29 3c 5c d1 94 3c 0f 12 49 bc
       0.0029501792 0.010326503 0.018166237 -0.012272372
000220 c6 93 6b bc 34 9a 5e ba ff 65 37 3d 09 72 10 3d
       -0.014378494 -0.0008491606 0.044775005 0.035265002
000230 30 82 cd bc df 5b f8 bb b2 c1 19 3d 2b ad fe 3b
       -0.025086492 -0.0075793113 0.037538238 0.007772108
000240 46 1c 0b 3d f5 5e b7 3c fb 5b 34 3d 75 ff b4 bc
       0.03396251 0.022384146 0.044033032 -0.022094468
000250 9f e5 99 3c c9 f1 f6 3c 17 39 39 3d 62 81 40 3b
       0.01878625 0.030144589 0.04522046 0.0029373993
000260 dd 58 95 3c e1 1f 9e bc 60 d3 2e 3d 74 24 06 3d
       0.01823085 -0.01930231 0.04268205 0.03274961
000270 f8 4f 28 3d 18 97 34 3d e4 e7 7a bc 25 2e a6 3c
       0.04109189 0.044089407 -0.015314076 0.020285675
000280 11 43 f9 bb 98 4d 20 3d a7 b7 17 3d d1 9f 09 3d
       -0.007606872 0.0391365 0.03704038 0.03359968
000290 08 35 4b 3c 8b 04 26 3d 10 d8 88 bc d0 db 25 bc
       0.01240278 0.040531676 -0.01670459 -0.010123208
0002a0 c6 db 77 3c 7c ab 8c 3b e0 33 62 3c 5b 02 a1 3c
       0.015128082 0.0042929035 0.013806313 0.019654443
0002b0 0b 72 be 3c c7 16 44 3d 93 a7 42 3c 0f 0a 59 bb
       0.02324774 0.047873285 0.011880773 -0.0033117568
0002c0 c2 72 80 3c 82 cd ca bc a2 c6 f4 3c e0 ff 14 3c
       0.01567972 -0.024756197 0.029879872 0.0090942085
0002d0 03 fd 0d 3d a6 a8 bd 3c c7 87 ae 3c b9 b0 3f 3c
       0.03466512 0.023151707 0.021304978 0.011699849
0002e0 48 35 fd bc 1f 90 a7 bc 17 0c 01 bd 40 eb ec bc
       -0.030909196 -0.020454464 -0.03150567 -0.02892077
0002f0 ed 80 7d 3c e7 17 32 3c d4 2b bd 3c 6a c0 43 3d
       0.015472633 0.010869957 0.023092188 0.047790922
000300 79 18 a3 3c ba 71 d8 bc 6e 4f f6 bc a5 a0 e3 bc
       0.01990913 -0.026421417 -0.030067172 -0.027786562
000310 30 8b ca 3c 75 69 e6 3c 07 c3 98 bc a3 83 b2 bc
       0.024724573 0.028126458 -0.018647684 -0.021791285
000320 d1 b8 30 3d 91 d6 af bc 7b 02 12 3d 28 bd d1 3c
       0.043145005 -0.021464618 0.035646897 0.025602892
000330 9a 36 89 bc b3 a8 89 bc fc 31 0f 3d a1 df 26 bd
       -0.016749669 -0.016804075 0.03495978 -0.040740613
000340 e6 fb 18 bd 11 fc eb bc be 2a 17 3d 98 f8 dc 3c
       -0.037349604 -0.028806718 0.036905997 0.026974007
000350 22 13 0f 3c 7c 9e 29 3c 0b 9c bd bc d5 88 3c 3c
       0.008732589 0.010352727 -0.023145696 0.011507233
000360 6b 74 04 bd 8a b8 73 3c b3 a1 d0 3c 37 61 95 3a
       -0.032337587 0.0148755405 0.02546773 0.001139677
000370 e0 4a 83 3c 26 51 52 bc 1f 39 29 3d 55 38 f5 3b
       0.016026914 -0.01283673 0.04131424 0.007483522
000380 31 6e 44 3d fc aa 82 3c 4c d5 68 3c e0 88 d6 bc
       0.04795665 0.015950672 0.01421101 -0.026188314
000390 c9 67 da 3c 45 42 56 bc ec a4 e6 bb b3 6f 11 3d
       0.026660817 -0.013077323 -0.007038703 0.035506915
0003a0 da c6 0c 3c f4 10 38 3d de 5d 8a bc 7a 76 34 3d
       0.008592332 0.044938043 -0.016890462 0.0440583
0003b0 13 70 51 bc 28 35 57 bc 7a 6a 48 3d b9 13 23 bc
       -0.012783068 -0.013135232 0.04892967 -0.009953433
0003c0 5f 80 29 3d c5 fe a9 3c c4 ae 53 3c 4c 04 3a 3d
       0.04138219 0.020751366 0.012920085 0.045414254
0003d0 7c ac 9d 3c e7 80 70 39 bc b8 49 bc c3 b7 9e bb
       0.019247286 0.00022936203 -0.0123121105 -0.0048436834
0003e0 c4 14 bd 3b fd 61 73 3c e4 f5 ef 3c 3a d5 a8 bc
       0.0057702977 0.014854905 0.029292054 -0.020609487
0003f0 0a ed 22 3c 59 3a 16 bc 3f b7 08 bd 87 1a 30 3d
       0.00994421 -0.009169185 -0.033377882 0.04299405

res_blocks.2.conv.weight f4 [64, 64, 3, 3]
000000 a2 61 88 bc 6e e5 da 3c 5d 8e 22 bd bd ec 1a bc
       -0.016648117 0.026720729 -0.03968655 -0.009455857
000010 38 7d dd 3c ff b1 ee bc a1 82 b6 bb f5 c5 18 3d
       0.027037248 -0.02913761 -0.0055697714 0.03729816
000020 77 9b 21 3d aa 31 7b bc f9 c9 f7 3b ea 6e d0 bc
       0.039454903 -0.015331665 0.007561919 -0.025443513
000030 ef 69 05 bd 0b b4 22 bc b9 3b c3 bc 0e cc be 3b
       -0.03257173 -0.009930621 -0.023832189 0.005822665
000040 23 af cd bb 5f 4d 1b 3d 4c 47 9d 3b b9 3c 03 3c
       -0.0062769814 0.037915584 0.004799759 0.008010083
000050 15 e8 d9 bc 96 5f 9e bb 11 c0 06 bd a4 dd c2 3c
       -0.026599923 -0.004833172 -0.032898013 0.023787327
000060 df 9e 1c 3d 59 85 95 bc 0e b9 d4 bc 4a bb af bc
       0.03823745 -0.018252062 -0.025967147 -0.021451611
000070 8b 2f f4 3c 61 2f 14 3d 44 43 c0 bb 5b 16 e8 bb
       0.029807827 0.036177997 -0.0058673937 -0.007082743
000080 81 40 43 3d c3 16 02 bd 81 dd aa 3c 29 05 2b 3c
       0.047668938 -0.03175999 0.020857574 0.010438242
000090 07 67 14 bd da fc 6d 3c 4e 8a 1b bd f7 88 b8 ba
       -0.036231067 0.014525617 -0.037973695 -0.0014078905
0000a0 e1 67 7a 3c 00 9a 0c bc ba f1 c2 3b 28 33 ab 3c
       0.015283556 -0.008581638 0.005949226 0.020898417
0000b0 8c df bb 3c 86 12 be 3b fa 9a 84 39 40 2f ba bc
       0.022933744 0.005800548 0.00025292468 -0.022727609
0000c0 23 06 25 3d 43 cc 2c 3d dd 84 20 3b f5 d6 30 3d
       0.040289056 0.042186987 0.0024493255 0.04317375
0000d0 c4 54 16 3d 51 61 9d 3b a6 07 b2 bc d8 a7 92 bc
       0.036701933 0.004802861 -0.021732163 -0.0179023
0000e0 87 d4 47 3b f3 2f 34 3d fb 77 2b 3d 79 2c cf bb
       0.0030491666 0.04399104 0.04186247 -0.00632244
0000f0 47 27 1f 3d 46 14 9c 3c 8a 5a 6c bc a8 bb 92 bc
       0.038855817 0.019052636 -0.014425883 -0.017911747
000100 2f b9 9e 3c 95 27 01 3d 86 27 06 3a 39 21 14 3d
       0.019375412 0.03153189 0.0005117584 0.036164496
000110 eb 19 bf 3b c7 eb 05 3d da 34 c8 bc 51 7b 72 3c
       0.005831947 0.032695558 -0.024439264 0.014799909
000120 31 6c a7 3c ca 71 5a 3c f6 87 27 bd e2 e8 0c bd
       0.020437332 0.0133327935 -0.040901147 -0.03440178
000130 96 b5 f7 bc 63 6f b4 bc 9b 83 0d ba fe 9f 11 bd
       -0.030237954 -0.02202577 -0.0005398334 -0.03555297
000140 12 84 07 bd 8e 7f 0f bc 4e e8 99 bc ed a2 39 3d
       -0.033084936 -0.008758439 -0.01878753 0.045321394
000150 0d c0 0f 3c 2e 40 08 3d 44 d8 cf bb c1 2a 00 bd
       0.008773816 0.03326433 -0.0063429195 -0.031290773
000160 94 0c 9f bc f6 1a ae bc 62 3c 23 bc fd f0 23 bd
       -0.019415177 -0.02125309 -0.009963127 -0.040024746
000170 2f 0b d7 bb 3e bc 10 3c e8 ec 17 bd 65 7f 84 3c
       -0.0065626125 0.008833943 -0.037091166 0.016174028
000180 89 e3 ec b6 59 d4 0b 3d 75 f2 8a 3c 98 81 e3 bc
       -7.0598367e-06 0.034138057 0.016961316 -0.027771756
000190 07 8e 40 3c c7 48 5a 3c 7b 79 a3 3c e9 a3 97 3c
       0.011752612 0.0133230155 0.019955387 0.018510776
0001a0 a5 50 0c 3d 28 30 41 3d 3d e5 45 3c c9 22 3d 3d
       0.034256596 0.047165066 0.01207858 0.04617575
0001b0 cd 2c f1 3c f9 9b 32 3d 51 6f d5 bc e5 12 c2 3c
       0.029440308 0.04360578 -0.026054056 0.02369065
0001c0 91 fa 4e 3b b8 23 93 bb af 07 2b 3b bb fc fc bc
       0.0031582455 -0.004490342 0.002609711 -0.03088223
0001d0 5f 49 ec 3b c9 df 3b bb dd 6a f6 3c e4 00 23 3d
       0.007210895 -0.0028667322 0.030080253 0.03979577
0001e0 de e1 fb 3c e0 eb 6d 3c ae 84 c4 bc 93 70 8e bc
       0.03074735 0.014521569 -0.023989048 -0.017387664
0001f0 07 6d 15 bd 76 a6 2a 3d 9f 06 2a 3d dc 65 bd 3c
       -0.03648093 0.041662656 0.04151022 0.02311986
000200 43 44 71 bc 6e de e3 3b 0b 55 88 3b 12 d7 7b ba
       -0.0147257475 0.006954006 0.0041605285 -0.0009606938
000210 05 d3 04 3d bc f1 f4 bc 1f 67 07 bd c3 cd 10 bd
       0.032427806 -0.029900424 -0.03305733 -0.03535248
000220 f5 fa 38 3d 0e a6 d9 3c 74 75 29 3c 25 5a 65 bc
       0.045161206 0.026568439 0.010342944 -0.013998543
000230 01 d5 c3 bc f0 11 df bc ac fb 9f bc 9e 0e 27 3d
       -0.02390528 -0.027230233 -0.019529186 0.040785424
000240 e3 34 f3 3c 0f a7 4d 3c 41 42 19 3c f3 72 2e 3d
       0.029688304 0.012552037 0.009354175 0.042590093
000250 84 d4 19 3d 86 c0 cc 3c 11 09 f6 3c 92 b6 35 3c
       0.037556186 0.024994146 0.03003362 0.011090891
000260 6d 98 87 bc a7 26 d0 3c 2a 32 e3 bc 7c 75 16 3c
       -0.016552174 0.025409056 -0.027733881 0.009183284
000270 1d 38 2b bc ae 7f 0b bc 52 22 e1 bc 83 9c 88 3b
       -0.01045039 -0.008514328 -0.027482186 0.0041690483
000280 b0 72 d6 bb 38 89 d5 3c 91 a2 e5 bb 1e cb 0e 3d
       -0.0065444335 0.026066408 -0.007007905 0.034861676
000290 4b 58 42 3a d6 7b 1b 3d bd 1e d8 3b cc 1b 39 3d
       0.00074136694 0.037959896 0.006595461 0.045192525
0002a0 57 f7 98 bc 59 50 6a bc 30 02 25 3d 81 c4 fe bc
       -0.018672628 -0.014301383 0.04028529 -0.03109956
0002b0 03 04 8e 3b 46 fa 13 bb 8c 56 af 3c 4c 24 97 bc
       0.0043339743 -0.0022579595 0.021403573 -0.018449925
0002c0 a5 9d 2e 3d 2b bf 93 3b 85 b3 a8 bc 94 dc a6 3b
       0.04263081 0.004508873 -0.020593414 0.005092213
0002d0 a3 e5 4a 3d df 31 b3 3c db 76 9b 3c c8 4f c9 3c
       0.049535405 0.021874366 0.018977573 0.024574175
0002e0 82 66 48 ba 65 fe cb 3a 49 72 b5 3c a0 f7 d4 3b
       -0.00076446694 0.0015563486 0.022149222 0.0064992458
0002f0 af 19 ac 3c 1b c6 01 3d 4d 0a 03 bd 37 3e 06 3d
       0.02100834 0.03168307 -0.031992245 0.032774176
000300 8e 56 04 3d 05 af a9 bc 09 31 1f 3d 02 46 09 ba
       0.032309107 -0.020713339 0.038865123 -0.0005236567
000310 3e 8e 2d 3b c4 49 db bb 67 f9 10 3d 62 bd 44 3d
       0.0026482488 -0.006692143 0.0353941 0.048032172
000320 64 35 66 3c 79 f4 2d 3d c1 f4 22 3d eb 3b 32 3d
       0.014050815 0.042469475 0.039784197 0.043514173
000330 bc f3 f2 3c 4e 50 3c 3d 69 91 c5 3c 6d 5a 3e bc
       0.029657237 0.045975022 0.024117189 -0.011618239
000340 50 08 70 3b 3a 1c 24 bc 2c f8 e5 bb 20 c1 d4 3c
       0.0036626048 -0.010016495 -0.00701811 0.025970995
000350 79 55 a8 bb f8 3f b2 bc be b1 2a 3d 54 79 19 bd
       -0.0051371423 -0.021759018 0.041673414 -0.037469223
000360 34 dd 87 3c 92 e1 11 3d c4 f2 71 bc d5 eb 4d 3b
       0.01658497 0.03561551 -0.0147673525 0.0031421084
000370 67 3f 1c 3c f5 cb 79 bb 31 59 12 bd e5 0d d1 bc
       0.009536601 -0.0038115953 -0.03572959 -0.02551932
000380 00 02 d8 3c 13 5c 80 3a 07 2e 3c 3b 68 44 6a 3c
       0.026368141 0.0009793065 0.0028713958 0.014298536
000390 a1 b3 42 3d f7 20 e2 bc 29 87 54 bb c0 f8 e3 3c
       0.04753459 -0.02760361 -0.0032429195 0.027828574
0003a0 b3 f5 cd bc d8 54 0e bd 01 f5 0e 3d f7 6d 04 3c
       -0.025141573 -0.034748882 0.034901623 0.008082858
0003b0 1c fc db bc 20 bd c3 bc dd 6a 20 3d d0 9b 66 38
       -0.026853614 -0.023893893 0.039164413 5.4981385e-05
0003c0 6e 41 c3 3c 7f 61 c7 bc bd be eb bc cb ef a1 3c
       0.02383491 -0.024338482 -0.028777475 0.019767663
0003d0 14 bb 02 bd ec ee d1 3b 5d 99 98 bc 52 fd 12 bc
       -0.031916693 0.0064066555 -0.018627817 -0.008971529
0003e0 95 ec 76 3b a4 89 48 3c 8c a5 c9 3a ec cc 6f 3b
       0.0037677635 0.012239847 0.001538442 0.0036590649
0003f0 49 7f 92 bc 84 b0 0f 3d e0 26 3e 3c f8 80 04 3d
       -0.01788296 0.035080448 0.011605948 0.032349557

global_pool.0.weight f4 [64, 64, 3, 3]
000000 68 31 98 3b 57 df 06 bd 33 5b fc 3c cf 1b 98 3c
       0.0046445616 -0.032927837 0.030805206 0.018567948
000010 6e a0 b2 bc d2 17 48 3c 8f 3d 19 bc 88 a7 fc 3c
       -0.021805014 0.01221271 -0.009353056 0.030841604
000020 c5 c0 b1 3b 42 d2 12 3c d7 17 1a bc 64 26 f5 3c
       0.0054245912 0.008961262 -0.009405098 0.029925533
000030 d8 fa 13 3b d8 1d 0a bd e1 69 4b bc 4d 5c 34 3d
       0.0022579934 -0.033719867 -0.01241538 0.044033337
000040 73 82 c5 ba 75 88 e1 3c 18 27 0a 3d 1e 59 68 bc
       -0.0015068784 0.027530888 0.03372869 -0.014181403
000050 bb 70 13 3d fb 64 36 bd 2b 6a 1f bd 64 20 31 bd
       0.03599618 -0.044529896 -0.03891961 -0.04324378
000060 68 89 b5 bb db 11 51 bc 73 88 4b bc 03 4a 05 3d
       -0.0055400617 -0.012760605 -0.012422669 0.032541286
000070 90 6a e6 bc 30 66 bd bc 3c ef f4 bc 69 b8 3c bd
       -0.028126985 -0.023120016 -0.029899232 -0.046074305
000080 7e eb 73 3c 9d bc 8c bc c2 c8 6c bc b3 89 42 bb
       0.014887689 -0.017179782 -0.014452161 -0.0029684126
000090 a8 3a 18 3b 53 18 ba bc 66 eb 66 bc 20 b0 40 ba
       0.0023228321 -0.022716677 -0.014094209 -0.00073504634
0000a0 d7 c6 3d bd 65 d3 d1 bc 17 e2 05 bd 31 3f 2d 3c
       -0.046332207 -0.025613496 -0.03268632 0.010574148
0000b0 88 97 cb 3c 61 b4 54 3c cb f5 0b 3d 11 67 06 bd
       0.02485253 0.012982459 0.034169953 -0.032813136
0000c0 87 e1 bf bc 19 06 07 bd 8f 31 26 bd 2b 03 3b bd
       -0.02342297 -0.0329648 -0.040574607 -0.045657318
0000d0 49 9c 85 bc 0a cf 38 39 b2 83 94 bb 22 17 90 3c
       -0.016309874 0.00017624735 -0.004532301 0.017589156
0000e0 e6 94 1b bd 92 d3 13 bc 9c 89 de 3c 63 8e e7 3c
       -0.037983797 -0.00902261 0.027165227 0.028266137
0000f0 42 1c 02 bd ab 0e 2d bd 33 8b 01 3d 08 da d6 bc
       -0.03176523 -0.042250317 0.03162689 -0.026227012
000100 4a 25 06 3d 12 b8 ba 3c dd 2e b9 3c 7e 01 02 3d
       0.032750405 0.02279285 0.022605354 0.031739704
000110 f0 d1 1f 3c 79 8e cb 3c 06 63 28 37 07 de 14 bd
       0.009754643 0.02484821 1.0036636e-05 -0.036344554
000120 80 6c 25 bb fa 8d 12 bd 7b 64 af 3c 91 8d f1 3b
       -0.0025241673 -0.03577993 0.021410218 0.0073716124
000130 df 30 71 bb ff 77 b2 3c b7 60 9a 3b d6 88 16 3d
       -0.003680281 0.021785734 0.0047112363 0.03675159
000140 c0 d2 cc bc 65 29 2f bd 43 7f e4 3a 6e dd 04 3d
       -0.025002837 -0.042764086 0.0017432946 0.032437734
000150 0e fb bf bb 08 b1 ad 3a 79 cd 01 ba f2 4e c1 bc
       -0.0058587855 0.0013251612 -0.0004951577 -0.023597214
000160 44 05 75 3c f3 c1 4e 3c 2d 4d 00 bd 53 82 06 bd
       0.014954869 0.012619483 -0.0313236 -0.03283913
000170 22 cb 3f bc fd 8e 07 3d 82 59 1d bd ce 96 f2 3c
       -0.0117061455 0.03309535 -0.03841544 0.029612925
000180 0f ac 07 bd 6e 68 e9 3c 61 ee 15 3d 93 7f 0d 3c
       -0.033123072 0.028492179 0.03660429 0.008636373
000190 02 15 05 bd 03 fa 20 bc 13 ef 2a 3b d6 66 a0 3c
       -0.032490738 -0.009825232 0.002608244 0.019580286
0001a0 dd 4a 8d bb 8c 24 27 3d a4 cd 05 bd 90 ae 9f bc
       -0.004311903 0.04080634 -0.032666817 -0.019492418
0001b0 c5 51 0b bd 2b af 84 3b 99 4c f6 bb c4 48 c8 bc
       -0.03401353 0.004049202 -0.0075164554 -0.02444876
0001c0 3e 5c 51 3c a4 86 86 bc be 3d 32 bd ab 00 f6 b8
       0.01277834 -0.016421624 -0.043515913 -0.000117303185
0001d0 2f a2 08 3c af ee 0a 3d c4 81 28 bd c1 3a 05 3c
       0.008339449 0.033919033 -0.04113938 0.008131684
0001e0 ce 8d 05 bd 78 2b 61 3c ea d6 66 bc 51 23 02 3c
       -0.03260594 0.013743274 -0.014089325 0.00794299
0001f0 1c a3 36 bd a1 b7 11 bc da 8f 39 bd e8 29 54 3b
       -0.044589147 -0.008893878 -0.045303203 0.003237361
000200 e5 bf f2 3c 14 22 94 bc 2f 98 85 3b 96 23 96 bc
       0.029632518 -0.018082656 0.0040769796 -0.018327516
000210 a5 3b ff 3c ee 0d bc 3c 3a 41 82 bc c4 a8 9e bb
       0.03115637 0.022955861 -0.015900243 -0.004841896
000220 ac 07 bf 3b d8 bb 02 bd bd e6 de bc ca 89 97 3c
       0.005829772 -0.031917423 -0.027209634 0.01849832
000230 b8 a4 8a bc 2e 7a 19 3c 36 c5 52 3c 9f 85 3f bd
       -0.016924247 0.009367509 0.012864402 -0.04675829
000240 01 e2 10 3d 77 5a 8e 3c c5 80 ad 3c e8 e7 f0 3c
       0.035371784 0.017377121 0.021179566 0.029407457
000250 e9 5e 28 bd bb 99 8d bb e7 56 a5 3b 08 c7 07 bd
       -0.04110614 -0.0043213046 0.00504576 -0.033148795
000260 7d 20 db bc 92 19 68 3c ba 89 0e 3d 26 1c 5c 3c
       -0.02674889 0.014166253 0.034799315 0.0134344455
000270 1f 1e 39 3c f9 8f fb 3c 7e 92 3e bd f1 f8 f1 bc
       0.011298685 0.0307083 -0.046526425 -0.02953765
000280 e9 0b a7 3c 5e 0e 18 bd 10 9d 3e 3b 14 8c f2 bb
       0.020391421 -0.037123077 0.0029085316 -0.0074019525
000290 74 fd 91 bb ba ab 4a 3c 59 5c ef bc 08 98 d7 bc
       -0.004455263 0.012370044 -0.02921884 -0.026317611
0002a0 4f da 18 bd b1 f0 26 bd 1b 59 0f bd ec 41 39 bc
       -0.03731757 -0.040756885 -0.034997087 -0.011307221
0002b0 21 28 53 bc ff ba 80 bc 65 22 14 bd d1 87 1a bd
       -0.012887985 -0.015714167 -0.036165614 -0.03772718
0002c0 3b 45 8e bc d1 ce 23 bd 15 8f a6 bb 29 0a cb bc
       -0.017366996 -0.039992157 -0.0050829747 -0.024785118
0002d0 ca 35 1e bc 23 62 3c bc 50 90 67 3b 05 97 be bc
       -0.009656379 -0.011498007 0.003533382 -0.023265371
0002e0 7b 45 ea 3c 76 56 15 bd ee 75 06 3d e5 3a bd 3b
       0.028597584 -0.03645941 0.03282731 0.005774843
0002f0 e1 a3 da 3c 53 1b e2 3c 14 c6 f7 3c 3f 9d 19 bd
       0.026689472 0.02760092 0.030245818 -0.037503477
000300 87 1c 22 bb 0f e1 65 bb 6c da 8c 3c 8a a8 ac bc
       -0.0024736242 -0.0035076772 0.017193995 -0.02107646
000310 d4 05 15 3c 91 99 82 3c 27 b3 2c 3c f5 d0 b3 3c
       0.009095628 0.015942367 0.01054076 0.021950224
000320 ea 13 b7 3b 74 a1 39 bd d1 19 14 3d 90 9e c3 3c
       0.0055870907 -0.04531999 0.036157433 0.02387932
000330 52 54 c8 3b 45 5e f8 3c e2 b7 9a 3c 71 25 3c bc
       0.0061135674 0.030318389 0.01888651 -0.011483536
000340 cc d0 e3 3c 14 5a bc 3c bc 09 b5 bc 3b d2 52 3c
       0.027809523 0.022992171 -0.022099368 0.012867506
000350 db 80 d5 ba c1 e8 10 bd 2e 3c a4 bc b7 a3 cf 3c
       -0.0016289012 -0.03537822 -0.020048227 0.02534662
000360 68 b9 d2 3c 76 e7 bf 3c f5 61 a1 3b 9a af c0 3c
       0.025723174 0.023425799 0.0049250075 0.023521233
000370 ea 06 96 3c ea 76 b7 3c 80 40 96 bc d4 51 c1 3c
       0.018313844 0.02239557 -0.018341303 0.023598589
000380 71 06 73 bc 1a 9c a8 bc 82 19 dc bc 7b 6c 77 bc
       -0.014833079 -0.020582248 -0.026867632 -0.015101547
000390 e1 15 fc 3c 9a 24 ba 3b f0 76 95 3c 6d 8f 46 3c
       0.030772151 0.005680633 0.01824519 0.012119156
0003a0 1a bc a8 bc 75 76 de 3c e3 89 40 3c ed 94 e2 bc
       -0.020597506 0.027156094 0.011751625 -0.027658904
0003b0 76 9a 0b bd 0a 6e 9d bb a4 d1 f5 3b 5f 98 ff bb
       -0.034082852 -0.0048043774 0.0075017978 -0.0078001465
0003c0 5f bd cb bc 2c f6 69 bc 21 43 42 bd 40 15 c9 bc
       -0.024870573 -0.014279883 -0.0474273 -0.024546266
0003d0 8a 2e 01 3c 88 50 6c bc eb b1 ce 3b 48 5c 8b 3a
       0.007884631 -0.014423497 0.0063078306 0.001063236
0003e0 9d f0 7a 3c bc ed 40 bd 32 69 18 bd c6 1b 35 bd
       0.015316156 -0.04710172 -0.037209697 -0.04421594
0003f0 fb 70 04 3d 6b 95 2c 3c e5 67 c8 bc 85 9e a9 bb
       0.03233431 0.010533671 -0.024463603 -0.0051763677

global_pool.0.bias f4 [64]
000000 6e 5f ae bb 10 0f b6 bc c2 21 1b 3c cb c4 2d bd
       -0.0053214347 -0.02222398 0.009468498 -0.042424005
000010 07 e3 1c 3c 54 a9 ca bc 21 ab d6 bc ad bc 03 bd
       0.009575612 -0.024738945 -0.026204647 -0.032162357
000020 75 6b e0 b9 bb b3 31 bd 2f a4 d3 3c 72 f3 fd bc
       -0.0004280467 -0.043384295 0.025835125 -0.030999873
000030 c1 fc ab 3c 9c 24 55 3b 9a 7b 10 3d fd 36 dd bc
       0.020994546 0.0032523042 0.035274126 -0.02700376
000040 11 8c 1c bb 14 19 7e bc 9f d7 db 3c f2 35 63 3c
       -0.0023887197 -0.015508909 0.026836215 0.013867842
000050 f5 7d 11 bd c3 35 12 bd 16 e8 1e bd c8 4b c5 3c
       -0.035520513 -0.035695802 -0.038795553 0.024083987
000060 21 d7 ae bb 9d 0e 23 3d a2 ff 25 bd de 51 b0 3c
       -0.005335704 0.03980886 -0.040526994 0.021523412
000070 8a 29 19 3d 4c 24 05 3d 12 02 b1 3c f4 69 4a bc
       0.03739313 0.03250532 0.021607433 -0.012354363
000080 4c 6b 47 bc 91 0d c3 3c e0 fb 49 3c c0 66 40 bc
       -0.012171578 0.02381018 0.012328118 -0.0117432475
000090 e2 bc 92 ba 55 ed 9e 3b 90 ce 23 3d e7 09 ba 3b
       -0.0011195207 0.0048500695 0.039991915 0.00567745
0000a0 b2 f3 c5 3b b7 d4 3e 3d 6a 91 f2 3c d6 00 05 bd
       0.0060410136 0.04658958 0.029610354 -0.0324715
0000b0 07 6c 8c 3c a6 f1 43 bc f2 02 92 3c d8 1f 16 bc
       0.017141355 -0.011959469 0.01782367 -0.009162866
0000c0 94 60 07 3d 0e 7f 8c bc f9 dc d8 bb 93 a6 eb bc
       0.03305109 -0.017150428 -0.006618139 -0.028765952
0000d0 b7 9c 29 3c 2f 05 06 3d 9f 2c 21 3d a7 7a 35 3c
       0.010352305 0.032719787 0.039349195 0.011076606
0000e0 bc f5 22 bd f0 be b3 bb c7 a8 16 3b 35 99 60 bc
       -0.03978513 -0.005485408 0.0022988783 -0.013708402
0000f0 43 33 8a bb 97 e0 0b bd 49 c7 62 3b 41 a4 8e 3b
       -0.0042175367 -0.034149732 0.0034603646 0.0043530767

head.1.weight f4 [64]
000000 6e 76 7e 3f b5 93 7e 3f 6c 76 7e 3f 00 00 80 3f
       0.9939946 0.99444133 0.9939945 1.0
000010 9b 1c 7f 3f 00 00 80 3f 62 3a 7b 3f 00 00 80 3f
       0.99653023 1.0 0.9813596 1.0
000020 1e 29 7d 3f 00 00 80 3f c6 4b 7e 3f 62 76 78 3f
       0.98890865 1.0 0.9933437 0.9705564
000030 00 00 80 3f 00 00 80 3f af d5 7c 3f 6d 76 7e 3f
       1.0 1.0 0.98763555 0.99399453
000040 6c 14 81 3f 6c 76 7e 3f 00 00 80 3f b0 6b 80 3f
       1.0084357 0.9939945 1.0 1.0032864
000050 00 00 80 3f 00 00 80 3f 80 46 80 3f 44 b3 81 3f
       1.0 1.0 1.0021515 1.0132833
000060 b5 93 7e 3f bd 54 7e 3f b9 93 7e 3f 6c 76 7e 3f
       0.99444133 0.9934805 0.99444157 0.9939945
000070 50 5c 7f 3f d4 3b 7c 3f 83 2b 80 3f 00 00 80 3f
       0.9975023 0.9852879 1.0013279 1.0
000080 e8 93 7d 3f 87 76 7e 3f 6d 76 7e 3f bf ad 81 3f
       0.9905381 0.9939961 0.99399453 1.0131148
000090 2d 77 7e 3f b8 93 7e 3f a7 ac 7f 3f 00 00 80 3f
       0.994006 0.9944415 0.9987282 1.0
0000a0 14 75 7e 3f a6 40 81 3f 58 94 7e 3f 11 72 7f 3f
       0.993974 1.0097854 0.99445105 0.99783427
0000b0 a1 dd 7d 3f 3a 72 81 3f ea ad 7e 3f 6a 44 81 3f
       0.99166304 1.0112984 0.9948412 1.0099003
0000c0 94 6c 7f 3f 6c 76 7e 3f 4b 70 7e 3f 6c 76 7e 3f
       0.9977505 0.9939945 0.99390095 0.9939945
0000d0 0e c2 80 3f 05 06 7e 3f 70 30 81 3f 00 00 80 3f
       1.0059221 0.99227935 1.0092907 1.0
0000e0 2e 28 7c 3f 00 00 80 3f c8 93 7e 3f 59 fc 7c 3f
       0.9849881 1.0 0.99444246 0.9882255
0000f0 af 76 7e 3f 5a 04 7e 3f 9f d0 7f 3f 6c 76 7e 3f
       0.99399847 0.9922539 0.99927706 0.9939945

head.1.bias f4 [64]
000000 94 c9 c4 bb 40 27 b6 bb c7 c9 c4 bb 00 00 00 00
       -0.0060054753 -0.005558878 -0.006005499 0.0
000010 52 ba 71 3b 00 00 00 00 91 c8 c9 bc 00 00 00 00
       0.0036884737 0.0 -0.02463177 0.0
000020 b4 4e 8b bc 00 00 00 00 12 8b fb bb 10 9b c6 bc
       -0.017005302 0.0 -0.0076764906 -0.024243861
000030 00 00 00 00 00 00 00 00 46 7b 44 bc c9 c9 c4 bb
       0.0 0.0 -0.011992281 -0.0060055
000040 3c e9 17 3c c9 c9 c4 bb 00 00 00 00 4d 4d 41 3b
       0.009271916 -0.0060055 0.0 0.0029495538
000050 00 00 00 00 00 00 00 00 73 9e ee 3b ba c4 22 3c
       0.0 0.0 0.007282072 0.009934599
000060 3b 27 b6 bb e4 2a de bb 7c 26 b6 bb c9 c9 c4 bb
       -0.005558876 -0.0067800153 -0.005558787 -0.0060055
000070 9e 74 93 ba ef 06 21 bc 70 9f e8 3b 00 00 00 00
       -0.0011249965 -0.009828313 0.0070990846 0.0
000080 a6 c6 2e bc 6d c9 c4 bb c3 c9 c4 bb d7 4a 4d 3c
       -0.010667479 -0.006005457 -0.006005497 0.01253005
000090 4c c9 c4 bb 1b 27 b6 bb 29 f8 bf 3b 00 00 00 00
       -0.006005442 -0.005558861 0.0058584404 0.0
0000a0 a1 97 f2 bb b1 0d 1d 3c d9 24 b6 bb fa 45 ce 3a
       -0.0074033295 0.009585784 -0.005558592 0.0015737407
0000b0 d0 03 0a bc 7f cb 47 3c f2 97 80 3b ea 5f 27 3c
       -0.0084237605 0.012194513 0.0039243633 0.010215739
0000c0 7c 59 68 bc c9 c9 c4 bb 3f e4 c7 bb c7 c9 c4 bb
       -0.014181491 -0.0060055 -0.006100207 -0.006005499
0000d0 32 13 e8 bb 46 7b 17 bc 8b 65 05 3c 00 00 00 00
       -0.0070823664 -0.009245699 0.0081418855 0.0
0000e0 dc 61 71 bc 00 00 00 00 14 27 b6 bb 48 5e 05 bc
       -0.014732804 0.0 -0.0055588577 -0.008140154
0000f0 57 c6 c4 bb 84 68 1e bc 41 c1 0b 3c ca c9 c4 bb
       -0.0060050893 -0.009668473 0.008529962 -0.0060055004

head.3.weight f4 [64, 64]
000000 1a 6b 1d 3d 8d 2a 96 bd d7 08 b3 bb d0 f6 f2 bc
       0.038432218 -0.07332335 -0.0054637003 -0.029658705
000010 b5 f6 87 bd dc 02 7d bd 3d 27 b2 bd 64 27 bc 3d
       -0.066388525 -0.061770305 -0.0869889 0.09187201
000020 9c f5 e4 bd 1c 12 6e 3d 35 f1 54 bd b1 a0 e1 3d
       -0.11179659 0.05812274 -0.051987845 0.110169776
000030 ac c0 3f bd a2 b1 b0 3d ed 35 88 bc e1 dd 1f bd
       -0.046814606 0.08627631 -0.016627276 -0.03902996
000040 37 18 aa bd e2 0d b3 bc 88 56 63 bd cd a1 f8 bd
       -0.083054 -0.021857206 -0.055502445 -0.12140236
000050 10 54 8f bd 0c 5e 63 bd d6 dd a3 3d b3 06 5a bd
       -0.069984555 -0.055509612 0.08001296 -0.053229045
000060 31 27 bf 3d 03 22 9d 39 8a 6f 4e bd 9d 41 dd 3c
       0.09333647 0.00029970714 -0.05039934 0.027008826
000070 db 5e ff bc 39 4b c4 bd 97 fc ad 3d 9c ae 18 3d
       -0.03117316 -0.0958466 0.08495443 0.037275895
000080 a6 77 c8 bc 4a 4e c6 bc 42 0d cc 3d 88 a7 de 3d
       -0.024471115 -0.024207253 0.09963466 0.10871798
000090 e2 dd a4 3d b0 56 b2 bc 91 a0 86 3d 64 a6 20 3d
       0.08050133 -0.021769851 0.06573594 0.039221182
0000a0 c9 8e b9 bc a2 17 f4 bd de 95 4b bd ae 3a 61 3d
       -0.022651093 -0.1191857 -0.04970347 0.054987602
0000b0 be 50 b5 3d 55 28 89 3d 98 7a b8 bd 24 6e 08 bd
       0.08853291 0.06697146 -0.09007758 -0.033308163
0000c0 43 92 be 3c 02 5e 7a 3d 05 6d 88 bd 6a 54 20 3d
       0.023263102 0.06112481 -0.06661419 0.039143004
0000d0 38 7f e2 3d 78 4b ab bc b3 70 eb bd a8 62 d8 bc
       0.11059421 -0.02091001 -0.11496105 -0.02641423
0000e0 2f 65 c0 3d 6c 22 64 bd 4e 94 53 bb 60 8a 92 3d
       0.09394299 -0.05569689 -0.0032284441 0.07155299
0000f0 e5 8e 01 be a2 e7 8d bd 62 5c 27 3d e9 0b b5 3d
       -0.12652166 -0.06928946 0.040859587 0.08840162
000100 15 ac ab bb 8e d1 60 bc 8b 0f d2 bc ce 82 d2 bd
       -0.0052390196 -0.013721837 -0.025642177 -0.10278855
000110 4b 18 b8 3d 64 a1 18 bd b4 af 2c bd e4 26 b8 bd
       0.089890085 -0.03726329 -0.04215975 -0.08991793
000120 12 26 b8 3d ec ef 55 bd be 39 ae bd 28 e9 e4 bd
       0.08991636 -0.05223076 -0.08507107 -0.111772835
000130 18 aa 29 bd 80 82 6b bb 7c 31 ce 3d 98 17 ca 3d
       -0.04142198 -0.0035935938 0.10068032 0.098677814
000140 f0 ae e3 bd b5 fb bb 3d 38 3c a9 3d 17 e4 5e 3d
       -0.11117351 0.09178869 0.08263439 0.054416742
000150 38 01 5c bd e8 12 24 bd f0 d3 a0 3d fb af e3 bd
       -0.0537121 -0.040057093 0.07852924 -0.1111755
000160 12 2c c7 3d 88 e6 9b bd 8f 9f ba 3d df d3 d1 3d
       0.097252026 -0.0761233 0.09112465 0.10245489
000170 09 77 2b 3d 48 0e 6d 3d 2d 88 e9 bd 84 b6 94 3d
       0.041861568 0.057874948 -0.114029266 0.072613746
000180 a2 d0 82 bd 9b 12 9b 3d cb 06 9c 3d cb be e9 3c
       -0.0638745 0.07571908 0.07618483 0.02853336
000190 a5 9e 70 bd 80 dd 34 bd 9d 02 04 3c ec 92 bf 3d
       -0.058745045 -0.04415655 0.008057264 0.09354195
0001a0 53 6d 3d 3c f6 7b c4 3d b7 36 99 3c f0 5a f6 3d
       0.011561709 0.09593956 0.018702848 0.12029064
0001b0 6d 73 2d 3d 49 99 07 3d 41 1d d5 bd 3b 85 50 bd
       0.042346407 0.03310517 -0.1040597 -0.05090831
0001c0 16 8b 8d 3d e1 0b ad bd 06 ba 43 3d 45 48 68 bc
       0.06911294 -0.08449531 0.047784828 -0.014177387
0001d0 2e a2 9a 3d 62 fb be bd cc ba 10 bc f0 3d ec 3c
       0.075504646 -0.09325291 -0.008833598 0.028838128
0001e0 88 e3 75 bd 28 db aa bd 17 ce 01 3e a0 48 cb 3b
       -0.060031444 -0.08342582 0.12676273 0.006203726
0001f0 03 a6 50 bd 00 1d 08 bc a7 b6 dc bd 2f fe 9f 3b
       -0.05093957 -0.008307695 -0.10777026 0.004882596
000200 14 ab ae 3d 66 9c 39 3d 0d 75 bd bd a0 cd 9f bb
       0.08528724 0.04531517 -0.09250841 -0.0048768073
000210 d3 41 de 3d 2e 7f be bd 9f 14 7f bd b4 8d e6 3d
       0.10852399 -0.09301601 -0.062275525 0.112574965
000220 90 eb b7 bd 0e 85 ce 3d 94 97 25 3c ee bc 5f 3d
       -0.08980477 0.10083972 0.01010694 0.054623537
000230 00 18 f2 bb 5e 2d 92 bd 54 f0 c7 3d 97 c5 a8 3d
       -0.007388115 -0.07137559 0.09762636 0.08240812
000240 b2 d7 79 3d 84 96 8f bd 92 b3 fe bd 5b 52 83 bd
       0.06099672 -0.070111305 -0.12436594 -0.064121924
000250 b0 b7 bc bd 42 64 a9 bd 1d 36 f0 3d c2 db d4 bd
       -0.09214723 -0.08271076 0.11729071 -0.10393478
000260 75 29 37 3d cf 89 79 bd 72 b9 9c bc fa ef 41 3d
       0.04471727 -0.06092244 -0.019131396 0.047348
000270 4a 12 1c bd f5 1d e5 3d b6 5d 53 3c fc f2 fa 3d
       -0.03810338 0.111873545 0.01290076 0.12253377
000280 0a fc 3c 3c e3 81 84 bd 02 dd bf 3b be 28 b7 3d
       0.0115347 -0.064700864 0.0058552036 0.08943318
000290 09 d5 d0 3c 73 25 da 3c b8 c0 7f bd a0 62 d4 3c
       0.025492208 0.026629185 -0.06243965 0.025925934
0002a0 ca 23 86 3d af d0 1c bd ec a2 f5 bc 49 96 28 bc
       0.06549795 -0.038284954 -0.029984914 -0.010289737
0002b0 15 ce 64 3c d7 3c ba 3d 85 23 7c bd f8 0c be 3d
       0.013965149 0.090936355 -0.06155731 0.09279817
0002c0 1c 1b 89 3d ef fc 99 3d 29 93 45 3c 6f 9a e4 3d
       0.06694624 0.075189464 0.0120590115 0.11162268
0002d0 ed e5 61 3c bb 1a d3 3d d4 45 bc 3d 60 c5 d9 bd
       0.013787729 0.10307833 0.09193006 -0.106333494
0002e0 6d be f0 bc 48 94 a9 bc 32 d1 81 bb 0f 74 16 3c
       -0.029387677 -0.020700589 -0.0039617056 0.009182944
0002f0 bd 9f 80 bd 00 ea 6b 3d 5b f7 dd 3b ad 1b dd bc
       -0.06280468 0.057596207 0.006773872 -0.026990736
000300 f6 76 8d 3d 8c 67 1f 3d 09 e4 b0 bd 52 25 a2 bd
       0.069074556 0.03891711 -0.08637244 -0.079172745
000310 8f bf e5 3d 64 a3 7b 3d 08 54 b5 bc 40 87 13 bd
       0.112181775 0.06143512 -0.022134796 -0.036017656
000320 3f bf 11 3d c4 7c 0a bd f9 32 dc 3d 05 b6 32 3d
       0.035582777 -0.033810392 0.1075191 0.04363062
000330 16 0d b5 3d 26 7c ba 3d f3 dc 0a 3c 4a bd 69 bc
       0.088403866 0.09105711 0.00847553 -0.014266321
000340 05 04 da 3c 89 70 e8 3d 24 2e 21 3d c6 a7 73 3d
       0.026613245 0.113495894 0.039350644 0.059486173
000350 54 5c 2c bd 02 ec ba bd b3 8b 95 3c 37 2b c7 bb
       -0.04208024 -0.09127046 0.01825509 -0.0060781497
000360 e5 22 9a bd 7b 1c ef 3b 24 56 a7 3d fa 7e d1 3d
       -0.07526187 0.0072970963 0.08170727 0.10229297
000370 6a 36 58 3d 7e e1 6d bd b8 4b 52 bd 8c e3 71 bd
       0.05278627 -0.058076374 -0.051341742 -0.059054896
000380 a6 41 66 3c 1c e7 f0 bd fd e3 f2 3d e5 e6 7f bd
       0.014053738 -0.117628306 0.118598916 -0.062476058
000390 f2 8b 5a bc 48 d7 c3 bc 3c 12 e3 3d 76 94 e0 bd
       -0.01333903 -0.023906365 0.11087462 -0.10965817
0003a0 6b 86 71 3c 15 7f ef 3d fe b2 04 3e 8d 9a f3 bc
       0.01474152 0.11694161 0.12958905 -0.029736781
0003b0 95 92 10 3c ad f2 5f 3d 97 1a df bd 4b c1 7a 3d
       0.00882401 0.054674793 -0.108937435 0.061219495
0003c0 ac 34 87 bc e5 f9 54 bd ec 85 b2 3d bb 3f d2 bd
       -0.016504608 -0.05199613 0.0871695 -0.10266062
0003d0 43 7c d0 bd c7 7b ce 3d e2 a4 89 bd 5c 8a a1 bd
       -0.10179951 0.100822024 -0.06720902 -0.07887718
0003e0 c0 4c 01 bc b8 ba c3 bc 42 d6 f2 3d 02 a8 e6 bd
       -0.007891834 -0.023892745 0.11857273 -0.11262514
0003f0 61 39 d8 3d 6d 15 a9 3d 4c fb 79 3d 7f 89 97 3d
       0.10557819 0.0825604 0.06103067 0.07399272
